rust/models/mnist_cpu.pt (torch, 190590 bytes, 10 tensors)

weight f4 [6, 1, 5, 5]
-0.18884662 -0.12143419 0.100730106 -0.029458836 -0.110126734 0.057394728 0.04933922 -0.18505983
-0.042881846 -0.18526112 0.014264137 -0.013695866 0.12056802 -0.19366072 0.12159754 0.10231568
-0.004055336 0.033737093 -0.05169341 -0.05044675 -0.167223 0.1543227 -0.04427588 -0.15580669
0.07598187 -0.09992712 0.18016739 -0.17296095 -0.13177094 -0.12958455 -0.11642945 0.001221016
-0.17797498 -0.06986478 -0.122781925 0.10399629 -0.05008948 -0.13461846 -0.10416954 -0.14379832
0.14434911 -0.19092862 -0.13239461 0.07324614 -0.19691937 -0.05062148 -0.015490487 -0.07147518
0.067960754 -0.1283662 -0.16161938 -0.12665784 0.015879348 0.1534691 0.15793692 -0.08398094
0.067960694 0.06685366 -0.05729966 -0.17753325 0.053460732 0.13553317 -0.029457018 0.14070351
0.10420461 0.19506599 0.021294668 0.16970004 0.13676907 -0.09456005 0.0013445914 0.060295537
-0.03591974 -0.15444405 -0.0590477 0.12523784 0.022349074 0.018499374 0.1949368 0.17298765
0.019496888 0.062982365 0.17184351 0.17156489 -0.08881586 0.16199411 -0.1527092 0.103430465
0.07257216 0.009907365 0.15041204 0.055861786 0.09696604 0.1640457 -0.028033763 -0.15496758
0.11088909 -0.17871714 -0.10132463 0.07063262 -0.026077509 0.123843 0.01605907 -0.18806846
-0.16231298 0.049961492 -0.16437313 0.029201597 -0.08626077 -0.14302325 -0.11898935 0.04329057
-0.17017563 0.1624728 -0.0057902336 0.14173876 -0.06252174 -0.16093877 -0.0044378936 0.18369581
0.1407973 0.022794753 0.09550981 -0.11512142 0.10098992 0.19197564 -0.0041965246 -0.16465783
0.1572312 0.04089041 -0.1439968 -0.005320981 0.10159211 -0.11606753 -0.033138826 -0.034190327
0.12713616 -0.11150634 -0.053691775 -0.10155046 0.08331181 0.04106173 0.14172707 -0.03461787
0.014067084 -0.03515394 -0.104484394 0.023426086 -0.084172845 -0.1349916
00000000: 0261 41be 7db2 f8bd 964b ce3d a853 f1bc
00000010: 208a e1bd bc16 6b3d ec17 4a3d 5380 3dbe
00000020: e0a4 2fbd 17b5 3dbe 20b4 693c a064 60bc
00000030: 5eec f63d ff4e 46be 2208 f93d e28a d13d
00000040: a0e2 84bb e82f 0a3d 78bc 53bd 40a1 4ebd
00000050: 823c 2bbe c506 1e3e a05a 35bd ca8b 1fbe
00000060: 629c 9b3d 97a6 ccbd cd7d 383e ad1c 31be
00000070: f6ee 06be d0b1 04be 9072 eebd 800a a03a
00000080: 133f 36be 4415 8fbd 1775 fbbd 02fc d43d
00000090: a02a 4dbd 6cd9 09be d756 d5bd de3f 13be
000000a0: 41d0 133e cb82 43be 7492 07be 1202 963d
000000b0: 3ba5 49be 7858 4fbd d0cb 7dbc 9461 92bd
000000c0: 022f 8b3d 6e72 03be 8d7f 25be 98b2 01be
000000d0: 6815 823c 0127 1d3e 37ba 213e 33fe abbd
000000e0: fa2e 8b3d 92ea 883d 0cb3 6abd 47cb 35be
000000f0: a4f9 5a3d 35c9 0a3e d84f f1bc 9514 103e
00000100: 3a69 d53d 61bf 473e 2872 ae3c d9c5 2d3e
00000110: 310d 0c3e b3a8 c1bd 003d b03a 74f8 763d
00000120: 9420 13bd 9526 1ebe 00dc 71bd 593e 003e
00000130: 6815 b73c 008c 973c 839d 473e ad23 313e
00000140: f0b7 9f3c e6fc 803d bff7 2f3e b5ae 2f3e
00000150: 17e5 b5bd c9e1 253e cd5f 1cbe 5ad3 d33d
00000160: b6a0 943d 8052 223c 9d05 1a3e 54cf 643d
00000170: 2296 c63d 99fb 273e 10a7 e5bc d2af 1ebe
00000180: d219 e33d a001 37be 4a83 cfbd d6a7 903d
00000190: 80a0 d5bc 66a1 fd3d 508e 833c 0595 40be
000001a0: 6035 26be 6ca4 4c3d 6e51 28be 3038 ef3c
000001b0: 7da9 b0bd b074 12be b0b0 f3bd 7451 313d
000001c0: 8542 2ebe 455f 263e 00bc bdbb f723 113e
000001d0: 660b 80bd 22cd 24be c06b 91bb c11a 3c3e
000001e0: 2b2d 103e 10bc ba3c a69a c33d c7c4 ebbd
000001f0: ced3 ce3d 4395 443e 0083 89bb 109c 28be
00000200: 3701 213e b47c 273d e673 13be a05b aebb
00000210: 860f d03d d0b4 edbd 94bc 07bd 280b 0cbd
00000220: fb2f 023e 705d e4bd e8eb 5bbd b0f9 cfbd
00000230: 629f aa3d 5830 283d e720 113e 78cb 0dbd
00000240: a079 663c 94fd 0fbd eafb d5bd 10e8 bf3c
00000250: d062 acbd 3d3b 0abe

bias f4 [6]
-0.013118669 0.13557519 0.17386357 0.01758334 0.16103001 0.0022360831
00000000: b0ef 56bc 39d4 0a3e 4b09 323e f00a 903c
00000010: 0de5 243e 408b 123b

weight f4 [16, 6, 5, 5]
-0.026547767 0.075405836 -0.009223647 -0.009841114 -0.047989126 -0.07431243 0.020973377 -0.06834816
0.030137122 -0.06244442 0.022531658 0.07615264 -0.01934098 -0.07739084 0.021321721 -0.0026201755
-0.022955928 0.06521647 -0.0053051785 0.051825836 -0.079986535 -0.03640361 -0.01181151 -0.07544428
0.030634306 -0.01299949 -0.018888436 0.059519634 0.019608028 0.015189767 -0.07372891 0.06490365
-0.026789863 -0.04016175 0.04286249 -0.035268247 -0.02077768 0.071485355 -0.06861827 -0.0076264665
0.04647973 -0.046760343 -0.0150889605 0.037425928 0.054601878 0.058525145 -0.034887623 0.07504755
-0.06051135 0.08116861 -0.05811839 -0.007236317 -0.055682383 -0.00947085 -0.031599194 0.059503898
-0.06539666 0.021020383 0.07365045 0.03193666 0.025410973 0.0072593465 0.034992397 -0.039910164
0.0039895475 -0.05547496 -0.01874017 -0.011753574 -0.07934154 -0.07735341 0.018499188 0.049047336
-0.04919413 -0.024520248 -0.06339773 -0.06893225 0.0146098435 -0.025497366 -0.05941754 -0.057158113
-0.03281616 0.036892295 0.01883439 0.07979141 -0.010615282 0.01812473 0.024545118 -0.04758996
0.07854463 -0.023754377 -0.05789651 -0.062352 0.06768271 -0.06016268 0.032492682 0.047861904
0.08079103 0.040461533 -0.08139794 0.050126076 -0.0035228059 -0.06394005 -0.06558616 -0.015513524
-0.054379232 0.06077841 0.052813113 -0.020099536 -0.019257128 -0.08084504 0.044980437 0.03815595
0.061428636 0.06193036 0.020498022 -0.07203713 0.06815675 -0.00049404055 0.021785356 -0.022077039
0.05876425 -0.021382816 -0.04295989 -0.03512758 -0.07892283 0.042810544 0.06895201 0.03546349
-0.03934294 0.03136202 0.062014922 0.069141224 0.039010294 -0.07226845 -0.06698793 0.031646088
0.020088807 -0.04965712 -0.059835307 0.057028472 -0.039858315 -0.040971544 -0.041618686 0.016429305
-0.0119253695 -0.060125634 -0.050715588 0.04505691 -0.04334349 -0.07251749 0.05902511 -0.060532656
-0.03695564 0.0026622415 0.057192788 -0.01621984 -0.021616932 -0.039966296 -0.055966407 0.013745524
0.073308796 0.015553825 -0.07560708 -0.07825489 0.031231932 -0.04003766 0.07546049 -0.039005697
0.025415778 -0.066990726 -0.04867132 0.03351357 -0.0130822435 -0.04082991 -0.041151475 -0.031347692
-0.077005714 0.07765029 -0.01477062 -0.058855563 0.06503065 -0.07374905 -0.016731955 -0.05962704
-0.004234813 0.012043439 0.043448642 0.07692458 0.037130736 0.06721023 -0.059594393 -0.047663447
-0.02155567 0.0017243624 -0.022520337 -0.0031223372 0.031669684 0.06936686 -0.00076527894 -0.04633032
-0.07951564 -0.04901213 0.034311123 0.057254598 0.041114226 0.07867108 0.023583889 0.06917086
0.043698177 0.068024844 0.054585993 0.016640909 0.055877686 -0.022490595 0.04750152 0.026750326
0.033959262 0.073470876 -0.002514474 0.047206268 -0.07256402 -0.05976606 0.021155193 0.053119496
-0.071482815 0.044068694 0.04187966 -0.016477205 -0.023179483 0.049943805 -0.048772648 0.031255394
0.044798106 0.027293235 -0.072852544 0.03740204 0.009237766 0.016014516 -0.014131509 0.030903704
0.013659395 -0.042369716 -0.005289033 0.0072903335 -0.030863456 -0.027581763 0.013074376 -0.017182902
-0.019172613 -0.05899687 -0.06022915 -0.024661016 -0.0023438185 -0.067921676 -0.06676698 0.027112886
00000000: b47a d9bc 606e 9a3d c81e 17bc a03c 21bc
00000010: 3f90 44bd 1e31 98bd 5cd0 ab3c 1ffa 8bbd
00000020: 20e2 f63c b8c5 7fbd 5094 b83c eaf5 9b3d
00000030: fa70 9ebc 177f 9ebd e4aa ae3c 40b7 2bbb
00000040: 120e bcbc 3690 853d 10d7 adbb 5447 543d
00000050: fbcf a3bd f41b 15bd 1085 41bc 8882 9abd
00000060: ccf4 fa3c d0fb 54bc ecbb 9abc dcca 733d
00000070: 04a1 a03c 80de 783c 2fff 96bd 34ec 843d
00000080: 6a76 dbbc a680 24bd 9490 2f3d 7075 10bd
00000090: f435 aabc ea66 923d bc87 8cbd 70e7 f9bb
000000a0: 8861 3e3d c687 3fbd b037 77bc ee4b 193d
000000b0: 38a6 5f3d 10b8 6f3d 53e6 0ebd 88b2 993d
000000c0: c0da 77bd ba3b a63d 8d0d 6ebd a01e edbb
000000d0: 3613 64bd a02b 1bbc 286e 01bd 5cba 733d
000000e0: afee 85bd f032 ac3c 0cd6 963d 04d0 023d
000000f0: ac2a d03c d0df ed3b 3054 0f3d d778 23bd
00000100: c0ba 823b b639 63bd fc84 99bc 1092 40bc
00000110: d17d a2bd 776b 9ebd 9c8b 973c dce5 483d
00000120: c97f 49bd b0de c8bc abd6 81bd 5a2c 8dbd
00000130: 205e 6f3c dadf d0bc ce5f 73bd a01e 6abd
00000140: 3d6a 06bd 601c 173d 944a 9a3c ae69 a33d
00000150: b8eb 2dbc 507a 943c d812 c93c b1ed 42bd
00000160: 02dc a03d 8a98 c2bc e424 6dbd d064 7fbd
00000170: 3c9d 8a3d 246d 76bd 0c17 053d d80a 443d
00000180: c475 a53d feba 253d f7b3 a6bd 0051 4d3d
00000190: e0de 66bb 00f3 82bd 0952 86bd 702c 7ebc
000001a0: c2bc 5ebd c8f2 783d 9052 583d c8a7 a4bc
000001b0: 20c1 9dbc 1692 a5bd 683d 383d 6a49 1c3d
000001c0: 989c 7b3d b0aa 7d3d 78eb a73c 3488 93bd
000001d0: c495 8b3d 8082 01ba 3477 b23c e8da b4bc
000001e0: c8b2 703d 042b afbc b6f6 2fbd f0e1 0fbd
000001f0: 4ba2 a1bd 1c5a 2f3d b636 8d3d 2a42 113d
00000200: 1026 21bd 7675 003d 5c03 7e3d ea99 8d3d
00000210: 42c9 1f3d 7b01 94bd f830 89bd 549f 013d
00000220: 4891 a43c 4465 4bbd de15 75bd b096 693d
00000230: 7942 23bd c7d1 27bd 5b78 2abd c096 863c
00000240: a062 43bc 4c46 76bd 26bb 4fbd 988d 383d
00000250: f288 31bd 0d84 94bd 50c4 713d 17f1 77bd
00000260: cc5e 17bd 0079 2e3b fc42 6a3d 78df 84bc
00000270: fe15 b1bc b3b3 23bd 083d 65bd e834 613c
00000280: ec22 963d 78d5 7e3c e2d7 9abd 1a44 a0bd
00000290: 1cda ff3c 88fe 23bd 088b 9a3d 70c4 1fbd
000002a0: c034 d03c 6f32 89bd 945b 47bd 8645 093d
000002b0: e856 56bc 443d 27bd 738e 28bd 7066 00bd
000002c0: 2cb5 9dbd 1e07 9f3d 7800 72bc 8812 71bd
000002d0: ca2e 853d be09 97bd 7411 89bc 7c3b 74bd
000002e0: 30c4 8abb d851 453c 34f7 313d a28a 9d3d
000002f0: 6616 183d 84a5 893d 4019 74bd bf3a 43bd
00000300: 8495 b0bc 0004 e23a 927c b8bc 20a0 4cbb
00000310: 12b8 013d 3610 8e3d 009d 48ba ddc4 3dbd
00000320: 19d9 a2bd f1c0 48bd d289 0c3d cc83 6a3d
00000330: 6467 283d 4e1e a13d 0033 c13c 74a9 8d3d
00000340: dcfc 323d 9c50 8b3d 9095 5f3d 8452 883c
00000350: 00e0 643d 323e b8bc f490 423d 8023 db3c
00000360: de18 0b3d e677 963d e0c9 24bb 5c5b 413d
00000370: 729c 94bd 42cd 74bd a84d ad3c d493 593d
00000380: 9565 92bd 6081 343d 028a 2b3d 34fb 86bc
00000390: e6e2 bdbc e091 4c3d d4c5 47bd a805 003d
000003a0: 387e 373d 1096 df3c b733 95bd e232 193d
000003b0: 005a 173c e030 833c d887 67bc c429 fd3c
000003c0: a8cb 5f3c de8b 2dbd a04f adbb c0e3 ee3b
000003d0: 5cd5 fcbc 26f3 e1bc e835 563c 28c3 8cbc
000003e0: e20f 9dbc b4a6 71bd d7b2 76bd e605 cabc
000003f0: c09a 19bb 851a 8bbd 20bd 88bd d81b de3c

bias f4 [16]
0.038260177 -0.030948956 -0.005856268 0.05893697 -0.08120645 -0.048571028 -0.005907871 -0.010403775
-0.07230546 -0.07556325 -0.0028612316 0.034588702 -0.04353358 0.014602609 -0.015053943 0.064943925
00000000: b4b6 1c3d aa88 fdbc f0e5 bfbb e467 713d
00000010: 914f a6bd 6af2 46bd d096 c1bb 9874 2abc
00000020: e314 94bd e8c0 9abd 8083 3bbb e2ac 0d3d
00000030: 4450 32bd c83f 6f3c d0a4 76bc 5201 853d

weight f4 [120, 256]
0.028627686 0.037928276 -0.03026066 -0.041273423 0.05212301 -0.058641665 -0.02547855 0.045406498
-0.061564654 0.051764764 0.019335821 0.039847545 0.016733378 0.007462576 -0.014577411 -0.016563013
-0.016198143 0.0035236627 -0.02178435 -0.023998998 0.05547093 -0.056664154 -0.020228326 -0.058558345
0.047278754 -0.02710671 0.06002841 0.013619833 0.00429035 0.011068754 -0.05825702 0.018586792
-0.044643328 -0.027693823 0.05359357 0.040698558 -0.010347456 0.02532266 -0.016164966 0.06054043
0.0064079687 0.044315472 0.059150316 0.02792608 -0.03233689 -0.040660024 0.059466615 -0.03908875
-0.037347943 -0.058318444 -0.0108580515 -0.02006597 -0.054042332 0.021218598 -0.03943988 0.039477766
0.048969164 -0.012087531 0.05414685 0.00039441139 -0.026721723 -4.1127205e-05 -0.035786577 -0.061067447
0.0045244917 0.045060784 0.020244844 0.05527184 0.052060366 -0.039897375 0.042518355 0.0417037
0.02608461 0.021991633 0.03536217 -0.04547368 0.024155468 0.045350283 0.059337668 -0.0301212
5.7153404e-05 0.029525563 -0.0019035488 0.006548412 0.020787157 -0.029834308 0.026511759 0.012161754
0.044289514 -0.0076088235 0.008643329 -0.028662317 0.025966324 -0.054055333 0.03812644 0.052630983
0.0009247437 -0.02730731 -0.027905077 -0.019153103 -0.030657418 -0.020327128 0.02674748 -0.006139919
0.049621373 0.057498716 -0.031135686 -0.007572241 -0.044575766 -0.039086968 0.026590861 -0.0057174712
-0.044091195 0.02187936 -0.04284423 0.052676477 0.031713665 -0.031103022 0.01033777 0.05741495
-0.030261874 -0.0038339347 0.012441732 -0.0070631206 0.052840576 0.015110284 -0.01018171 0.020838268
-0.037303165 -0.0027541667 -0.060231023 -0.0233571 0.006717883 -0.056824453 -0.019789636 -0.045260027
-0.057952814 0.013476633 0.03746298 -0.023375511 -0.043648876 -0.021467306 -0.0022112727 0.048085324
0.031899385 0.050927177 0.0041687638 -0.05083833 -0.036662437 -0.05444958 -0.05570615 -0.023937672
0.05448509 -0.047534943 0.04845804 -0.012200519 -0.03784384 -0.0062368214 0.042825297 0.060484223
0.0068891793 0.013477445 0.04203496 0.035202816 0.046187058 -0.03515183 -0.03491789 0.0056332424
0.017854407 -0.00874465 0.013503194 0.039997973 -0.002048105 0.046750173 -0.027448103 -0.048395135
0.013498299 -0.03495019 -0.030859753 0.040726557 -0.008709833 0.056726098 -0.061540022 -0.040460877
-0.06087464 0.007677041 -0.029707864 0.0076696724 0.008012801 0.03545765 -0.018475674 -0.045005016
0.034046866 0.0004121065 0.021004856 -0.03150642 0.007521063 -0.009029016 -0.031010054 -0.008281477
0.04714723 0.010180391 0.03333289 -0.05478897 -0.0068375245 0.0039308295 -0.02691982 0.02672828
0.05414602 -0.052944236 0.021290056 -0.03147544 -0.024640419 -0.0031397939 0.027852654 -0.035100877
-0.011804968 0.047322266 -0.0011788011 -0.020590052 0.037177987 -0.044592075 0.030773148 0.023799852
0.043362074 -0.033049904 0.01927913 -0.05015821 -0.04340048 -0.04272691 0.010469988 -0.030143417
-0.016673818 -0.053634338 -0.018550627 -0.0095323995 -0.003844455 0.0516835 -0.04628946 -0.017936647
-0.04082142 0.0009466633 0.0025898889 -0.025464453 0.050805442 -0.019278623 0.048195653 0.050852373
0.054344997 0.0060314834 -0.05811552 -0.043440297 0.04169386 -0.011765085 0.018174268 -0.021675289
00000000: 9c84 ea3c ae5a 1b3d 34e5 f7bc 520e 29bd
00000010: f07e 553d 3e32 70bd 64b8 d0bc 2afc 393d
00000020: 382b 7cbd 4a07 543d 2866 9e3c 2e37 233d
00000030: 7014 893c a088 f43b 18d6 6ebc 28af 87bc
00000040: f8b1 84bc 40ed 663b 1875 b2bc 8c99 c4bc
00000050: 7c35 633d ac18 68bd e0b5 a5bc e0da 6fbd
00000060: 5ea7 413d e40e debc 5ae0 753d b825 5f3c
00000070: 1096 8c3b b859 353c ea9e 6ebd 5443 983c
00000080: ecdb 36bd 28de e2bc ee84 5b3d 88b3 263d
00000090: 6088 29bc 7871 cf3c 646c 84bc 3ef9 773d
000000a0: f0f9 d13b 2484 353d 9a47 723d 3cc5 e43c
000000b0: b073 04bd 208b 26bd 4493 733d 861b 20bd
000000c0: 28fa 18bd 52df 6ebd f8e5 31bc 6461 a4bc
000000d0: 7e5b 5dbd a0d2 ad3c b68b 21bd 70b3 213d
000000e0: e493 483d c80a 46bc 16c9 5d3d 00c9 ce39
000000f0: 84e7 dabc 0080 2cb8 f294 12bd dc21 7abd
00000100: 3042 943b a891 383d 84d8 a53c ba64 623d
00000110: 403d 553d 6e6b 23bd ba27 2e3d 80d1 2a3d
00000120: 64af d53c cc27 b43c ecd7 103d 9c42 3abd
00000130: b0e1 c53c 38c1 393d 0e0c 733d bcc0 f6bc
00000140: 00b8 6f38 98df f13c 8080 f9ba 1094 d63b
00000150: d449 aa3c 1467 f4bc 302f d93c 1842 473c
00000160: ec68 353d 7053 f9bb c09c 0d3c 3ccd eabc
00000170: 54b7 d43c 2069 5dbd 782a 1c3d 9693 573d
00000180: 806a 723a 94b3 dfbc 3099 e4bc f8e6 9cbc
00000190: 4425 fbbc 1485 a6bc 881d db3c 6031 c9bb
000001a0: c83f 4b3d c683 6b3d 4410 ffbc 9020 f8bb
000001b0: 1495 36bd a819 20bd 14d5 d93c a059 bbbb
000001c0: f898 34bd 583c b33c 6e7d 2fbd 4ac3 573d
000001d0: 30e6 013d c4cb febc c05f 293c f02b 6b3d
000001e0: c0e7 f7bc c042 7bbb 68d8 4b3c c071 e7bb
000001f0: 5c6f 583d 2091 773c 30d1 26bc 04b5 aa3c
00000200: 34cb 18bd 407f 34bb ceb4 76bd 6457 bfbc
00000210: b021 dc3b c2c0 68bd e01d a2bc 9462 39bd
00000220: ee5f 6dbd 18cd 5c3c c872 193d 007e bfbc
00000230: 2ac9 32bd 34dc afbc 00eb 10bb 1ef5 443d
00000240: eea8 023d 0499 503d 209a 883b da3b 50bd
00000250: 5a2b 16bd 8606 5fbd 222c 64bd f018 c4bc
00000260: c22b 5f3d 00b4 42bd f07b 463d b0e4 47bc
00000270: 2402 1bbd 405e ccbb 9469 2f3d 4ebe 773d
00000280: a0be e13b 80d0 5c3c da2c 2c3d d430 103d
00000290: a42e 3d3d 5efb 0fbd 1006 0fbd 1097 b83b
000002a0: 6843 923c b845 0fbc 803c 5d3c ead4 233d
000002b0: 8039 06bb 1c7d 3f3d d8da e0bc fa39 46bd
000002c0: f827 5d3c ee27 0fbd 98cd fcbc e4d0 263d
000002d0: b0b3 0ebc a059 683d 6411 7cbd 4eba 25bd
000002e0: b057 79bd b08f fb3b e85d f3bc e051 fb3b
000002f0: 2048 033c 0a3c 113d 4c5a 97bc 2e57 38bd
00000300: ba74 0b3d 0010 d839 6012 ac3c e00c 01bd
00000310: 4073 f63b 70ee 13bc cc08 febc 08af 07bc
00000320: 741d 413d a8cb 263c 1288 083d 666a 60bd
00000330: 500d e0bb 30ce 803b f486 dcbc 44f5 da3c
00000340: 38c8 5d3d 0edc 58bd 7c68 ae3c 64ec 00bd
00000350: b4da c9bc 00c5 4dbb 402b e43c f0c5 0fbd
00000360: a069 41bc fed4 413d 0082 9aba 78ac a8bc
00000370: f247 183d 2ea6 36bd f817 fc3c e8f7 c23c
00000380: 6e9c 313d 565f 07bd 44ef 9d3c b272 4dbd
00000390: b4c4 31bd 6a02 2fbd 508a 2b3c 54ef f6bc
000003a0: 8897 88bc aeaf 5bbd 7cf7 97bc c82d 1cbc
000003b0: 40f3 7bbb 14b2 533d 049a 3dbd e0ef 92bc
000003c0: 5c34 27bd 8029 783a 20bb 293b d49a d0bc
000003d0: 5e19 503d 34ee 9dbc ce68 453d 944a 503d
000003e0: dc98 5e3d c0a3 c53b 8a0a 6ebd 74ee 31bd
000003f0: 2ec7 2a3d 58c2 40bc 34e2 943c 6090 b1bc

bias f4 [120]
0.0570129 0.0012371764 -0.061616324 -0.00064867735 -0.0047470257 0.056113385 0.036392055 0.024997018
-0.054148056 0.034973294 -0.02151011 0.02918706 0.03528922 -0.041036196 -0.012070075 -0.037057996
-0.048146725 -0.026799172 0.007345818 -0.0034007952 0.051177338 -0.038312852 0.044050373 -0.004099384
0.03267795 0.053091258 -0.03419689 0.040731505 0.013992175 0.046147645 0.024391308 -0.04291635
-0.058819704 -0.006604187 -0.0428261 -0.034655698 -0.0532882 0.011366531 -0.007823482 0.03434602
-0.047093034 -0.026240341 0.034366786 -0.04992237 -0.028666891 0.054413103 -0.049200714 -0.0054453686
-0.0249089 -0.04850649 0.016359836 0.045543775 -0.02872184 0.005095057 -0.0149074495 0.006769024
0.02862633 0.021100767 -0.05384609 0.04356855 -0.02593033 0.0034014434 0.05780767 0.061418496
-0.049789004 0.016501233 0.006337695 -0.0081471205 -0.053573683 0.00055989623 -0.0017288029 -0.027654454
0.007584952 -0.0013124794 0.055486575 0.04397223 -0.009315126 0.023300506 0.022969812 0.030849196
-0.038224094 0.052441165 -0.02367983 -0.041043133 -0.02538944 0.0008370504 0.014321096 0.004875131
0.042446017 0.011819802 0.02432628 0.0063956007 0.0047437698 -0.058501817 -0.041101567 -0.0141178
-0.056341946 0.020962648 0.05206246 -0.036908492 0.055809915 0.03277418 -0.047909185 0.020556845
-0.0018402785 -0.013812937 -0.046319194 0.0151071325 -0.014629327 -0.05455228 0.011083797 0.031462386
-0.024996214 -0.0077672303 0.0021200106 0.016134955 -0.031314842 -0.009736903 -0.012935825 0.00031971186
00000000: 5c86 693d c028 a23a 6661 7cbd 000c 2aba
00000010: f08c 9bbb 26d7 653d d60f 153d 8cc6 cc3c
00000020: 5aca 5dbd 2840 0f3d f835 b0bc b419 ef3c
00000030: 6e8b 103d 9215 28bd 90c1 45bc 20ca 17bd
00000040: 8035 45bd f089 dbbc 30b5 f03b e0df 5ebb
00000050: 549f 513d f0ed 1cbd 2a6e 343d 2054 86bb
00000060: 50d9 053d 3876 593d 0a12 0cbd 14d6 263d
00000070: 703f 653c 5005 3d3d 48d0 c73c 0ec9 2fbd
00000080: eeec 70bd f067 d8bb 6c6a 2fbd 22f3 0dbd
00000090: ba44 5abd b03a 3a3c 102e 00bc 6aae 0c3d
000000a0: a0e4 40bd fcf5 d6bc 30c4 0c3d 667b 4cbd
000000b0: d4d6 eabc 46e0 5e3d b086 49bd 106f b2bb
000000c0: c00d ccbc beae 46bd 1005 863c 1c8c 3a3d
000000d0: 104a ebbc 70f4 a63b 603e 74bc b0ce dd3b
000000e0: c481 ea3c 84db ac3c b88d 5cbd f074 323d
000000f0: d86b d4bc c0ea 5e3b bcc7 6c3d f691 7b3d
00000100: 8eef 4bbd 982d 873c 70ac cf3b 807b 05bc
00000110: 1470 5bbd 00c6 123a 0099 e2ba 988b e2bc
00000120: 308b f83b 8007 acba e445 633d 3a1c 343d
00000130: 789e 18bc b4e0 be3c 302b bc3c 74b7 fc3c
00000140: de90 1cbd 8ccc 563d 34fc c1bc d81c 28bd
00000150: 84fd cfbc 806d 5b3a 08a3 6a3c 90bf 9f3b
00000160: e0db 2d3d d8a7 413c e847 c73c 3092 d13b
00000170: a071 9b3b 9a9f 6fbd 1e5a 28bd 584e 67bc
00000180: d0c6 66bd dcb9 ab3c 723f 553d 5c2d 17bd
00000190: f098 643d 383e 063d 6c3c 44bd d466 a83c
000001a0: 8035 f1ba a84f 62bc 32b9 3dbd e883 773c
000001b0: d8af 6fbc 3672 5fbd d098 353c b4de 003d
000001c0: dcc4 ccbc 4084 febb e0ef 0a3b 742d 843c
000001d0: fe43 00bd 8887 1fbc c8f0 53bc 009f a739

weight f4 [84, 120]
-0.0735895 0.062593654 0.009699672 0.059552103 -0.05459677 0.032070078 -0.040433932 0.06958172
0.082053006 0.02927342 0.015852712 0.074960634 0.067846164 -0.040788345 -0.022631064 -0.041364953
-0.08109757 -0.032568596 -0.047319863 0.007218033 -0.0031936541 0.07809241 0.08792959 0.05747257
-0.029512811 0.07821505 0.03144753 0.05252552 0.012240663 -0.08044937 -0.029825494 0.05860062
0.0074157193 0.04878536 0.035702676 0.022916287 -0.017326072 0.07683711 -0.05380748 -0.031714372
0.04160334 -0.012989521 -0.06418137 -0.09076433 -0.09028893 0.06438959 0.03727144 0.079411075
0.06581707 -0.014534116 -0.012123868 0.08152294 0.045008585 0.0566646 -0.051328562 0.0018771887
0.0004813224 0.083217755 -0.009793773 0.044256 -0.032273807 -0.04428101 -0.055541907 0.07795496
-0.045005877 0.036495 -0.002671957 0.010404296 -0.021445833 0.05925943 0.045218244 0.08436757
0.083507404 0.051216274 -0.059207402 0.060099453 0.06209433 -0.08493528 -0.062961526 -0.02935861
0.036032483 -0.019913577 0.021335714 -0.07236639 -0.08606729 0.021747127 -0.078458145 0.04961978
0.010051124 0.06116502 -0.011518814 -0.03259725 0.00520657 -0.053569384 -0.071247466 -0.03176357
0.046533033 0.015224904 -0.08395685 0.0437894 -0.021921515 0.044743195 -0.07316722 -0.0719774
0.042831093 -0.048788488 0.02380108 0.017950729 0.047646597 -0.007069893 -0.08843283 0.078980535
0.048917785 -0.07990956 -0.07225034 0.011025488 0.083302215 -0.07858789 -0.07164968 0.07865478
0.025479756 0.011696212 0.07920241 -0.054803293 0.038184345 0.027134284 -0.045678042 0.01630994
0.04526584 -0.06856721 -0.02155754 0.06985927 0.04556881 0.054296404 -0.06709242 0.05601442
0.007409364 -0.07594701 -0.021323085 -0.010210484 0.01010406 0.062922195 0.05582367 -0.071774855
-0.040195458 -0.014199503 -0.075031444 0.012628458 0.053847134 -0.08556714 0.07817088 0.047974944
-0.0069517493 -0.04586734 0.02949819 0.084444046 0.018351652 -0.07025098 -0.0062144697 0.06963773
0.018791862 -0.067009345 -0.040627014 -0.071427226 0.020493716 0.009283684 -0.01879441 -0.05601734
-0.069622464 0.030917235 -0.0016829967 -0.0129162 -0.046496104 -0.023176603 -0.04789982 -0.016969949
-0.05948304 -0.038387563 -0.028678395 0.021535054 0.04554677 -0.026275106 -0.0010143071 0.022874229
0.08250247 -0.0019460991 -0.02888842 -0.051790427 -0.074111335 -0.077729985 0.014117427 0.08371541
0.010834865 -0.033455566 -0.047311112 -0.014115259 -0.091143355 -0.034118623 0.017804861 -0.027411327
0.032505393 -0.059787177 -0.0019713864 -0.07181871 -0.06948349 0.06353302 -0.090844356 0.013540275
-0.07521069 0.03531578 0.035589695 -0.07441626 -0.062250085 -0.07805148 -0.07851283 -0.04392258
-0.08768351 0.014070004 -0.07076447 0.019114807 0.043601677 0.029242419 0.08558741 -0.05061989
0.030363798 -0.083167754 -0.03667527 0.005714692 0.05015844 -0.075645044 0.0391839 0.03742975
0.029071286 0.030241758 0.055759728 -0.016257435 -0.048702724 -0.081986144 -0.0099938065 -0.053111482
0.056220755 -0.0027687177 -0.08796269 0.031053223 0.054535046 -0.0006184429 0.020401262 -0.08088645
-0.09059243 0.0053455755 -0.018839136 -0.042078875 -0.07988979 0.0435137 0.04402511 -0.048222948
00000000: 17b6 96bd 1a31 803d 60eb 1e3c e8ec 733d
00000010: dda0 5fbd ea5b 033d 0d9e 25bd dc80 8e3d
00000020: 680b a83d d0ce ef3c 8cdd 813c f684 993d
00000030: eef2 8a3d ae11 27bd c864 b9bc 4c6e 29bd
00000040: 7c16 a6bd a666 05bd 79d2 41bd 4085 ec3b
00000050: a04c 51bb eaee 9f3d 6e14 b43d 5c68 6b3d
00000060: dac4 f1bc 362f a03d 20cf 003d 0025 573d
00000070: 108d 483c a4c2 a4bd 9854 f4bc 3407 703d
00000080: 90ff f23b 28d3 473d f83c 123d f0ba bb3c
00000090: 68ef 8dbc c65c 9d3d 3b65 5cbd eee6 01bd
000000a0: 4468 2a3d 00d2 54bc 8671 83bd a6e2 b9bd
000000b0: 67e9 b8bd b0de 833d f0a9 183d 46a2 a23d
000000c0: 1acb 863d 8020 6ebc 30a3 46bc 80f5 a63d
000000d0: ec5a 383d 2419 683d e63d 52bd 000c f63a
000000e0: 005a fc39 126e aa3d 1076 20bc c845 353d
000000f0: 8a31 04bd 0160 35bd e97f 63bd daa6 9f3d
00000100: 1558 38bd c87b 153d 001c 2fbb c876 2a3c
00000110: 2caf afbc 04ba 723d c436 393d e8c8 ac3d
00000120: ee05 ab3d 28c8 513d 7683 72bd d82a 763d
00000130: a056 7e3d 8cf2 adbd f9f1 80bd 7881 f0bc
00000140: cc96 133d cc21 a3bc 3cc8 ae3c d434 94bd
00000150: 0c44 b0bd 0827 b23c aaae a0bd 1c3e 4b3d
00000160: 78ad 243c 2c88 7a3d 68b9 3cbc b284 05bd
00000170: e09b aa3b 926b 5bbd 31ea 91bd 841a 02bd
00000180: 6c99 3e3d e071 793c 92f1 abbd 845c 333d
00000190: c094 b3bc a444 373d b2d8 95bd e368 93bd
000001a0: a86f 2f3d 70d6 47bd 7cfa c23c 680d 933c
000001b0: 1429 433d 90aa e7bb 461c b5bd 8cc0 a13d
000001c0: 045e 483d a0a7 a3bd fcf7 93bd 40a4 343c
000001d0: 5a9a aa3d b0f2 a0bd 11bd 92bd c215 a13d
000001e0: ecba d03c 78a1 3f3c e034 a23d 6b79 60bd
000001f0: 3067 1c3d b848 de3c e618 3bbd 6c9c 853c
00000200: ac68 393d f76c 8cbd 7099 b0bc 6012 8f3d
00000210: 5ca6 3a3d e865 5e3d c067 89bd 606f 653d
00000220: 40ca f23b 1b8a 9bbd c0ad aebc e049 27bc
00000230: 808b 253c 5add 803d 5ca7 643d b2fe 92bd
00000240: fea3 24bd 08a5 68bc 16aa 99bd 98e7 4e3c
00000250: d08e 5c3d d33d afbd 0e18 a03d 6081 443d
00000260: 80cb e3bb 64df 3bbd 30a6 f13c 00f1 ac3d
00000270: 3456 963c bfdf 8fbd c0a2 cbbb 3a9e 8e3d
00000280: 64f1 993c 323c 89bd 8368 26bd 7048 92bd
00000290: 70e2 a73c 981a 183c bcf6 99bc 7072 65bd
000002a0: 3996 8ebd 2446 fd3c 0098 dcba 789e 53bc
000002b0: b372 3ebd dcdc bdbc 9a32 44bd 9004 8bbc
000002c0: 7da4 73bd 473c 1dbd f4ee eabc 486a b03c
000002d0: 408f 3a3d e43e d7bc 80f2 84ba bc62 bb3c
000002e0: 0ef7 a83d 4014 ffba 68a7 ecbc 3322 54bd
000002f0: afc7 97bd e630 9fbd c84c 673c fc72 ab3d
00000300: b884 313c b408 09bd 4cc9 41bd b043 67bc
00000310: 5ea9 babd f8bf 0bbd 80db 913c b88d e0bc
00000320: 6024 053d 66e3 74bd 6032 01bb b015 93bd
00000330: 5c4d 8ebd 9a1d 823d 9b0c babd 08d8 5d3c
00000340: 1008 9abd 48a7 103d 80c6 113d 8d67 98bd
00000350: f2f9 7ebd 74d9 9fbd 56cb a0bd 2ae8 33bd
00000360: 6993 b3bd e085 663c f6ec 90bd a896 9c3c
00000370: ac97 323d cc8d ef3c 7448 af3d cd56 4fbd
00000380: 80bd f83c db53 aabd cf38 16bd 5042 bb3b
00000390: f072 4d3d caeb 9abd 4c7f 203d f04f 193d
000003a0: e826 ee3c 90bd f73c 5064 643d 502e 85bc
000003b0: 827c 47bd 5ae8 a7bd 10bd 23bc 6d8b 59bd
000003c0: bc47 663d 6073 35bb c825 b4bd 5463 fe3c
000003d0: 2460 5f3d 001f 22ba 8c20 a73c cca7 a5bd
000003e0: 8688 b9bd f029 af3b 8854 9abc e65a 2cbd
000003f0: 429d a3bd 6c3b 323d ac53 343d 6d85 45bd

bias f4 [84]
0.025801599 -0.04352629 0.0019377097 0.0810979 0.061799467 -0.044326313 -0.08196942 -0.022337086
0.034792796 -0.08864936 0.06941092 -0.017458916 0.07240303 0.072359905 -0.022380508 0.015470453
-0.026237205 0.00013379008 0.07284646 -0.016680919 0.07201338 0.058809236 -0.060753554 0.046209127
0.0020592958 0.043161467 0.06518026 -0.02773071 0.052018255 -0.0076416954 0.039640173 -0.007553056
-0.023761503 -0.05831674 0.060488045 0.069466114 -0.007516928 -0.09096157 0.008170992 -0.050613847
-0.023925364 -0.020078503 -0.07492569 -0.058407012 0.056664124 -0.015653327 -0.020209394 -0.04730379
0.08400902 0.079013586 -0.029333256 0.031211555 0.08525665 -0.02830366 -0.088961095 -0.08253532
-0.018724881 -0.06819797 0.076394245 -0.061840944 0.085097566 0.0002714917 0.05979477 0.056415662
0.078950435 -0.056743123 0.08155601 -0.07549217 0.02599267 -0.010302961 0.015839428 0.06068471
0.043188512 -0.09026495 -0.042523175 0.010151967 0.08440256 -0.02766715 -0.053017903 -0.058555357
0.003282912 -0.07585373 -0.07101675 -0.08183087
00000000: e05d d33c a048 32bd c0fa fd3a a816 a63d
00000010: 7021 7d3d 828f 35bd 95df a7bd 44fc b6bc
00000020: e482 0e3d cc8d b5bd 5027 8e3d 0006 8fbc
00000030: 0a48 943d 6e31 943d 5457 b7bc c877 7d3c
00000040: 68ef d6bc 004a 0c39 8630 953d 6ca6 88bc
00000050: c07b 933d f4e1 703d b8d8 78bd c845 3d3d
00000060: 40f5 063b 14ca 303d 3a7d 853d 842b e3bc
00000070: 1811 553d 3067 fabb bc5d 223d a07f f7bb
00000080: 7ca7 c2bc 89dd 6ebd 50c2 773d 4044 8e3d
00000090: 9050 f6bb 0f4a babd a0df 053c 7750 4fbd
000000a0: 20ff c3bc ac7b a4bc a472 99bd 313c 6fbd
000000b0: a418 683d 683b 80bc 2c8e a5bc 9ec1 41bd
000000c0: ec0c ac3d e0d1 a13d 4c4c f0bc 60af ff3c
000000d0: 0a9b ae3d 14dd e7bc 3c31 b6bd 4708 a9bd
000000e0: ec64 99bc 61ab 8bbd 9674 9c3d ee4c 7dbd
000000f0: a247 ae3d 0057 8e39 5ceb 743d 1c14 673d
00000100: c4b0 a13d 7a6b 68bd d606 a73d a49b 9abd
00000110: 94ee d43c c0cd 28bc b0c1 813c 8890 783d
00000120: 70e6 303d d5dc b8bd c82c 2ebd 7054 263c
00000130: 40db ac3d 38a6 e2bc 4d29 59bd bed7 6fbd
00000140: 2026 573b 3359 9bbd 3b71 91bd f196 a7bd

weight f4 [10, 84]
0.07855403 0.059764497 -0.026919067 -0.03730318 -0.0914428 -0.0090398565 0.033011682 -0.0073445365
-0.008923851 0.04979243 0.08833369 0.10476301 -0.031937443 0.010578327 -0.05072375 -0.101540625
-0.07722556 -0.04300139 -0.009155281 -0.07508572 -0.09750219 -0.030017443 -0.09366245 -0.06764798
-0.048591778 -0.064592585 -0.041826412 0.096623324 -0.10107929 0.082260646 -0.030835077 0.013066076
0.049516685 0.028719284 -0.02082166 0.013489537 -0.07771472 0.07580442 -0.008061305 0.030898817
-0.092878826 -0.052172564 0.02686987 0.059884407 -0.03365685 0.09550547 -0.042301886 -0.06299139
0.04940132 0.02841086 -0.08920633 -0.099028625 -0.09804491 0.0217501 -0.10029129 0.084954344
0.043646626 -0.04107099 -0.02416367 0.08197292 -0.07278304 -0.090568416 0.016019337 0.00026354194
-0.019416198 0.09692805 -0.017837435 0.04044003 -0.017578676 -0.09930223 -0.09836927 0.042916663
-0.012815729 0.012560666 0.02123586 0.104989804 -0.07035337 -0.060353074 0.08730573 0.104476534
0.034301437 -0.10883339 -0.05019721 0.0002694726 -0.09794331 -0.034953654 0.0028985664 -0.038989834
-0.0051563606 0.024354003 0.033183865 -0.040824324 -0.04580152 0.04870934 -0.10076853 0.040289767
-0.043697283 -0.020214103 0.06330972 0.05715806 -0.028894179 -0.0951241 -0.041510828 0.018552013
0.040107213 0.014931835 -0.053669713 -0.0927972 0.032526426 0.090346895 0.10168921 0.061460115
0.084825836 -0.075038835 -0.0019896924 0.09434011 -0.040248685 -0.06741803 -0.08594623 -0.0537936
0.050771542 0.09924876 -0.055653628 -0.099101774 0.012712128 0.034899928 0.0649515 0.010961518
0.014447331 -0.0677665 0.004676208 0.09632438 0.092131175 -0.057853844 -0.06974755 0.026165955
0.06356742 -0.08264503 0.010472827 -0.09765859 0.076116 0.071350746 0.08637401 0.07126682
-0.09549448 -0.025099479 0.09705757 0.057904206 -0.008986205 0.023324646 0.021802329 0.102555014
0.0054224953 0.002842702 -0.057043873 0.045467786 0.084652014 -0.027568445 -0.09396839 0.06326304
0.092085086 0.087526076 -0.05558568 0.09672757 0.06476032 -0.078664295 0.055129223 0.005175367
-0.10001882 0.10087449 -0.08970663 0.068890356 0.086307876 -0.0114174485 0.089020886 0.016999222
-0.006058581 -0.076177135 -0.085688144 0.009414852 -0.08731985 -0.088478714 0.08660159 0.06334042
0.107080005 -0.0295268 -0.08608458 0.09995984 -0.03537073 0.026785381 -0.049892396 -0.05078149
-0.09451704 -0.053393994 0.044133417 -0.009063348 -0.029290445 -0.06439383 0.009109288 0.06474719
0.053098284 -0.03160613 0.068383865 -0.06704381 -0.035309896 0.0153864175 0.0030594617 -0.08880591
0.028785072 -0.005727768 -0.048829988 0.09499513 -0.09492654 -0.008796588 -0.10474204 -0.099193886
-0.030145772 0.065492876 -0.036283612 -0.01814831 0.08247938 -0.07635616 0.08867914 -0.049633455
0.013602354 0.03724701 -0.04312805 -0.046653688 -0.041257076 0.0368784 0.046022423 -0.07437998
-0.06998288 0.061552607 0.051063217 0.063191034 -0.071101986 -0.10408563 0.0037975833 -0.0040434375
-0.024688013 -0.084646784 -0.0058764443 -0.013121754 0.014492251 0.10282824 -0.05275795 -0.102694556
0.06489522 0.003274329 -0.10876157 0.03549657 -0.048136737 -0.10116957 -0.089589044 -0.03928764
00000000: efe0 a03d 9ecb 743d 6085 dcbc 38cb 18bd
00000010: 5d46 bbbd e81b 14bc 4237 073d 70aa f0bb
00000020: 5835 12bc 26f3 4b3d 4be8 b43d fd8d d63d
00000030: d6d0 02bd b850 2d3c b5c3 4fbd 88f4 cfbd
00000040: 6f28 9ebd 3a22 30bd 0800 16bc 8bc6 99bd
00000050: 3aaf c7bd 24e7 f5bc 19d2 bfbd 068b 8abd
00000060: 2c08 47bd 1e49 84bd 2c52 2bbd 73e2 c53d
00000070: a902 cfbd 4578 a83d d899 fcbc 1813 563c
00000080: 02d2 4a3d b444 eb3c 3092 aabc 3803 5d3c
00000090: e528 9fbd 593f 9b3d 9013 04bc 841f fd3c
000000a0: 4137 bebd e6b2 55bd 341e dc3c 5a49 753d
000000b0: c4db 09bd 5f98 c33d be44 2dbd a101 81bd
000000c0: 0a59 4a3d e4bd e83c cfb1 b6bd 85cf cabd
000000d0: c5cb c8bd 442d b23c 8565 cdbd 8bfc ad3d
000000e0: cec6 323d 0e3a 28bd e4f2 c5bc 6be1 a73d
000000f0: 460f 95bd ef7b b9bd fc3a 833c 002c 8a39
00000100: b80e 9fbc 3782 c63d d01f 92bc 72a4 253d
00000110: 2801 90bc f85e cbbd d475 c9bd 62c9 2f3d
00000120: 10f9 51bc 40cb 4d3c d4f6 ad3c e504 d73d
00000130: 6d15 90bd c934 77bd 59cd b23d cbf7 d53d
00000140: aa7f 0c3d 0ae4 debd 979b 4dbd 0048 8d39
00000150: 8196 c8bd 902b 0fbd e0f5 3d3b ceb3 1fbd
00000160: b0f6 a8bb 0c82 c73c ceeb 073d 6837 27bd
00000170: 609a 3bbd 7283 473d bb5f cebd e206 253d
00000180: ecfb 32bd 0c98 a5bc 87a8 813d 921e 6a3d
00000190: 7cb3 ecbc 6dd0 c2bd 4207 2abd 64fa 973c
000001a0: 7647 243d a8a4 743c c6d4 5bbd 750c bebd
000001b0: 6e3a 053d cb07 b93d 6f42 d03d 9abd 7b3d
000001c0: 2bb9 ad3d f6ad 99bd 8065 02bb 6335 c13d
000001d0: cedb 24bd 7712 8abd 9404 b0bd ae56 5cbd
000001e0: d2f5 4f3d ef42 cb3d 0ff5 63bd dff5 cabd
000001f0: 8846 503c 3af3 0e3d 4b05 853d f097 333c
00000200: 80b4 6c3c 2ac9 8abd e03a 993b b745 c53d
00000210: 45af bc3d 27f8 6cbd ced7 8ebd fc59 d63c
00000220: a32f 823d cc41 a9bd 3896 2b3c 3a01 c8bd
00000230: b5e2 9b3d 5720 923d dbe4 b03d 57f4 913d
00000240: 9c92 c3bd 6c9d cdbc 1fc6 c63d f62c 6d3d
00000250: e03a 13bc 5413 bf3c cc9a b23c 5d08 d23d
00000260: 30af b13b a04c 3a3b d6a6 69bd 6e3c 3a3d
00000270: 095e ad3d 38d7 e1bc 8072 c0bd 0d90 813d
00000280: 1b97 bc3d df40 b33d cfad 63bd 1b19 c63d
00000290: 0fa1 843d bf1a a1bd 2ecf 613d 2096 a93b
000002a0: abd6 ccbd 4997 ce3d 1cb8 b7bd 6316 8d3d
000002b0: 2fc2 b03d 4010 3bbc 9550 b63d f441 8b3c
000002c0: 1087 c6bb c202 9cbd 447d afbd c040 1a3c
000002d0: c0d4 b2bd 5434 b5bd 2d5c b13d 9fb8 813d
000002e0: c34c db3d 30e2 f1bc 1d4d b0bd bfb7 cc3d
000002f0: e6e0 10bd 046d db3c f85b 4cbd 4000 50bd
00000300: 2692 c1bd a9b3 5abd 3ec5 343d 707e 14bc
00000310: 84f2 efbc eae0 83bd 203f 153c 2d9a 843d
00000320: 967d 593d 6e75 01bd d70c 8c3d 444e 89bd
00000330: 1ca1 10bd 5017 7c3c 4081 483b dfdf b5bd
00000340: acce eb3c 00b0 bbbb f401 48bd cf8c c23d
00000350: d968 c2bd 901f 10bc ff82 d6bd 2a26 cbbd
00000360: 44f4 f6bc 2121 863d 209e 14bd c4ab 94bc
00000370: f3ea a83d 9e60 9cbd 699d b53d 734c 4bbd
00000380: 68dc 5e3c 5290 183d 0aa7 30bd f017 3fbd
00000390: 2efd 28bd ce0d 173d 0282 3c3d 8854 98bd
000003a0: 2f53 8fbd 961e 7c3d aa27 513d 4d6a 813d
000003b0: eb9d 91bd d92a d5bd e0e0 783b d07e 84bb
000003c0: 843e cabc 4b5b adbd 308f c0bb a0fc 56bc
000003d0: e870 6d3c 9d97 d23d b818 58bd 8651 d2bd
000003e0: c9e7 843d 2096 563b 63be debd da64 113d
000003f0: 072b 45bd fe31 cfbd 767a b7bd 14ec 20bd

bias f4 [10]
-0.005601473 0.08588236 0.07788967 -0.022697113 -0.029980674 0.058096685 -0.07511924 0.010552689
0.06983162 -0.09481572
00000000: 908c b7bb 17e3 af3d 9f84 9f3d 4cef b9bc
00000010: 089a f5bc caf6 6d3d 1ed8 99bd 30e5 2c3c
00000020: e103 8f3d bf2e c2bd
