rust/model_store/core_bolcom_c10000_t50_onnx.pth (onnx, 760637 bytes, 37 tensors)

recommender_model.item_embedding.weight f4 [10000, 16]
00000000: 3e9a 6cbe 9e42 6d3e 94b0 80bd 766d 3ebe
00000010: f822 36bd 60a5 e6bd 28e6 b23d 6c17 45be
00000020: 5885 ad3d d816 30bd 0281 013e 1c90 d93d
00000030: 5843 1b3d 9842 46be 6890 4d3d 54fa 893d
00000040: 6886 673e 1260 0bbe 583c 34be 0832 0fbd
00000050: c081 78be bcdd c6bd 0074 c43b 9c52 bb3d
00000060: 945b fabd f007 52bd 0803 23bd 3827 b4bd
00000070: e435 853d ae13 553e ec8a b63d 42e7 203e
00000080: bc08 7f3e 4ad1 143e c001 8a3c 9cc4 d5bd
00000090: 70a8 55bd deb7 64be f658 7f3e a852 93bd
000000a0: 5470 2ebe 5c43 933d a0ef 5cbd 46d7 653e
000000b0: 8443 da3d b86a 993d fea3 293e 706d 4b3d
000000c0: 9284 673e b2c2 73be 4c6a e63d c0e4 2c3d
000000d0: c0c7 663e d02c 993c 006e dbbc 5cc0 53be
000000e0: a84f 6dbe febf 713e 0eca 123e 2874 6bbd
000000f0: 986a cfbd 40be 6dbd 2840 043d 486e e3bd
00000100: c8c1 3e3e 00ec a8bc 309a 14be a0c7 783d
00000110: cca5 d0bd 1c73 66be 8234 37be f4e9 093e
00000120: a026 343d 2473 2a3e b0f4 02be e645 3b3e
00000130: 004f b43b ac04 303e a0c3 9c3c e89d cbbd
00000140: d6bd 58be 9c2e 923d be93 6cbe 28fb 973d
00000150: 2a74 643e 0cce 2ebe 4073 523c fce6 49be
00000160: e857 1fbe 9031 26bd d012 7fbe a07a e0bc
00000170: 18b4 1bbd bc48 09be f423 fdbd 70ba 653e
00000180: 2074 6bbd 4a3f 273e e689 4abe c0f1 f5bb
00000190: f4d0 e63d 1073 7e3d ccb9 683e 9c53 87bd
000001a0: f41c 26be b64c 3f3e 701c 63be 6079 343e
000001b0: a414 7e3e 38a4 273e 1a94 353e e895 6f3d
000001c0: 7a06 2e3e 4002 673e 96f9 5ebe 10a6 d93d
000001d0: e0ab 4fbc 101b e4bd 7874 593d 7ec6 70be
000001e0: ec79 eabd f240 073e d89a 3bbd 8c97 15be
000001f0: f044 e63d 2a1d 713e 88f9 8c3d 92aa 303e
00000200: 64ad a5bd 9021 a23d 90f4 8bbd c8ce 6c3e
00000210: d87b 94bd 84d7 d93d c059 b63c b043 2bbe
00000220: a070 603d 7ce7 42be e428 693e 2cb5 55be
00000230: f6bc 45be 6032 653e 0491 803d 50af 443e
00000240: e847 8d3d 82c9 1a3e 489d 33be e0f1 893c
00000250: 8460 2dbe 12ea 393e dc44 873d 2eb3 74be
00000260: 8825 d4bd 201a 46be c0a1 4f3c 28c2 6ebd
00000270: f8f4 453e 7856 77be ece9 393e a0ad f9bc
00000280: 18cf 013d 2071 67be 4c7b e6bd ec5f 513e
00000290: 482f 3cbe 002e f43a 78e2 b03d 80ed 33bd
000002a0: 8026 d0bd f004 abbd aa2a 3ebe 60b8 263c
000002b0: 7c9f fabd 90ed ebbd 6af1 6fbe 6800 87bd
000002c0: f47a e93d 445c 60be 007a a9bb a89c 07be
000002d0: b86a 15bd 686c 6e3d 0693 093e d413 bd3d
000002e0: c4d5 00be 4c7d c03d 7c8f 6a3e 00c1 5f3b
000002f0: 9074 9abc e423 2ebe e2a9 01be 3061 c1bc
00000300: 6c71 913d b8f5 d0bd 40a3 e73b fcaf 1abe
00000310: 60d9 94bd 72af 11be 06b8 66be 8098 173b
00000320: c655 553e 34f0 823d 706a aa3d 3cc6 173e
00000330: d02d 9ebc d4b3 083e 7015 cf3c a0f3 04bd
00000340: 9cd8 cb3d 185e 8cbd 927f 79be be3e 6bbe
00000350: 9cda 9fbd 285a 0c3e f099 cc3d b461 29be
00000360: d873 273d 1c97 dfbd 6e2e 5b3e aa87 5a3e
00000370: eee6 1d3e 506e c9bc b4d4 fa3d d46b dcbd
00000380: 28cf 103e 505a a8bc 4021 07bc 64b1 b63d
00000390: 70d1 a2bd 0c18 7a3e 4022 abbb 46e0 6abe
000003a0: ec32 893d 80ea 7abe fcb8 663e b832 763e
000003b0: 56b4 593e ccef afbd a084 7abd 0025 b0bb
000003c0: 6092 e6bc c051 1abe d49d d93d bcac ff3d
000003d0: c005 d03b 70ec 75bd 10fb 993c ba69 123e
000003e0: 40e0 bebd 640d 69be be50 1dbe e868 c03d
000003f0: 445c 793e 5866 8fbd c099 e3bd 8007 1cbd
-0.23105714 0.23169944 -0.062836796 -0.18596444 -0.044466943 -0.112620115 0.08735305 -0.19247216
0.08472699 -0.042990535 0.12646869 0.1062319 0.03790602 -0.19361341 0.050186545 0.067371994
0.22609866 -0.13610867 -0.17601144 -0.034959823 -0.24268246 -0.09710261 0.0059952736 0.09146616
-0.122244984 -0.0512771 -0.039797813 -0.08796543 0.065044194 0.20808288 0.08913216 0.15713218
0.24905676 0.14532962 0.016846538 -0.10437891 -0.052162588 -0.22335765 0.2493628 -0.071935
-0.17035037 0.07190582 -0.05393946 0.22445402 0.10657409 0.07491058 0.16566464 0.049664915
0.22609165 -0.23804739 0.11250743 0.04221034 0.22537136 0.018698126 -0.02678585 -0.20678848
-0.23174918 0.23608395 0.1433489 -0.057483822 -0.10127753 -0.058042765 0.032287747 -0.11105019
0.18628609 -0.020620346 -0.14511943 0.060737252 -0.10187873 -0.22504848 -0.17891124 0.13468152
0.04398215 0.16645485 -0.12788653 0.18288383 0.0055025816 0.17189282 0.01913625 -0.099422276
-0.21166167 0.07137796 -0.23103234 0.07420951 0.22309938 -0.17070788 0.012844861 -0.1971702
-0.15560877 -0.04057461 -0.2490952 -0.027402222 -0.038013548 -0.13406652 -0.12360373 0.22434402
-0.057483792 0.16332737 -0.19779167 -0.0075056255 0.112703234 0.06212145 0.22727126 -0.06607744
-0.16221982 0.18681607 -0.22178817 0.17624426 0.24812561 0.16371238 0.17732278 0.05849257
0.16994658 0.22559452 -0.21774897 0.10627377 -0.012675256 -0.11137974 0.05308959 -0.23513219
-0.11449036 0.13208368 -0.045801967 -0.14608592 0.112436175 0.23546281 0.06883532 0.17252567
-0.08089712 0.07916558 -0.06833756 0.23125756 -0.07250184 0.106368095 0.022259593 -0.1672504
0.054794908 -0.19033617 0.22769505 -0.20869893 -0.19310364 0.22382498 0.062776595 0.19207501
0.06898481 0.15115932 -0.17540467 0.016838968 -0.16931349 0.18155697 0.06604931 -0.23896477
-0.10358721 -0.19345903 0.012672842 -0.05829063 0.1933173 -0.24154079 0.1815564 -0.030478299
0.03169164 -0.22601748 -0.11253986 0.20446748 -0.18377411 0.0018629432 0.086369455 -0.04392767
-0.10163593 -0.08350551 -0.18570963 0.010175794 -0.122374505 -0.11519921 -0.23431936 -0.06591874
0.114004046 -0.21910197 -0.0051720142 -0.13243353 -0.036478728 0.058208853 0.13434991 0.092322975
-0.12581545 0.093988985 0.22906297 0.0034142137 -0.01885441 -0.17005879 -0.12662461 -0.023605913
0.07101712 -0.10203117 0.0070690215 -0.15106195 -0.072680235 -0.14227083 -0.22531137 0.0023131669
0.20833501 0.06393471 0.083210826 0.14821714 -0.019308954 0.13349849 0.025278777 -0.0324589
0.09953424 -0.068538845 -0.2436507 -0.22973153 -0.07805368 0.13706267 0.09990299 -0.16541177
0.04088196 -0.10917494 0.2140443 0.21340814 0.15420124 -0.024588734 0.12247601 -0.10762754
0.14141524 -0.020550877 -0.0082476735 0.08920553 -0.07950103 0.24423236 -0.005222589 -0.22937116
0.06699166 -0.24503517 0.22531503 0.24042785 0.21260199 -0.085906595 -0.061161637 -0.0053755045
-0.028145969 -0.15070248 0.106258065 0.12484118 0.0063483417 -0.060039937 0.018796474 0.14298144
-0.09320116 -0.22759014 -0.15362832 0.09395009 0.24351603 -0.070019424 -0.1111331 -0.03809309

recommender_model.net.position_embedding.weight f4 [50, 16]
00000000: 8c3d 603e 8c46 a23d 98cc 13be e87d b33d
00000010: aa78 6d3e 40dc bb3c c889 013d a859 773e
00000020: 0641 543e e831 e13d b06f 45be 302a 56be
00000030: d249 0bbe 4e4f 443e e4a6 3fbe c812 75be
00000040: 0ed8 45be 4a78 46be 3ce7 11be 1600 50be
00000050: 2cad 493e aa5a 593e cc5c 43be b02e b5bc
00000060: 286b c43d d23d 383e 2048 89bc ea51 66be
00000070: 12cb 263e 8050 95bd f47b 393e a875 173e
00000080: a013 6cbe 367e 6bbe 08a5 333d cc6a 913d
00000090: d820 b23d 28ba da3d 3430 3cbe 48ce 143d
000000a0: 66d7 34be 0076 983d d833 ecbd 2a0e 56be
000000b0: 14f8 b6bd 1041 e33d 8a75 2e3e 4e40 15be
000000c0: a043 a3bc 58b4 153e 08f8 6c3d 84b9 293e
000000d0: fc4b c23d 9649 213e 5094 a43c 484c 5cbe
000000e0: dc31 37be 9c55 c8bd 9484 89bd 200f ff3c
000000f0: 4013 dbbc 9444 643e e6d0 31be 54ab d4bd
00000100: 1044 ca3c 1855 4d3d 4081 063c 80dd a53d
00000110: 2004 413c b4e1 01be b8ed e23d ec35 c03d
00000120: f8a5 323e 10b7 2f3d de1a 653e 3673 0c3e
00000130: 7c60 253e 368d 0fbe f4b3 723e 4a20 023e
00000140: f69d 163e 3010 253d 603b 2e3c 9698 4d3e
00000150: cce2 bb3d d88a 29bd f4d6 3f3e b48a 123e
00000160: 40f5 8fbb 8073 02bc cedc 35be 600e 11bc
00000170: 1aec 223e 00e8 353a 20b4 1ebc c2a7 7a3e
00000180: 389e 8fbd 7828 59bd 7e88 2dbe d03a bdbc
00000190: b089 fc3c c0fb 033d 1016 d7bd 5417 763e
000001a0: 28b0 603d f8a3 fcbd 74ff 8b3d d2fb 7b3e
000001b0: 9cac 86bd 480e 453e 0014 3dbc b841 dc3d
000001c0: 5859 983d e875 753e 4818 f4bd 967b 34be
000001d0: b402 76be 60a5 bfbc 80e0 ddbc d0cd 073d
000001e0: 1c72 2abe 5a7c 1a3e 8acc 6fbe b425 babd
000001f0: 0652 2cbe ac55 fabd 5880 24be d097 0abe
00000200: 1ed9 66be 0430 d7bd ccc2 313e f464 df3d
00000210: 7a61 733e 7609 1d3e b811 713d 56bb 1abe
00000220: 4092 08bc 6c16 e83d 0895 d43d 80f3 a4bc
00000230: 58ef 5fbd 344f 67be 4c84 e63d 5c44 663e
00000240: b43b df3d d8dc c23d cac7 313e 64a5 953d
00000250: 5035 a13d 9613 6f3e 8096 2cbb def5 1fbe
00000260: 56f5 133e ac67 dbbd e2f0 573e 608d 393d
00000270: 0edd 273e 1e6c 4a3e 9a0c 753e acc9 15be
00000280: a4ee d0bd 30cb 053e b69d 263e 2c16 76be
00000290: 2072 483d c431 373e f86a 143e f80e 043d
000002a0: 4440 443e 88dc d4bd de8a 61be a8b0 dbbd
000002b0: 9855 edbd d856 533d fe0f 73be eacb 70be
000002c0: c0bb f93b 9223 33be 7a9f 03be 2c0e e73d
000002d0: f8ee 37bd 5025 db3c 38f5 dc3d ec12 a93d
000002e0: 7a7a 253e 80a4 f03b 2aaa 553e 308c b73c
000002f0: e8ee 8d3d 00df 1d3d 1c14 e93d 38f5 603e
00000300: 501d 0f3e cc86 1a3e ccbb 8fbd 20ff 50be
00000310: 9045 4abd 1827 51bd d843 ab3d b8bc 64be
00000320: 00fb 493d 303e 32bd a8a0 43bd 6a37 203e
00000330: 1cd8 e1bd 6a43 3cbe 14d7 513e 5c2b 94bd
00000340: 9a1b 01be 9000 5bbe ec9b 91bd 98e0 f33d
00000350: b440 29be e0fe 1e3d 0c60 b53d d278 013e
00000360: 88e0 eabd b4f2 2b3e 5a05 1fbe 9e29 193e
00000370: 4c58 333e 60e6 a43d c4d2 a5bd 1407 643e
00000380: 8c1e eebd 90d5 0bbe c041 6f3e 8877 0a3e
00000390: f0a7 a3bd 2407 21be c4e5 c93d 8499 5fbe
000003a0: d492 363e 6424 2a3e 48f2 cf3d 5837 623d
000003b0: 8c9b 24be 88f4 10bd e0ca 0a3e 90a6 67be
000003c0: f020 a0bd 6065 76bd 30f4 8fbc feb0 47be
000003d0: 52c3 733e 5844 673d b4c0 6d3e 3c8f 5d3e
000003e0: 7027 e9bc 5291 243e 90cf d23d 0857 fe3d
000003f0: 9465 1c3e 20fe e63c f037 2fbe f848 3e3e
0.21898478 0.07923612 -0.14433515 0.08764249 0.23190561 0.022932172 0.03162554 0.24155295
0.2072793 0.10995847 -0.19280887 -0.20914531 -0.13602379 0.19170877 -0.18716007 -0.23932946
-0.193207 -0.19381824 -0.14248365 -0.20312533 0.19694966 0.21225992 -0.19078368 -0.022116989
0.09590751 0.17992333 -0.016758025 -0.22492185 0.16288403 -0.07290745 0.1811369 0.14790976
-0.23054361 -0.22997364 0.043858558 0.07100448 0.08697671 0.10680038 -0.18377763 0.036329538
-0.17660293 0.07444382 -0.11533326 -0.2090384 -0.08934036 0.11096394 0.17037025 -0.14575312
-0.019929707 0.14619577 0.05785373 0.16574675 0.09487149 0.15750727 0.020090252 -0.21513474
-0.17890114 -0.09781954 -0.067147404 0.031135142 -0.026742578 0.22291785 -0.17364845 -0.10384241
0.024690658 0.05012998 0.008209527 0.080988884 0.011780769 -0.12683755 0.110804975 0.09385285
0.17446125 0.04289919 0.2237353 0.13715824 0.16150087 -0.14018711 0.23701459 0.1270763
0.14708695 0.04029864 0.010634273 0.20077738 0.091741174 -0.041392177 0.18734342 0.14310724
-0.0043932498 -0.007962108 -0.17760012 -0.008853525 0.15910378 0.0006939173 -0.0096865 0.24478057
-0.070126 -0.05301711 -0.16946599 -0.023099333 0.030827373 0.03222251 -0.10502255 0.24032336
0.054855496 -0.12335962 0.06835833 0.2460778 -0.065758914 0.19243729 -0.011540413 0.10754722
0.07438916 0.23970759 -0.11918694 -0.1762527 -0.24024469 -0.023394287 -0.027084589 0.033155262
-0.16645092 0.15086499 -0.23417869 -0.090892226 -0.16828164 -0.12223372 -0.16064584 -0.13534474
-0.22543761 -0.10507205 0.17359465 0.10907927 0.23767653 0.1533564 0.05885479 -0.15110525
-0.00833565 0.11332402 0.10379988 -0.020135641 -0.054671615 -0.22588807 0.112557024 0.22487015
0.10900059 0.09514779 0.1736137 0.073069364 0.07871497 0.23347315 -0.0026334822 -0.15621135
0.14449057 -0.10713133 0.21087983 0.04530084 0.1639292 0.19767806 0.23930588 -0.14627713
-0.10201767 0.13065791 0.162711 -0.24031895 0.048936963 0.17890078 0.1449393 0.032240838
0.1916514 -0.103936255 -0.2202563 -0.10727054 -0.11588591 0.051596493 -0.2373657 -0.23515287
0.0076212585 -0.17494038 -0.12853804 0.11282 -0.044905633 0.02675119 0.10788959 0.08255562
0.16160002 0.0073438287 0.20865694 0.022405714 0.069303334 0.038542747 0.11380789 0.21968544
0.13976026 0.15090483 -0.07018241 -0.20409822 -0.049382746 -0.051062673 0.083625495 -0.22337615
0.049311638 -0.043516338 -0.047760636 0.15646139 -0.11027548 -0.18385091 0.20492202 -0.07234833
-0.12608185 -0.21386933 -0.07109818 0.11908072 -0.16528589 0.038817286 0.0885621 0.12643746
-0.11468607 0.16791803 -0.15529385 0.14957282 0.17514151 0.08051753 -0.08096841 0.22268325
-0.1162692 -0.13655686 0.23364925 0.1352216 -0.07991016 -0.1572538 0.098582774 -0.21835905
0.17829448 0.16615444 0.10153633 0.05522856 -0.16074961 -0.035389453 0.13553953 -0.22622132
-0.07818782 -0.060155272 -0.017572492 -0.19501111 0.23804978 0.056461662 0.23218042 0.21636671
-0.028461188 0.1607106 0.10293496 0.12418944 0.15273124 0.028197348 -0.17111182 0.18582523

recommender_model.net.trm_encoder.layer.0.multi_head_attention.query.bias f4 [16]
00000000: 30b8 5d3e 90b7 873c 1aed 03be f084 4fbe
00000010: b0f6 6a3e a42c 0e3e 0029 92bc 7887 21be
00000020: 7889 2bbd e42f 37be 580f f0bd 6829 743d
00000030: e8d1 34be 0241 1fbe 8406 9a3d 126b 223e
0.21652293 0.016567022 -0.12883416 -0.20265555 0.22945666 0.13884217 -0.017841816 -0.15774333
-0.041879147 -0.17889363 -0.117216766 0.0596098 -0.17658198 -0.15552142 0.07520774 0.15861157

recommender_model.net.trm_encoder.layer.0.multi_head_attention.key.bias f4 [16]
00000000: 0263 323e 501f 9b3d f69f 20be c0d2 443e
00000010: 6818 603e 60b0 233c eaf3 2a3e a45a 053e
00000020: 200c 3b3d 06eb 403e ca8a 583e 8057 1b3d
00000030: 268f 3cbe 0449 a03d 00cd 993d ce70 54be
0.17420581 0.07574332 -0.1568602 0.1922102 0.2188431 0.009990782 0.16694608 0.13022858
0.04566586 0.18839654 0.21146694 0.037925243 -0.18413982 0.078264266 0.07509804 -0.20746157

recommender_model.net.trm_encoder.layer.0.multi_head_attention.value.bias f4 [16]
00000000: 90eb 8b3d 2247 75be 60d4 6abc b02a 8fbc
00000010: c816 9d3d 8860 5a3d c00b 543c 764a 38be
00000020: 54cf bd3d 00d9 593c e449 00be 800f 1dbd
00000030: e014 dcbd b0c6 963d 40e1 043e 905d 0a3e
0.06832039 -0.23952916 -0.014332861 -0.01747641 0.07670361 0.053314716 0.012942255 -0.17997155
0.0926806 0.013296366 -0.12528187 -0.03834486 -0.10746169 0.073621154 0.12976551 0.13512254

recommender_model.net.trm_encoder.layer.0.multi_head_attention.dense.bias f4 [16]
00000000: 3037 05bd 681c 613e 0eb2 603e ea91 563e
00000010: 3847 27be c646 563e 30c2 fabc 5ca7 25be
00000020: 503a d43d 0c6e fbbd b4d3 06be d272 123e
00000030: 702c 443e e051 7e3c 04ca e6bd 58ef 753e
-0.032523334 0.21983492 0.21942922 0.209541 -0.16335762 0.20925435 -0.030610174 -0.16177124
0.10362685 -0.12276849 -0.13166696 0.14301613 0.19157577 0.01552245 -0.11269 0.24017084

recommender_model.net.trm_encoder.layer.0.multi_head_attention.LayerNorm.weight f4 [16]
00000000: e61a 08be d8ee 893d b4f1 dd3d 3264 673e
00000010: 2e9c 58be 9e3c 453e 9c7f 9f3d b430 553e
00000020: 34ca 523e 7874 803d 108e c4bd 309d c7bd
00000030: fc41 dcbd b876 7b3d 00a4 413a 08f1 20bd
-0.13291511 0.06735009 0.10837117 0.22596815 -0.21153328 0.19261405 0.077880114 0.2081936
0.20584947 0.06272215 -0.09597409 -0.09746778 -0.10754773 0.061392516 0.00073868036 -0.039292365

recommender_model.net.trm_encoder.layer.0.multi_head_attention.LayerNorm.bias f4 [16]
00000000: 68c4 cb3d 3031 683e 5055 1f3e f096 2dbd
00000010: 166b 5a3e 1cb8 1e3e b2ce 7ebe c051 653c
00000020: b0dd 88bc e247 4f3e 4c5f 0a3e 1c25 bb3d
00000030: 28e3 66be 48f7 f03d b84f 1c3d f674 2ebe
0.09949571 0.22675014 0.15559888 -0.042380273 0.21329913 0.1549992 -0.24883536 0.0139965415
-0.016707271 0.20242265 0.13512915 0.091379374 -0.2254759 0.11765915 0.038161963 -0.17036805

recommender_model.net.trm_encoder.layer.0.feed_forward.dense_1.bias f4 [256]
00000000: 663d 293e 40ab d7bd 5c1e 143e 80eb 40bc
00000010: 0a22 0d3e f40c 77be 2456 353e b059 cbbc
00000020: 901a c23c dc81 0e3e a0fe d53d 4aac 2f3e
00000030: b875 2dbd 1801 f23d 3809 1bbe 4e65 28be
00000040: 4096 78bd 6a3d 493e 4c2d 99bd 8071 3e3d
00000050: 2249 37be c832 373e 94dd 5b3e c866 b4bd
00000060: 3816 eebd 80a2 213e 0443 bebd 40b4 cbbc
00000070: d28f 30be e808 4c3d 5ce5 85bd c89a 0ebd
00000080: 5008 793d 903d 09bd 10a0 b6bd 38ec 63be
00000090: 6024 613c 8cd4 473e 0088 4bbe 509e e43c
000000a0: 946c 5abe 50b8 7fbe e6ce 17be 722e 3abe
000000b0: 4062 e63b 46a3 68be 7ee7 1e3e a0cc 56bc
000000c0: 080c 953d 1a92 7a3e 5ad6 02be 7017 78bd
000000d0: a8dc 553d e20b 1b3e e2d1 4e3e 10e0 20be
000000e0: d434 d53d 7e30 37be 6ca6 52be 640f a53d
000000f0: bafc 7bbe 02bf 4e3e 5090 263d 80e6 babb
00000100: 82d4 533e f883 91bd a046 903d c687 5d3e
00000110: aa4e 6c3e c0c8 713e 7c62 62be 200d 2b3d
00000120: 0878 dcbd 4aea 7a3e d66b 1abe 228a 13be
00000130: 288b 80bd be97 14be 40a4 1e3d e2dd 4dbe
00000140: b888 9dbd c8a5 a9bd 5aac 4e3e 18ab cf3d
00000150: 82e8 51be c27c 573e f40d 58be 6815 50bd
00000160: 42ad 4c3e 00ee 51bb a860 7ebe ae55 3c3e
00000170: 9ac3 403e 9459 f53d 8019 2b3e 16c9 183e
00000180: 88dc a5bd c8d8 73bd 6cc1 58be 6054 083d
00000190: 903d 5ebd a089 05bc dc61 d23d 2851 6d3d
000001a0: 90d9 e8bc 2c5b 563e 00d6 f3bd 3e79 49be
000001b0: 9ea7 30be 226d 133e 5cc7 47be 540e f7bd
000001c0: 805b 2a3b 42a4 163e b085 fe3c 62ad 29be
000001d0: c648 613e d004 283d 506a dcbd f0fd c03c
000001e0: 1461 6abe b05c 45be 1099 1c3e 703d c13c
000001f0: a8cf 613e 40ac 9abc 9846 aa3d 8aa4 0ebe
00000200: 40ff 673d 34a2 12be 6aea 0e3e c422 7cbe
00000210: 1e2f 3e3e 006c b93b 2078 693e 26dc 08be
00000220: 803e b3bd 70da c6bd 9098 0cbe c056 68be
00000230: b07b 50be 74b8 2dbe 989d f53d 505b 963c
00000240: 90f1 513e 808f eb3c 4039 0d3e 92b9 5abe
00000250: 2002 64bc 30b4 713d 9889 3c3d d40a 23be
00000260: 18cc 9cbd 6c6c 71be 9e04 313e b0a3 9a3d
00000270: eca2 28be 0c43 c1bd 28f2 c1bd 90f7 b83d
00000280: 2af3 0dbe 4002 e0bb 3463 3d3e e8d4 6a3d
00000290: 605e d63c 7a60 483e 80d8 19bc 1061 d43d
000002a0: 86d1 373e ec68 8e3d 648d 0c3e da31 4fbe
000002b0: 7880 123d b05f 0dbe 609c 2e3c 2864 183d
000002c0: c857 4c3e a89f 033e 9ae3 213e 4450 563e
000002d0: ca4e 10be 56d3 563e 68a7 053e f84d 12bd
000002e0: 781a 6c3e 808b 463c c0a0 513e c02d b2bd
000002f0: d058 273d 1446 323e 38d7 4dbd fc38 22be
00000300: 3078 68bd 940e b83d 2cdb a3bd 1040 d63d
00000310: cc26 6d3e b03e bcbd c8ca 59bd 1696 203e
00000320: b2d8 28be e611 453e 58e2 ab3d 60c6 3e3d
00000330: 52d5 393e 4042 4f3d 065a 323e 202a d93d
00000340: d0f8 6a3d 400b 043e 404a 23be cc8d 50be
00000350: b661 0dbe b8c6 e03d f223 6f3e d079 28be
00000360: 4409 483e d861 243d 70c9 77bd 343c eabd
00000370: 4805 5d3e 6672 113e 3e0a 14be ccd6 6ebe
00000380: a4da a13d 00a8 60b9 d8e1 1e3d f879 103e
00000390: 007e 1f3d ea5a 183e 225f 3ebe b8d3 05bd
000003a0: ecc5 20be 80fc 953c 50f4 d8bd fa22 703e
000003b0: c0f4 b8bb 6c39 9bbd c8eb bebd 68db e73d
000003c0: 889a 3e3d f069 883c be9b 4fbe 64e8 1cbe
000003d0: e2f9 383e cc05 97bd 0494 83bd f086 c23d
000003e0: 32e0 3cbe 6633 76be 6803 aabd ac4c dabd
000003f0: f40f 0dbe 2c19 643e 90b8 69bd 8cc3 5cbe
0.16527328 -0.1053071 0.14464706 -0.011774898 0.13782516 -0.24126035 0.17708641 -0.02482304
0.023694307 0.13916725 0.104489565 0.17155567 -0.042348593 0.11816615 -0.15140235 -0.16444895
-0.060690165 0.19652334 -0.07479343 0.04649496 -0.17898992 0.17890465 0.21471244 -0.088086665
-0.11625332 0.15784645 -0.09290126 -0.024866223 -0.17242363 0.04981318 -0.065378875 -0.03481558
0.060798943 -0.033505976 -0.08917248 -0.22258079 0.013741583 0.19514674 -0.19876099 0.02790752
-0.21330482 -0.24972653 -0.14825019 -0.1818178 0.0070307553 -0.22718534 0.15517995 -0.01311031
0.072776854 0.24469796 -0.12777081 -0.060569227 0.052212387 0.15141252 0.20197251 -0.15710473
0.10410467 -0.17889592 -0.20571297 0.08059576 -0.24608126 0.20190051 0.04066497 -0.0057037473
0.20686534 -0.07105249 0.07044721 0.21633825 0.23076883 0.23611736 -0.22107881 0.041760564
-0.10765082 0.24503437 -0.15080199 -0.14408162 -0.06276542 -0.1451101 0.03873086 -0.20104173
-0.07692093 -0.082835734 0.20182934 0.101400554 -0.20498851 0.21043685 -0.21099073 -0.050801665
0.19987968 -0.0032032728 -0.24841559 0.18392059 0.18824616 0.11979976 0.16708946 0.14920458
-0.080987036 -0.05953291 -0.21167535 0.03328359 -0.05425793 -0.008150488 0.102725714 0.057938725
-0.028424054 0.20933217 -0.11906052 -0.19675156 -0.17251441 0.143971 -0.19509643 -0.1206328
0.002599448 0.14711097 0.031069607 -0.16570047 0.22000417 0.041020215 -0.10762465 0.023558587
-0.22888595 -0.19273639 0.15292764 0.023588866 0.22051871 -0.018880963 0.08314246 -0.13929954
0.05663991 -0.14319688 0.1395661 -0.24622637 0.18572661 0.0056586266 0.2279973 -0.1336523
-0.08752155 -0.097096324 -0.13730073 -0.22689342 -0.20359683 -0.16964895 0.11992949 0.018354088
0.20502305 0.02875495 0.1379137 -0.21359852 -0.013916522 0.05900973 0.046029657 -0.159221
-0.07656115 -0.23576516 0.17286918 0.07550752 -0.164684 -0.09436616 -0.09470016 0.09031594
-0.13862291 -0.0068362057 0.18494874 0.05733195 0.026168048 0.19568053 -0.0093899965 0.10370076
0.1795102 0.06953606 0.13725811 -0.2023386 0.03576705 -0.13806033 0.0106574 0.03720489
0.19955361 0.12853873 0.1580948 0.20929056 -0.14092556 0.20979056 0.13052142 -0.035718888
0.23056972 0.01211822 0.20471478 -0.08700132 0.040856183 0.17409545 -0.050254077 -0.1584205
-0.056755245 0.089871556 -0.08000788 0.10461438 0.23159331 -0.09191644 -0.053171903 0.15682253
-0.16488913 0.19245109 0.08392781 0.046575904 0.18147781 0.05060029 0.17417154 0.10603738
0.057366192 0.12894917 -0.15946293 -0.20366591 -0.13806805 0.109754026 0.23353556 -0.16452718
0.19534785 0.040132374 -0.06049484 -0.11437264 0.21584046 0.14203796 -0.14457032 -0.23324126
0.079030305 -0.0002142489 0.0387896 0.14109027 0.038938522 0.14878431 -0.18590978 -0.032672614
-0.15700501 0.018308878 -0.10593474 0.23450842 -0.005644411 -0.07579312 -0.093223155 0.11321145
0.04653409 0.016652077 -0.20274255 -0.15323025 0.18064073 -0.073741525 -0.06424716 0.094983935
-0.18444899 -0.24043044 -0.08301431 -0.10659155 -0.13775617 0.22275227 -0.05706078 -0.2155897

recommender_model.net.trm_encoder.layer.0.feed_forward.dense_2.bias f4 [16]
00000000: 2ae1 15be 9c6d 963d b65d 693e cc1d 963d
00000010: 8838 af3d 00f6 e13a 40dc b13d 0ceb 04be
00000020: fac5 463e 5064 0cbd 2090 d8bc e854 02bd
00000030: 1094 bd3d 282e f63d 7cde 9d3d 5451 62be
-0.14636675 0.07345125 0.22789654 0.07329902 0.08555704 0.0017239451 0.086845875 -0.12980288
0.1941146 -0.034275353 -0.026435912 -0.031819254 0.09256756 0.12020522 0.07708451 -0.22101337

recommender_model.net.trm_encoder.layer.0.feed_forward.LayerNorm.weight f4 [16]
00000000: ded9 033e de7f 2cbe f048 343d 6010 28bd
00000010: e8fb ad3d 6835 e73d c430 7b3e 7e25 1c3e
00000020: 528c 793e 40e3 fdbb 669a 1dbe a0cb 4f3c
00000030: 5053 3bbe e0ad 4fbe 10b6 33bd ec88 e33d
0.12876078 -0.16845652 0.04401487 -0.04103124 0.08495313 0.11289483 0.24530321 0.15248677
0.24369934 -0.0077480376 -0.1539093 0.012682825 -0.182935 -0.20281172 -0.0438748 0.111101

recommender_model.net.trm_encoder.layer.0.feed_forward.LayerNorm.bias f4 [16]
00000000: 3cf0 203e 70a8 6abd 4493 4fbe b439 933d
00000010: ea14 49be 404d 32be 40ef 633e 5429 553e
00000020: 20fe 24be 4023 5c3d 3492 c2bd 20f3 f23d
00000030: 80d6 4c3b da42 5fbe de07 7d3e 2c5f 0d3e
0.15716642 -0.05728954 -0.20271021 0.071887404 -0.19636884 -0.17412281 0.22259235 0.20816547
-0.16112566 0.053744555 -0.09500542 0.11862779 0.0031255782 -0.21802846 0.24710032 0.13805836

recommender_model.net.trm_encoder.layer.1.multi_head_attention.query.bias f4 [16]
00000000: 000c b1bb 186a b93d 6adb 1b3e 94ab 16be
00000010: 1c8b 74be 3e64 6cbe a42c e93d 1499 48be
00000020: da2e 1a3e 58bc 5bbe 6861 48be a08b 57bd
00000030: 00f6 95bc 384f 6f3e 8af4 263e f811 c3bd
-0.005403042 0.09053439 0.15220419 -0.1471389 -0.23881191 -0.23085114 0.11385468 -0.19589645
0.15056935 -0.21458566 -0.19568408 -0.05262339 -0.018305779 0.23370063 0.16304222 -0.09524912

recommender_model.net.trm_encoder.layer.1.multi_head_attention.key.bias f4 [16]
00000000: a806 2abd 50d9 17be e4d2 fb3d a020 ca3c
00000010: 3c51 02be 6aa5 093e 80e0 0abb 2223 6cbe
00000020: 5e5c 5dbe a87f 2e3e 1265 59be 509a ccbd
00000030: 9c8f a33d 0492 9cbd 50ca f5bc 6802 493e
-0.041510254 -0.14828992 0.122960836 0.02467376 -0.12726301 0.13442007 -0.0021190941 -0.23060277
-0.21617267 0.17040884 -0.21229962 -0.0999037 0.07986376 -0.07645038 -0.030003697 0.19629824

recommender_model.net.trm_encoder.layer.1.multi_head_attention.value.bias f4 [16]
00000000: 7a55 073e 200d 123d e093 7a3e f072 20be
00000010: 00bd e43d 24c6 ccbd 3c18 75be 2074 1b3e
00000020: 40ca 03be 20d6 ddbd c00f 623d f4be b63d
00000030: a4ae cbbd 3e4b 213e ccb1 59be a0e6 89bd
0.132162 0.03565705 0.24470472 -0.15668845 0.111688614 -0.0999873 -0.23935026 0.15181017
-0.12870121 -0.10831857 0.0551908 0.0892314 -0.099454194 0.15751359 -0.2125923 -0.06733441

recommender_model.net.trm_encoder.layer.1.multi_head_attention.dense.bias f4 [16]
00000000: 42e9 5cbe b67b 6bbe 18a5 163e 588a c0bd
00000010: 60dc c8bd 1403 29be 1a94 10be 007a 103c
00000020: 28ea 7cbd da83 1e3e 446e c7bd 6083 9dbc
00000030: 883e 63be c8f0 08be 4aaf 503e 545d 83bd
-0.21573356 -0.2299641 0.14711416 -0.09401387 -0.09807658 -0.1650508 -0.14118996 0.00881815
-0.061746746 0.15479985 -0.097378284 -0.019227684 -0.22191823 -0.13373101 0.20379367 -0.06414285

recommender_model.net.trm_encoder.layer.1.multi_head_attention.LayerNorm.weight f4 [16]
00000000: 3c79 a53d 08d9 473e d448 ccbd a298 6bbe
00000010: cc38 ac3d fa09 6f3e 3cf5 063e d0e8 cfbd
00000020: 80f6 d13d e475 cb3d b40e 55be 78f4 093e
00000030: 783c 403d 9087 1e3d ec92 f83d 4ccc 673e
0.08079764 0.19516385 -0.09974828 -0.23007444 0.08409271 0.2334365 0.13179487 -0.10151827
0.10252094 0.09934595 -0.2080639 0.13472164 0.046932667 0.0387035 0.12137398 0.22636527

recommender_model.net.trm_encoder.layer.1.multi_head_attention.LayerNorm.bias f4 [16]
00000000: 283c 29be 6444 093e c497 a3bd a2c0 6dbe
00000010: 7ec5 4a3e 98b0 9abd e202 6f3e 1e67 583e
00000020: 1846 a93d 2408 de3d 4076 753e 00c0 92b8
00000030: f455 793e 48ad 57bd f83b 5dbe 523a 1cbe
-0.16526854 0.13404995 -0.07987931 -0.23218015 0.198019 -0.07553214 0.23340943 0.21133086
0.082653224 0.108413965 0.2397089 -6.997585e-05 0.24349195 -0.05265549 -0.21604908 -0.15256622

recommender_model.net.trm_encoder.layer.1.feed_forward.dense_1.bias f4 [256]
00000000: c00b 5abc 30e3 9dbd 906c fabc a0e6 c23c
00000010: 808c 13bd 4826 4f3e 60e9 6dbc f838 32be
00000020: 5885 dabd 8083 4c3b eecf 4fbe a8ac 0f3e
00000030: e8a7 7abd b027 e7bc 7835 dabd 8042 4fbe
00000040: 846c afbd a80c 67be 109c 0abd 72b3 4d3e
00000050: c007 23be 1c54 5c3e f8df 29be e8de 7abe
00000060: 2a66 163e 00c7 41be 3c17 353e a8d0 60bd
00000070: d0de ae3d e44f 913d 645d fe3d e491 a4bd
00000080: 6007 a83d b488 48be 726e 153e 5851 6d3e
00000090: 98db 073d 787d 07bd 80ff f1bc 3093 aebd
000000a0: 681f ee3d 8403 463e 6c26 f53d 943a 753e
000000b0: d4c7 083e e847 0cbd 50d8 debc dceb 3fbe
000000c0: d03d be3d c0d1 ad3d 00a0 b0b8 18d6 0fbe
000000d0: bab9 343e 488a 40be 50f7 0c3e 90ff c73d
000000e0: c017 cabd bed2 76be 80a9 ac3b 10ee b1bd
000000f0: 605a d13d cc90 073e e08f 23be 2afa 08be
00000100: 5488 6abe 703c 183e 7cd3 923d 1084 edbc
00000110: 205e aebd 3aa3 2abe 60c1 433c b458 a4bd
00000120: ba5d 68be 108e fcbc 5844 f4bd 16ca 433e
00000130: 2cae cbbd f05a 7dbd 0c80 8cbd 0058 c239
00000140: 2a1a 3b3e 5081 703e 806f 7f3d e2e0 7dbe
00000150: e0f2 fb3d 4269 3dbe 90a9 333d f091 5d3e
00000160: 809c 47be 5816 e03d 804d 523c 5e4f 18be
00000170: 2e74 263e 9015 fd3d 98fc adbd a8da fabd
00000180: bea0 0abe 6454 433e 6a00 5e3e b417 59be
00000190: 8c11 843d 9039 443e 44eb 453e 7a1c 54be
000001a0: 4021 21bc 625e 0bbe d4bf 6cbe 80d2 933c
000001b0: 101e 7f3e fac0 493e 083d 3d3e c87a 633d
000001c0: 406d d53b 782a 4dbe 688a 2ebd 64a1 95bd
000001d0: 78da 3e3d 14d3 8a3d 94ed 27be 00ba 53bc
000001e0: 9e12 5d3e 748b 1dbe 08e3 723d 5ad6 5bbe
000001f0: 00a0 dd39 ded9 09be 480b 25be 0e2f 723e
00000200: f470 ed3d fa47 683e e69f 533e de8f 25be
00000210: c040 de3b 3c17 cd3d 6835 203d 50e4 b13c
00000220: 74b2 653e 68ee b4bd 18c9 31bd d6c7 743e
00000230: 56f3 483e 4a95 28be 5038 73bd a8e5 d13d
00000240: cc6f 0f3e 0cd8 3abe 90e9 4a3e 7c98 fcbd
00000250: 50f4 0fbe aa1a 1ebe 208a e33d f8ab be3d
00000260: c03a fa3d 2c15 b43d 0045 f73d 4897 0cbe
00000270: 4491 5f3e 901c db3c f023 74bd 8647 333e
00000280: 162c 4f3e 3e05 09be 00fa 593c 7867 49be
00000290: 8846 163e 4836 3d3e 7072 acbc 80d1 903b
000002a0: e058 273c 3e7b 00be 6c26 6a3e 20d2 5ebe
000002b0: 3ce1 44be 5aed 4abe e05f d0bc fe19 4c3e
000002c0: 2232 04be 0058 f8bd ccbb 5c3e 04ed 53be
000002d0: 907c e9bd 70c8 613e 76f9 153e a08e d73c
000002e0: 146a 993d 70b2 823c 8cae 2abe 1c9c b7bd
000002f0: 3cf4 55be 7092 e5bc 706c 6c3e 8067 92bc
00000300: 6e0b 3e3e d26a 543e f4d1 ea3d 5c51 15be
00000310: fcb0 c53d 70e2 8c3d 7086 c9bc c477 d43d
00000320: 1462 67be 1ccc 833d 2619 0c3e f010 18bd
00000330: 34b7 7b3e 6400 fabd f651 0bbe 80a2 8b3b
00000340: e023 1dbc f884 f63d 64b1 fbbd 780a 5dbe
00000350: a4b5 f63d 6c32 643e b0ff 05be 3078 9abd
00000360: 9afd 1abe 4008 943c 64af bd3d acf8 ac3d
00000370: 9a7e 11be 9870 37be 3023 4c3e 3005 0f3e
00000380: 623f 123e 28b2 ab3d 328c 373e d021 7a3e
00000390: 0099 813d 709f 013e fc1e 8ebd fc9a 49be
000003a0: 34ad 27be 8e80 05be c856 323e 9894 49bd
000003b0: 7a6d 76be 78b5 93bd 587b b2bd b8c9 4e3e
000003c0: 18bd 1fbe a0a4 c33c d0e9 01be 3874 e63d
000003d0: f018 f13d 5ae5 56be 88d1 723d a4c2 a23d
000003e0: 8685 3f3e d823 043d ac53 c83d a090 d83d
000003f0: d6bf 293e 4855 05be 78c7 16bd b6e4 37be
-0.0133084655 -0.07709348 -0.030569345 0.023791611 -0.036022663 0.20229447 -0.014520973 -0.17404544
-0.106699646 0.003120631 -0.20294163 0.14030707 -0.061195284 -0.028217167 -0.106547296 -0.20240211
-0.085656196 -0.22563422 -0.03384024 0.20087984 -0.15920925 0.2151646 -0.16589344 -0.24499094
0.1468741 -0.18923569 0.17684644 -0.05488649 0.08538592 0.07095316 0.124201566 -0.08035639
0.08204532 -0.19583398 0.14592913 0.23175561 0.033168405 -0.03307864 -0.029540777 -0.085241675
0.11627084 0.19337279 0.11970219 0.23948127 0.13357478 -0.034248263 -0.027202755 -0.18742317
0.092891335 0.08487272 -8.422136e-05 -0.14046514 0.17648974 -0.1880275 0.13766217 0.097655416
-0.09867811 -0.2410383 0.0052692294 -0.08687985 0.10222316 0.1323883 -0.15972853 -0.1337668
-0.22903568 0.14866805 0.07169244 -0.028993636 -0.08514047 -0.16663828 0.01194796 -0.08024731
-0.22692004 -0.03082946 -0.11927098 0.19120058 -0.0994533 -0.061854303 -0.068603605 0.0003706813
0.182717 0.23486829 0.062362194 -0.24792817 0.12302184 -0.18497184 0.04386288 0.21637702
-0.19493294 0.10941762 0.01283586 -0.14874026 0.16255257 0.12357628 -0.08495444 -0.122487366
-0.13537881 0.19075161 0.21679845 -0.21200448 0.06448659 0.19162583 0.19328028 -0.20713988
-0.009834588 -0.13610223 -0.23120052 0.01804471 0.24913812 0.19702521 0.18480313 0.055537015
0.0065132678 -0.20035732 -0.042612463 -0.073061734 0.046595067 0.06778541 -0.16399223 -0.012922764
0.21589133 -0.15385228 0.059298545 -0.21468487 0.00042271614 -0.13462016 -0.16117585 0.23650762
0.1159381 0.22683707 0.20666465 -0.16168162 0.006782621 0.10014197 0.039113432 0.021715313
0.22431356 -0.08834535 -0.04340467 0.23904356 0.19624075 -0.164632 -0.059379876 0.102488816
0.14007491 -0.18246478 0.1981566 -0.123337716 -0.14058042 -0.15439859 0.1111033 0.09310144
0.12218237 0.08793101 0.120737076 -0.13729584 0.21832758 0.026747018 -0.059604585 0.17507753
0.20231661 -0.13380906 0.013304234 -0.19668376 0.14675343 0.18477738 -0.021050662 0.0044195056
0.010214061 -0.12547013 0.2286622 -0.21759844 -0.19226545 -0.19817105 -0.025436342 0.1993179
-0.12909749 -0.1212616 0.21556014 -0.20695883 -0.114007115 0.22049117 0.14645943 0.026313126
0.07490936 0.015954226 -0.16668147 -0.089653224 -0.2089395 -0.028023928 0.2308824 -0.017871618
0.18559048 0.20743874 0.11465827 -0.14581817 0.09652898 0.06879127 -0.024600238 0.10374406
-0.22596008 0.06435415 0.13681468 -0.037125528 0.24581605 -0.12207106 -0.13605484 0.004261315
-0.009591073 0.120370805 -0.12289694 -0.21586025 0.12046364 0.2228486 -0.13085818 -0.07542455
-0.15135804 0.01807034 0.09261969 0.08445868 -0.14208451 -0.17914045 0.19935298 0.13966823
0.14281991 0.0838359 0.17924574 0.24426961 0.063280106 0.12658477 -0.069395036 -0.19688028
-0.16374665 -0.13037321 0.17415917 -0.049213976 -0.240652 -0.07212347 -0.08714932 0.20194137
-0.15599477 0.02388221 -0.12686849 0.11252636 0.117723346 -0.20985928 0.059281856 0.07947281
0.18703279 0.032260746 0.09781584 0.1057446 0.16577086 -0.13020813 -0.036811322 -0.1795834

recommender_model.net.trm_encoder.layer.1.feed_forward.dense_2.bias f4 [16]
00000000: f050 02bd 4640 2bbe 30cd 67bd 2062 323d
00000010: 6aa6 773e ca5b 4a3e 2cac 45be e062 b33c
00000020: 5a3c 4d3e 086e f63d 8c35 663e 7e51 10be
00000030: 005d 15bc 9836 893d b0e2 9fbc 786b 7bbe
-0.03181547 -0.16723737 -0.056592166 0.04355061 0.24184576 0.19761577 -0.1930396 0.021897733
0.20042554 0.120327055 0.22481364 -0.14093587 -0.009116411 0.06699866 -0.019517273 -0.24552715

recommender_model.net.trm_encoder.layer.1.feed_forward.LayerNorm.weight f4 [16]
00000000: 80e1 d33c 86d0 0c3e 4c63 78be 1c8a 2cbe
00000010: 242f 6c3e a054 15be 48b8 403d 9a55 00be
00000020: e031 eabd 8055 54bb e040 2cbc 0ca6 16be
00000030: 9cf3 933d 80ed e33d 68e6 583e ee48 40be
0.025864363 0.1375142 -0.24256629 -0.1684956 0.23064858 -0.14583063 0.047050744 -0.12532654
-0.11435294 -0.0032399595 -0.010513514 -0.1471178 0.07224199 0.11129284 0.21181643 -0.1877782

recommender_model.net.trm_encoder.layer.1.feed_forward.LayerNorm.bias f4 [16]
00000000: 304b 9ebc 067c 75be 0032 8e3d 0070 bcbc
00000010: f4ef 46be 420c 683e f03b 753d 9a2f 053e
00000020: 9038 bd3c c8b5 193d ba30 04be 103b bcbc
00000030: 241a a03d 50c4 d5bc d678 30be 6c98 9e3d
-0.019322962 -0.23973092 0.069431305 -0.023002625 -0.19427472 0.22660926 0.059871614 0.1300644
0.02309826 0.037526876 -0.12909213 -0.022977382 0.07817486 -0.026094586 -0.17233595 0.07743916

recommender_model.net.LayerNorm.weight f4 [16]
00000000: 9e57 45be 1023 a1bd c0a2 cfbb c065 f03c
00000010: d80c b8bd 307a 31bd ecb7 63be 601b b0bd
00000020: 1af3 5dbe e673 723e 1000 813d 4864 3e3d
00000030: 4a7a 5c3e 16cd 173e 02f3 0fbe 5ca7 903d
-0.19271705 -0.07868016 -0.00633654 0.029345393 -0.08986825 -0.043329418 -0.2223813 -0.08598971
-0.21674767 0.23677024 0.0629884 0.046482354 0.21531025 0.14824328 -0.14057544 0.07063171

recommender_model.net.LayerNorm.bias f4 [16]
00000000: 348a 06be 408e 0f3d 7453 afbd b0d1 963c
00000010: 92c8 203e 48a0 5cbd b8f2 123e 9423 84bd
00000020: cce2 7a3e 202f 5e3e 300e 813c f4f4 e5bd
00000030: 92da 703e f4a1 8c3d a8a5 f8bd b09a a9bd
-0.13138658 0.03504777 -0.08560839 0.018410534 0.15701512 -0.053863794 0.14350402 -0.064520985
0.24500579 0.21697664 0.015753835 -0.11228362 0.23520878 0.068668276 -0.121409714 -0.082814574

onnx::MatMul_376 f4 [16, 16]
00000000: 80b5 a5bd fcb1 08be 52a7 303e 24d1 f4bd
00000010: bcbf 9c3d 7cab 383e 9812 3f3d 6283 563e
00000020: 9029 973c d4d8 56be 386b 86bd 8489 1cbe
00000030: 6858 2f3e 82ee 6fbe 38b5 bd3d 0cbb 793e
00000040: 00be d9bc 6e67 2bbe 9e70 093e 4e94 18be
00000050: 041b 0abe 6037 f9bd 0055 5cbb 22be 6fbe
00000060: 8885 51be 783d 423d 6089 13be 0649 763e
00000070: 3466 86bd 3e96 4b3e 1c89 81bd 06c4 143e
00000080: c017 27bd 20cb 383e 60f5 1c3e 28b9 61be
00000090: f4ed 133e 5879 4a3e f68b 07be 6087 fcbd
000000a0: f41d 7b3e 94ae 8a3d 6ab4 26be 9013 23bd
000000b0: 305c eabc 101f b2bc c8f9 71bd 2676 5bbe
000000c0: a015 b13d 30a7 71bd c05e 543d 2a12 073e
000000d0: 003c d7ba 0e57 07be 82f2 0fbe bc2c dbbd
000000e0: 10bf fb3c 90ee 1fbe 5878 64be 0adc 5cbe
000000f0: d013 723e 385a 67be befd 653e 18cd 7a3d
00000100: d073 e8bc 1c80 bfbd 20b3 91bd 6c18 25be
00000110: 86da 5b3e 9246 66be ecbb 60be be3c 2fbe
00000120: b815 733e e0ad 883d 0027 353e b8f7 173d
00000130: bc9c e9bd 90db 5a3e 806d 0b3e 6267 03be
00000140: 824f 3c3e a8c7 403e 70d7 ecbc d8e2 5ebe
00000150: f02c fabd e4b3 543e 5eb5 61be 7014 9dbd
00000160: 125e 4f3e b068 04bd 8238 29be 8ce5 06be
00000170: 769f 38be 60a5 af3c c878 2a3e ae39 3f3e
00000180: e0ba 49bc 966d 3d3e 8877 d83d 6c15 e93d
00000190: de9e 3abe 3c3d a03d 164d 7e3e a29e 6dbe
000001a0: 800b 42bb 28c3 743e 1438 1cbe 40c9 9a3c
000001b0: e858 cfbd 16b4 0ebe 58bb 5a3e a45a f5bd
000001c0: ae50 713e c028 72bc 64c6 a63d 8062 fbbc
000001d0: 60ed 6cbd 50b5 6a3e c4aa 703e 3e03 00be
000001e0: 5090 cc3d 90bf abbd 5ec1 133e d0bc 9f3d
000001f0: c024 e13b 844b 51be 0ceb 08be 9483 173e
00000200: cccd 4d3e c800 583e f241 183e bc57 bebd
00000210: 5804 c93d eeaf 7bbe 2c7f e13d c809 5cbe
00000220: 2074 953c 6678 16be 8226 213e 58d0 d93d
00000230: 0095 003b 8cf9 ba3d f4fb edbd 80cb d63d
00000240: 1009 6b3d 8058 29bb b8f4 dfbd e2af 363e
00000250: 9871 debd 8017 ef3c ec92 ab3d 80b0 383e
00000260: 3e3c 773e 80af b83d a290 743e b61c 2e3e
00000270: 20b5 1dbc 1890 023e 5073 533e d0f4 1a3d
00000280: 109a adbd 0885 acbd 7607 443e 76cf 74be
00000290: a0df 06bc 2eb5 5d3e f4d9 6f3e a00e 3e3d
000002a0: 061a 013e ceae 2fbe 3c8d 35be 8052 383c
000002b0: fec3 37be 4cd0 423e 14c1 b33d ba8f 07be
000002c0: 682c 7abe e819 c3bd d4d5 9dbd 9422 483e
000002d0: c8bb 423e 0077 62be 8002 2a3d a068 46bc
000002e0: 0050 2dbb 588e 8bbd 50a2 71bd 1cd9 7a3e
000002f0: ea87 4ebe 80e5 093c 5c2a f93d 04b7 823d
00000300: 0cc8 61be a4c1 f73d 8605 66be 50f0 a2bd
00000310: 6a6e 42be 56fb 48be 3216 3f3e 5c30 f93d
00000320: a8f6 da3d 7a92 00be 00e6 e63b f896 e23d
00000330: 70cf 9cbd 88b8 223e 4440 acbd 9c74 96bd
00000340: e6db 173e 10d7 a43d 06a2 1bbe 000f 7e3b
00000350: 3425 3ebe 02df 663e 1e1b 4a3e c0f9 47be
00000360: 98cf 64be 5cf6 7dbe 4818 213d b0f7 463e
00000370: e0f6 f73d c0c9 f83d b0d4 e0bd fec4 263e
00000380: 7046 d6bc f42d 2bbe 60ed 743c f8da 9abd
00000390: 3ad7 3fbe 1693 153e 505b cebc 3246 65be
000003a0: 0647 253e f465 19be 1287 72be 30e4 b5bd
000003b0: ce78 1bbe 9819 103e 4a4b 163e 820d 223e
000003c0: 58df c9bd 48e9 803d 4cab c1bd f208 78be
000003d0: 2290 013e 12af 7b3e 6430 19be 309f 92bd
000003e0: 1ca0 4abe 74f8 673e 7831 da3d 60ea 6ebc
000003f0: 4ca4 24be c4fb a6bd 1081 a43d 867d 3cbe
-0.08091259 -0.13349146 0.17251328 -0.11953953 0.07653758 0.18034166 0.04664859 0.20948556
0.018452436 -0.20981151 -0.06563419 -0.15286833 0.17123568 -0.23430827 0.0926308 0.24387759
-0.026579857 -0.16738674 0.13421866 -0.14900324 -0.13486868 -0.12168765 -0.003362 -0.23412374
-0.20461094 0.047421902 -0.14407873 0.24051294 -0.065624624 0.19881532 -0.0632498 0.14527902
-0.040794134 0.18046236 0.15327978 -0.22043288 0.1444624 0.19772851 -0.13236985 -0.12330508
0.24523145 0.067715794 -0.1627976 -0.039813578 -0.028608412 -0.021743327 -0.0590761 -0.21431789
0.08646703 -0.058997333 0.051848173 0.13190523 -0.001642108 -0.13216802 -0.14057353 -0.10701892
0.030730754 -0.15618348 -0.22311532 -0.21568313 0.2364037 -0.2259301 0.22460076 0.06123075
-0.028375536 -0.09350607 -0.071142435 -0.16122597 0.21470079 -0.22487858 -0.21946687 -0.17113015
0.23738754 0.06673789 0.17690659 0.037101477 -0.11406848 0.21372819 0.1361599 -0.12832406
0.18389705 0.18826163 -0.028911322 -0.21766222 -0.122156024 0.20771748 -0.22041842 -0.07669914
0.20250729 -0.0323264 -0.16525462 -0.13173503 -0.1802958 0.021441162 0.16647637 0.18674347
-0.012312621 0.18498835 0.10569674 0.11381039 -0.18224666 0.078241795 0.24834093 -0.23205045
-0.0029608905 0.23902571 -0.15255767 0.018894792 -0.101243794 -0.13935885 0.21360528 -0.11980179
0.23565933 -0.014780223 0.08143309 -0.030686617 -0.057843566 0.22920728 0.23502642 -0.12501237
0.09988463 -0.08386147 0.14429232 0.07799685 0.006870836 -0.20438963 -0.13370913 0.14796287
0.20098037 0.21094048 0.14868906 -0.09294078 0.09815282 -0.2457883 0.11010584 -0.21488106
0.01824385 -0.14694366 0.15737346 0.106354415 0.001962006 0.091296285 -0.11620322 0.10488033
0.05738169 -0.0025840104 -0.10935348 0.17840531 -0.1086151 0.02918601 0.083776325 0.1803608
0.24144074 0.09017849 0.23883298 0.1700314 -0.009625703 0.1275028 0.20649457 0.037831128
-0.08476651 -0.08423811 0.19143471 -0.23907265 -0.008232027 0.21651146 0.23422986 0.046400666
0.12607583 -0.17156526 -0.17729658 0.011250138 -0.17945859 0.19024771 0.08777061 -0.13238421
-0.24431002 -0.095264256 -0.077068 0.1954444 0.19016945 -0.22115707 0.04150629 -0.0121099055
-0.0026445389 -0.06814259 -0.058992684 0.24496883 -0.20169035 0.0084165335 0.121662825 0.06382564
-0.22048968 0.12097481 -0.22463045 -0.07955992 -0.18987432 -0.19627127 0.1866081 0.12167427
0.10691577 -0.12555876 0.007046461 0.11063951 -0.07656753 0.15890706 -0.08410695 -0.0734646
0.14829978 0.080488324 -0.15198526 0.0038766265 -0.1856888 0.22546008 0.19736907 -0.19528866
-0.22344816 -0.2480101 0.039329797 0.19430423 0.121076345 0.12147856 -0.10978067 0.16286084
-0.026156634 -0.16716748 0.014949173 -0.07561296 -0.18734446 0.1460689 -0.025190026 -0.22390059
0.16140375 -0.14980298 -0.23684338 -0.08881414 -0.15182802 0.14072263 0.14677158 0.15825465
-0.098570526 0.06294495 -0.094565004 -0.24222162 0.12652639 0.24578503 -0.14959866 -0.07159269
-0.1978764 0.22653371 0.10653967 -0.014582247 -0.160783 -0.08153489 0.08032429 -0.18407258

onnx::MatMul_377 f4 [16, 16]
00000000: 26c6 473e ea67 18be 607f 513e 28b6 9d3d
00000010: 46a6 4cbe d44c 903d 2ea4 003e e245 113e
00000020: 8000 aa3d c8b4 6a3d 6030 8dbc 26d0 22be
00000030: 28fd 593e e067 efbc 3083 7d3e 8c30 413e
00000040: e65a 6ebe fe60 4fbe 5abc 56be 78d4 d2bd
00000050: a8cb 22be 7a74 31be aaa6 6c3e 9872 5abe
00000060: 0e17 103e 28b5 b23d 60db 7cbd 985b 73bd
00000070: 84b5 dabd c023 973c 0015 3a3c f88e f83d
00000080: 3439 883d 783a 0dbe 0c3c f73d b41f e23d
00000090: 3e01 2e3e ce95 613e e642 473e 545f 0fbe
000000a0: 208b 6c3c f8c9 ad3d ca91 643e 546f 223e
000000b0: 8056 03bc 6457 6dbe d45d 70be 26d5 7dbe
000000c0: f221 63be 56eb 14be b0e2 903d 00e4 943a
000000d0: 1e8a 2f3e 40d7 25be dce4 dabd a03d 543c
000000e0: 8438 363e a658 01be b04a 3f3d 547b 9abd
000000f0: c09c f43b 78b2 65be f053 7c3e 789b 7fbe
00000100: 003f acba 4296 48be d223 3abe b2ce 4b3e
00000110: 2a17 0fbe 2ce0 f3bd 48a7 f2bd 3094 543e
00000120: c8fd 723e e026 06bc 9860 a23d c839 033e
00000130: 28fb b8bd c094 ca3b 0461 2a3e c0eb 6bbd
00000140: 2a2b 3a3e 4449 b6bd 5063 b1bd ecbf 79be
00000150: a0f6 313e 003a e2bc a818 e4bd c0e9 9f3d
00000160: 74b1 c7bd f0e2 a7bd 38f3 c8bd d20b 7ebe
00000170: 5e82 6c3e 8854 dfbd 002d a9bd 6e3b 093e
00000180: c4f1 453e f081 90bd 003c f03a 5663 67be
00000190: 509b 5a3e a611 093e a027 46be 5eb8 4c3e
000001a0: 202f aabc 00f6 3dba 2c52 5c3e ae6b 603e
000001b0: 7013 eebd a027 193e d0c2 f9bd d431 26be
000001c0: c45f c43d 6600 173e 76e4 6c3e 5c86 73be
000001d0: 1695 3c3e 18f0 0fbe b42d 5abe e01e d43d
000001e0: 4070 ce3b 202c 483e 36c3 373e e85f 9ebd
000001f0: 280b 0cbd 700d 71be a024 3f3e 3c94 42be
00000200: a695 023e c4aa 4e3e 3808 0ebe 6842 2fbd
00000210: 26f8 26be 7c67 98bd be0d 073e fec3 78be
00000220: 6c53 f6bd c8db 3c3e 4439 f03d 24c6 2abe
00000230: 2ec3 69be 9aa8 283e ea88 0fbe 6663 333e
00000240: a6eb 66be 5602 71be 74c0 08be 54ea dfbd
00000250: c0ae 9d3c 80ad 27bc 608e dd3c 1ed1 5fbe
00000260: c00a 143d 0c48 11be a0d0 373d 6615 52be
00000270: f236 2cbe 58cb 75be 1ce5 e9bd f4ab 9abd
00000280: 644b 513e a4f7 0c3e 721d 513e 5c79 8cbd
00000290: b003 cdbd f4fe a2bd 80a8 aabd 406b e8bc
000002a0: 605c 3b3e ac4c 283e 3c34 6b3e aa58 00be
000002b0: 0005 95bd a2af 67be b071 073e 68b0 9b3d
000002c0: 6c39 2b3e 2041 a33d 4ce8 b6bd c2db 513e
000002d0: 1ae1 7dbe 80a5 773e 206e d9bc 7e22 283e
000002e0: 323f 6ebe e8c7 cfbd 306d 18be d497 29be
000002f0: d8fc 7b3d 4cf9 9dbd 7858 30be f8ef 5f3e
00000300: 806c e73c 4c4b fabd 6804 41bd 16b8 3cbe
00000310: e8df 6b3e e83a 0c3d 441c b0bd 309c cebd
00000320: 64c8 44be f65b 3ebe 0e78 02be 1098 e93c
00000330: 9c67 453e 3472 ef3d 70a4 abbc 14a6 cfbd
00000340: 2248 08be 9830 7cbd 7a8b 383e d420 cfbd
00000350: b66b 2f3e a0ce 52be 9e5e 543e 188d 2b3d
00000360: 9c52 95bd ba11 543e 6460 a63d a216 73be
00000370: 58be f23d a295 10be 5473 39be 8014 6a3b
00000380: b0de 033e 3606 16be f009 be3d 447d 233e
00000390: 9e32 46be 44f7 753e 80d6 b6bc 3abb 7cbe
000003a0: f441 a1bd f064 103e ae88 0bbe c850 73be
000003b0: 08bd 823d 9274 4fbe 2c5a 08be 7820 70be
000003c0: 02f1 7ebe 00cd 803b 88af 1cbe 808f a53d
000003d0: 403c 38be 007f 173b 2c85 8b3d 4cd6 d03d
000003e0: 76dd 333e f831 2bbd 18e9 acbd bc4c df3d
000003f0: 5a81 2abe 6461 bcbd 8048 94bd 7865 7abd
0.19509181 -0.1488339 0.20458746 0.07700759 -0.19985303 0.07045904 0.1256263 0.14186814
0.083008766 0.057301313 -0.017234981 -0.15899715 0.21287978 -0.029224336 0.24757075 0.18866175
-0.23276863 -0.20251843 -0.20970288 -0.102944314 -0.15898001 -0.17329589 0.23110452 -0.21332777
0.14071295 0.08725959 -0.06173265 -0.059413522 -0.106791526 0.018449664 0.011357546 0.12136644
0.06651536 -0.13791835 0.12072 0.11041203 0.16992661 0.22029802 0.19459113 -0.14001209
0.014437467 0.08485788 0.22321239 0.15862781 -0.008016229 -0.23177868 -0.23473293 -0.24788341
-0.22180918 -0.14542899 0.07074487 0.0011359453 0.17142531 -0.16195393 -0.10688183 0.012954146
0.17794997 -0.12631473 0.046702087 -0.07543054 0.007464975 -0.22431362 0.24641395 -0.2496165
-0.0013141334 -0.19588569 -0.18177727 0.19903067 -0.1397368 -0.11907992 -0.118483126 0.20759654
0.23729622 -0.008187979 0.0792858 0.1281501 -0.09032279 0.006182283 0.16638571 -0.057597876
0.18180528 -0.08900693 -0.086615205 -0.24389619 0.17379236 -0.027615547 -0.11137515 0.07808256
-0.097506434 -0.08197582 -0.09812015 -0.24809197 0.23096606 -0.10904795 -0.08260536 0.13401577
0.19330508 -0.070560336 0.0018328428 -0.22596487 0.2134831 0.13385639 -0.19351053 0.19992206
-0.020774424 -0.00072464347 0.21515721 0.21916077 -0.11624801 0.14956522 -0.12195361 -0.16229945
0.09588578 0.14746246 0.23134026 -0.23781723 0.18416247 -0.14056432 -0.21306497 0.103574514
0.0063000023 0.19548082 0.17945561 -0.077331364 -0.034190327 -0.23540282 0.18666315 -0.1900186
0.12752399 0.2018233 -0.13870323 -0.04278794 -0.16305599 -0.07441613 0.13188836 -0.24293515
-0.1202763 0.18443215 0.117296726 -0.16677147 -0.22828361 0.16470566 -0.14017072 0.17518386
-0.2255083 -0.23536047 -0.13354665 -0.109333664 0.019248366 -0.010234237 0.027045429 -0.21857116
0.036143064 -0.1418764 0.044876695 -0.20515975 -0.16817835 -0.2400335 -0.11420652 -0.07552329
0.20438915 0.13766342 0.20421389 -0.06859085 -0.10010469 -0.07958785 -0.0833292 -0.028371453
0.18296957 0.16435498 0.22969145 -0.12533823 -0.07276344 -0.22625592 0.13226962 0.07602006
0.16721123 0.07971406 -0.08931026 0.20493987 -0.247929 0.24184227 -0.02654177 0.16419408
-0.23266295 -0.10145551 -0.14885402 -0.16561824 0.061520427 -0.07713565 -0.17221248 0.21868885
0.028249979 -0.12221393 -0.047123343 -0.18429598 0.23034632 0.034235865 -0.08599141 -0.10088384
-0.19217068 -0.18589768 -0.1274111 0.028514892 0.19277805 0.116917044 -0.020952433 -0.10139099
-0.13308766 -0.06156978 0.18021956 -0.10113683 0.17130932 -0.20586634 0.20739219 0.041882604
-0.07291147 0.20709887 0.08123854 -0.23739102 0.118527114 -0.1411958 -0.181104 0.0035717785
0.12877917 -0.14650807 0.09279239 0.15965754 -0.19355246 0.24020106 -0.022319078 -0.24680796
-0.07873908 0.14101005 -0.13626358 -0.23761284 0.06383711 -0.20259312 -0.13315648 -0.23449886
-0.24896625 0.003930688 -0.15301335 0.08084011 -0.17991734 0.002311647 0.0681251 0.10197124
0.1756495 -0.0417957 -0.084428966 0.10903308 -0.16650906 -0.09198263 -0.07240391 -0.061131924
