rust/model_store/core_bolcom_c10000_t50_onnx.pth (onnx, 759472 bytes, 37 tensors)

item_embedding.weight f4 [10000, 16]
000000 20 ac 11 3d 80 84 10 3b 80 c0 88 bd b4 a8 3c be
       0.03556454 0.0022051632 -0.066773415 -0.1842373
000010 3c 8e 2b be 32 f0 53 3e fc c2 c4 bd 78 f0 7b 3e
       -0.16753477 0.20697096 -0.09607503 0.2460345
000020 c6 5a 7c be 62 05 4a be 28 3f 3b bd 64 22 ba 3d
       -0.24644002 -0.19728616 -0.045714527 0.09088591
000030 70 b7 e8 3c f0 a8 4e 3e 3c 80 e8 bd c6 05 68 3e
       0.028407782 0.20181632 -0.11352584 0.22658452
000040 a0 58 e9 3c 7a 4d 0d be 00 f6 be ba 10 58 a5 bd
       0.028484643 -0.13799086 -0.0014569163 -0.08073437
000050 0a 3a 73 be 4c d4 fc 3d 78 59 71 be 6a e7 01 3e
       -0.23752609 0.1234518 -0.23569286 0.12685934
000060 50 f7 58 bd b8 60 51 bd c0 7a 6d 3e 00 bd c4 bb
       -0.05297023 -0.05111763 0.23191357 -0.006003976
000070 20 1c a1 3c 60 1f 08 3c d8 56 28 3e 34 46 69 3e
       0.019666731 0.008308262 0.16439378 0.22780687
000080 72 e7 48 be 38 10 f4 3d 5c 9c 1d be c0 0f 01 3d
       -0.1961954 0.11917156 -0.15391678 0.03150916
000090 30 72 7d 3e 00 b0 6a bc 7c a7 9e bd a8 39 08 be
       0.2475059 -0.014324188 -0.07746789 -0.13303244
0000a0 76 64 1f be d0 df 39 3d 8e 7b 15 be e0 24 08 3c
       -0.15565667 0.04537946 -0.14597914 0.008309573
0000b0 1a 52 6e be 10 c7 b1 bd 38 56 8e 3d 40 08 61 bc
       -0.23273507 -0.08680546 0.06950039 -0.013734877
0000c0 a8 42 e8 3d a8 4b 81 bd ca fd 0e 3e cc 4a a2 bd
       0.11340839 -0.063132584 0.13964 -0.079244226
0000d0 3c 86 20 3e 18 ae 61 bd 10 d6 ee bc e0 31 af 3d
       0.15676206 -0.05509767 -0.029154807 0.08554435
0000e0 48 1d 39 3d e0 23 e2 bc b6 6e 14 3e 5c 05 05 be
       0.04519394 -0.027604997 0.14495358 -0.12990326
0000f0 b8 9e 47 3d 1c 58 14 be 80 66 19 bb 8e 2d 2f be
       0.04873535 -0.14486736 -0.0023407042 -0.17107221
000100 2c 67 cc 3d a0 50 83 3d 88 0e 1b 3e 9e a5 07 be
       0.09980616 0.064118624 0.15142262 -0.13246772
000110 64 56 46 be 5c f1 af bd d8 8d 4c 3d 40 a2 16 3c
       -0.19368893 -0.085909575 0.04993996 0.009193957
000120 e6 18 01 be 5c cc 27 3e 28 1b 6d be 38 8e 49 bd
       -0.12607154 0.1638655 -0.2315489 -0.049207896
000130 d0 f5 43 3e ec d0 d7 3d 4c d2 55 be ea 5d 78 be
       0.19136739 0.105378956 -0.20881003 -0.24254575
000140 50 3c 2b 3e 58 56 f7 3d ac b0 6b 3e cc 0b 58 be
       0.16722226 0.12077016 0.23016614 -0.2109825
000150 5c cb 4f be 60 e6 f7 3d 00 f5 bb bc de 87 1f 3e
       -0.20292419 0.121044874 -0.022943974 0.15579173
000160 16 ae 54 be 4e 2d 2c be 94 e6 42 3e 10 25 d7 3c
       -0.20769534 -0.16814157 0.19033271 0.02626279
000170 90 46 04 3d c0 44 b6 bc ce ec 1e 3e 64 d5 62 3e
       0.032293856 -0.02224958 0.15520021 0.22151715
000180 1c b5 d8 3d d0 e0 87 bd 4a d1 13 3e 72 95 76 be
       0.10581419 -0.066346765 0.14435306 -0.24080446
000190 48 83 dd bd 70 25 e4 bc a0 f1 80 bc 9c e5 2e be
       -0.108160555 -0.027849883 -0.015740216 -0.17079777
0001a0 4c a5 a5 bd e4 2f 55 be 38 e3 6f 3d f8 d6 0a 3e
       -0.080881685 -0.2081905 0.058566302 0.13558567
0001b0 28 28 3b bd 8c 62 a1 3d 76 3f 16 3e ca c4 68 3e
       -0.045692593 0.078801244 0.14672646 0.22731319
0001c0 4c 48 10 3e 06 c5 2e be 62 fc 66 3e 60 17 eb 3d
       0.14090079 -0.17067346 0.22557214 0.11479068
0001d0 c8 02 03 be 5c de e2 bd 68 66 7a 3e 30 f3 dc bc
       -0.1279403 -0.11077568 0.24453127 -0.02697143
0001e0 18 76 92 3d ee 0f 75 3e fa bf 7c 3e 52 39 1e 3e
       0.07151431 0.23931858 0.24682608 0.15451553
0001f0 e0 6d cc 3d f4 28 c8 3d ce 12 08 3e 50 b0 79 be
       0.099818945 0.09773436 0.13288423 -0.24383664
000200 f2 b5 46 3e a6 07 2a 3e b4 0e 60 be 82 26 2f 3e
       0.19405344 0.1660448 -0.21880609 0.17104533
000210 64 e3 06 3e dc a2 c8 3d 40 61 76 3d b8 c6 3c bd
       0.1317268 0.09796688 0.06015134 -0.04608795
000220 b8 a6 a6 3d a0 d8 cd bc 70 17 98 3c 22 44 34 3e
       0.08137268 -0.025127709 0.018565863 0.17604116
000230 08 6b 43 3d be 4a 2a be b0 32 9a 3c aa b3 5e 3e
       0.047709495 -0.16630074 0.018822998 0.21748224
000240 22 81 57 be 6a 11 75 3e 10 53 c1 bd 92 83 55 be
       -0.21045354 0.23932424 -0.09439671 -0.20850971
000250 40 ef f0 bb 98 0e 64 be 38 fe 60 be bc 09 11 be
       -0.0073527396 -0.22271192 -0.21971977 -0.1416387
000260 24 fb cc bd 8e 23 6c be e6 af 4b be 72 48 1d be
       -0.10008839 -0.23060438 -0.19891319 -0.15359667
000270 9e 08 3e 3e f8 b1 11 3e 00 7b 4f 3e 4e 98 75 be
       0.18557975 0.14228046 0.20261765 -0.23983881
000280 c4 29 e4 bd 68 08 c9 bd 88 82 48 bd a4 5c cf bd
       -0.11140779 -0.098160565 -0.04895261 -0.10125092
000290 90 a3 83 3d 70 d3 c5 bd 30 00 b2 3c ba 1c 11 be
       0.064276814 -0.09659469 0.021728605 -0.14171115
0002a0 fc dd 28 3e 54 9e 94 3d 0c 5b 16 be 6a 9b 77 3e
       0.1649093 0.07256761 -0.14683169 0.2418038
0002b0 c4 64 28 3e 3e ff 14 3e b8 1a 26 be c0 9f 33 bc
       0.16444689 0.14550492 -0.1622113 -0.01096338
0002c0 30 5e 2b 3d 30 ad 56 3d 34 d3 52 3e e0 ae e5 3c
       0.04183787 0.05241126 0.2058838 0.028037488
0002d0 1c 14 f9 bd d0 ec 3f 3e 16 68 32 3e e0 f2 09 3e
       -0.12162039 0.1874268 0.17422518 0.13471556
0002e0 9c ca 20 be ac 36 1f be ea f3 71 3e 4e c9 28 be
       -0.1570229 -0.155482 0.23628202 -0.16483042
0002f0 d8 36 00 3d 8c bf 5a 3e 38 da 06 be ea 56 6d be
       0.031302303 0.21362132 -0.13169181 -0.23177686
000300 44 2a 8f 3d d2 e1 19 3e 4c cf 3e 3e 5c fd 02 3e
       0.069904834 0.1502755 0.18633765 0.12791961
000310 6c 9d bb bd fe 3b 6b 3e c4 e2 f7 3d ca 16 7e be
       -0.09160885 0.22972104 0.12103799 -0.24813381
000320 38 60 d7 3d 8c 69 37 be 98 24 44 be 30 de a0 3c
       0.10516399 -0.17911357 -0.19154584 0.019637197
000330 ac 8e 16 3e dc 97 78 be bc c1 fb bd 68 8d d9 3d
       0.14702863 -0.2427668 -0.12292811 0.10622674
000340 d0 9f 77 3d 72 c7 57 be 5e 29 62 be 40 4b 78 bd
       0.060455143 -0.21072176 -0.22086093 -0.06061864
000350 c4 a6 bf 3d d0 59 85 bd 50 a9 b4 3d d8 ff 00 3e
       0.0935798 -0.06511271 0.08821356 0.12597597
000360 00 09 85 3a 50 e1 9f bc c4 a8 2c 3e 60 ad 89 3c
       0.0010149777 -0.019516617 0.16861254 0.016806304
000370 2c 82 73 3e 18 63 f4 3d 40 8b 67 be 52 0e 31 3e
       0.23780125 0.11932963 -0.22611713 0.17290619
000380 50 97 4a 3d 90 90 e9 bd 34 79 07 3e d0 f2 25 3d
       0.04946071 -0.11404526 0.13229829 0.040514767
000390 74 95 5d be f4 80 d2 bd 0e 48 76 3e 40 4a c4 3c
       -0.21639043 -0.10278502 0.24050924 0.023961186
0003a0 38 76 7a 3e 80 c5 83 bc f0 9a 4a bd 60 6b 81 bd
       0.2445916 -0.016085386 -0.049464166 -0.06319308
0003b0 00 73 ed 3c 7c 52 b5 bd 40 bb 90 3c e6 cd 43 be
       0.0289855 -0.08853623 0.017667413 -0.19121513
0003c0 c0 3b 02 3e 30 8d 6d 3d 52 c7 2c 3e 68 92 7e be
       0.12718105 0.057995975 0.1687291 -0.24860537
0003d0 38 1a 80 bd ac 46 f5 bd 60 8d 3e 3c ac 12 3a be
       -0.06255001 -0.1197637 0.011630386 -0.18171185
0003e0 28 a4 81 bd da fa 7b 3e 02 10 2f be 04 04 47 3e
       -0.063301384 0.24607411 -0.1709595 0.19435126
0003f0 88 fb 7a 3e 26 a7 33 be 08 5f 47 3e c0 20 28 be
       0.24510014 -0.17544231 0.19469845 -0.16418743

net.position_embedding.weight f4 [50, 16]
000000 b8 fb ed 3d 8e a0 19 3e 54 72 9d bd f8 aa 7b 3e
       0.11620277 0.15002653 -0.07687822 0.24576938
000010 ec 54 27 3e 00 7d b4 bd 0a 7a 46 3e b0 3b b8 3d
       0.16340989 -0.08812904 0.19382492 0.089957595
000020 f4 4e d9 3d f6 08 55 3e ca d3 04 3e 40 59 41 3e
       0.10610762 0.208042 0.12971416 0.18881702
000030 90 d7 84 3d 94 a4 42 3e 20 c2 9b bd 36 fe 2c be
       0.06486428 0.19008094 -0.07605386 -0.16893849
000040 aa f9 13 3e 12 60 03 3e 7c 5d 39 be c2 9c 05 3e
       0.14450708 0.12829617 -0.18102068 0.1304808
000050 28 41 5c 3d 24 31 c8 bd 96 47 3c 3e b0 6e d2 bc
       0.053773075 -0.09774998 0.18386683 -0.025687546
000060 70 d4 ad 3d 74 fe 0b be ec 2e 8e bd 84 5f be bd
       0.08487785 -0.13671285 -0.069425434 -0.09295562
000070 1c 67 49 be 06 3f 25 3e fe 92 1b be 9c b1 65 be
       -0.1966824 0.16137323 -0.15192792 -0.22431034
000080 2e bd 3c 3e f0 eb 8a 3d d8 d8 57 3e c8 8a c1 bd
       0.18431541 0.06783283 0.21078813 -0.094502985
000090 9c 3e 3c be c0 a7 83 3c 10 bd a7 3d 1c d9 de bd
       -0.18383259 0.0160712 0.08190358 -0.10881254
0000a0 c8 01 6d 3d 5c fb c1 3d 50 c6 f1 bd 78 75 16 3d
       0.057863027 0.09471771 -0.11805403 0.03673312
0000b0 44 bd e1 3d 3c f2 70 3e 76 5e 37 3e 6a 11 0b 3e
       0.11022428 0.23529905 0.17907128 0.13580862
0000c0 ba 2f 73 3e 40 94 81 3b b8 12 23 3e 30 be b5 3c
       0.23748675 0.0039544404 0.1592511 0.022185415
0000d0 3c 1a 8c bd b2 df 09 be 80 a6 79 bb c4 a7 a3 3d
       -0.06840941 -0.13464239 -0.0038093626 0.07990983
0000e0 50 a4 6b 3e c8 f1 2b 3d c2 ae 6a be a0 3d a3 3d
       0.23011899 0.041978627 -0.22918227 0.079707384
0000f0 b0 4a 52 3e b4 3b e7 bd fa d8 7d 3e ee 42 54 be
       0.20536304 -0.11290684 0.24789801 -0.20728657
000100 00 c0 bd 3c 38 74 e6 bd e0 44 3a 3c 64 eb 05 be
       0.023162842 -0.11252636 0.01136896 -0.13078076
000110 c0 02 51 3d 70 4a c7 3d 70 6b 7d be 80 fe da 3d
       0.051028013 0.09730995 -0.24748015 0.10693073
000120 40 33 4d bd f8 9e 2c 3d 08 68 f0 3d 5c 48 5f be
       -0.050097704 0.042143792 0.117385924 -0.21804947
000130 c0 82 0c be 02 a6 1a be 5c fd 9d bd 30 9e 28 bd
       -0.13721752 -0.1510239 -0.0771434 -0.041166484
000140 48 86 55 3d f8 bc 35 be dc 84 ed bd a0 cd 7f be
       0.052130014 -0.17747867 -0.115976065 -0.24980783
000150 78 09 b5 3d 20 bf a7 3c 94 7a d0 3d a0 ad 62 3d
       0.08839697 0.020476878 0.1017963 0.055341363
000160 e0 31 65 bd c0 f7 9f bb 84 ae 57 3e 80 05 0a 3d
       -0.055955768 -0.004881829 0.21062666 0.03369665
000170 c0 e8 5f bd 20 ce 7e 3d 78 8c a4 3d b8 39 7a be
       -0.054665327 0.062208295 0.08034605 -0.2443608
000180 90 5e 1c 3e 90 a7 ae 3c 00 ae be bb 4a 56 28 3e
       0.15270448 0.021320134 -0.0058190823 0.16439167
000190 7c 2b 72 3e 60 fe 5e 3d a6 b7 7f 3e b8 e3 6e be
       0.236494 0.05444181 0.249724 -0.23329055
0001a0 40 a0 f7 bc 00 ea 03 3a 0c 4b b1 bd 50 f4 ba bc
       -0.03022778 0.0005032122 -0.08656892 -0.022821575
0001b0 d4 95 73 be a8 cb ca bd f8 78 03 bd f4 c1 83 3d
       -0.23787624 -0.099021256 -0.032097787 0.06433478
0001c0 e8 24 05 bd 56 39 33 be 12 2e 21 3e 8c f6 e4 3d
       -0.0325059 -0.1750234 0.1574023 0.111798376
0001d0 ec a9 b1 bd bc aa 72 3e 2c d7 38 be 24 0b 82 3d
       -0.08674988 0.23697942 -0.18050832 0.06349781
0001e0 5c fe 27 3e b0 ba 02 bd c8 af 74 bd 44 bd 5d 3e
       0.16405624 -0.03191632 -0.05973795 0.2165423
0001f0 84 84 fc 3d 46 2d 63 3e e4 95 1f be c8 b6 c9 bd
       0.12329963 0.22185239 -0.15584522 -0.09849316
000200 f8 81 50 be 04 0e 4e 3e 8e e0 56 3e 04 d0 fd 3d
       -0.20362079 0.20122534 0.20984098 0.123931915
000210 40 87 95 3d a8 5a 1e be d2 a3 4b be cc 01 3f 3e
       0.073011875 -0.1546427 -0.19886711 0.18653029
000220 3a 74 7f be d0 40 ca bd 78 52 c9 bd f4 2e 87 bd
       -0.2494668 -0.09875643 -0.09830183 -0.066007525
000230 14 18 53 3e 1e 54 72 be c0 8a 8f 3c 00 5c 19 3e
       0.20614654 -0.236649 0.017522216 0.14976501
000240 b0 5c 74 bd a8 fe 1b 3d 60 5a 11 be 46 37 13 be
       -0.059658706 0.038084656 -0.14194632 -0.14376554
000250 90 bd ff bc 90 57 65 3d 3a 8d 6c be 90 a5 94 3d
       -0.03121832 0.05599171 -0.23100749 0.07258141
000260 a2 ff 66 be 88 0d 91 3d 80 16 41 bd 5c 3c e8 3d
       -0.22558454 0.07082659 -0.0471406 0.11339638
000270 08 d9 46 3e 22 08 56 be d4 1f e4 bd f0 b9 14 bd
       0.19418728 -0.2090154 -0.11138883 -0.036310136
000280 32 25 19 be ee 9d 6c 3e 40 9e b7 bd de d4 66 3e
       -0.14955595 0.2310712 -0.08965731 0.2254214
000290 ec c5 64 3e e2 4c 3b 3e 08 7e e3 bd 28 f2 ab bd
       0.22341126 0.18291047 -0.11108023 -0.08395797
0002a0 a0 ed 5c be e8 bf 26 bd e0 48 5b bc 96 b7 74 be
       -0.21575022 -0.04071036 -0.013384074 -0.23898157
0002b0 a8 fb 49 bd 08 a7 45 3e b8 b4 fa 3d dc 12 f9 3d
       -0.049312264 0.19301999 0.122415006 0.121618
0002c0 74 e0 8a bd 56 28 61 be dc be ab 3d 88 81 88 3d
       -0.06781092 -0.21988043 0.08386013 0.06665331
0002d0 1c 77 45 3e 60 eb d8 3c 98 cd ec bd a2 2a 73 be
       0.19283718 0.026479423 -0.115626514 -0.23746732
0002e0 98 64 17 3d dc 56 41 3e bc ce 5e 3e 00 2f 7f 3d
       0.036961168 0.1888079 0.2175855 0.062300682
0002f0 be 16 20 be 08 06 a1 bd 00 69 e7 3d 30 f4 3c be
       -0.15633675 -0.078624785 0.11299324 -0.18452525
000300 f0 27 c1 3c 44 06 61 3e 82 cf 3c 3e b8 56 6c 3e
       0.023578614 0.21975046 0.18438533 0.23079956
000310 b8 14 e5 3d c8 5d 00 bd d8 ae 54 bd 24 46 ba bd
       0.111855924 -0.031339437 -0.051924556 -0.090954095
000320 2a 71 61 3e a6 6e 05 3e 80 76 5b 3d be 27 53 3e
       0.22015825 0.1303049 0.053579807 0.20620629
000330 c2 89 7a be c0 49 97 3b 78 a1 05 3e d2 eb 40 be
       -0.24466613 0.004616946 0.13049877 -0.18839958
000340 8a 62 4d be e4 b8 f8 bd e8 f3 af 3d 2a 9d 50 be
       -0.20057121 -0.1214464 0.08591443 -0.20372453
000350 7c e5 a6 3d c0 5d 68 bc d8 86 2f 3e 7c ad 49 be
       0.081492394 -0.014182508 0.17141283 -0.19695085
000360 06 f7 66 3e ba e0 78 3e da 6c 55 3e a6 81 0b be
       0.2255517 0.24304476 0.20842305 -0.13623676
000370 d4 92 32 be 78 c3 a6 3d d4 81 65 3e 60 59 b3 bc
       -0.17438823 0.081427515 0.22412807 -0.021893203
000380 0e 68 68 be 2e 7a 1e be b8 1b 6b 3d b0 88 07 be
       -0.22695944 -0.15476295 0.05739948 -0.13235736
000390 d0 7f 64 3d 80 34 63 bd 04 29 7f 3e 50 62 f0 bd
       0.055785954 -0.05546999 0.2491799 -0.117375016
0003a0 40 0b 77 3c 66 89 32 be 96 d4 3a be c0 e3 e6 bd
       0.015078366 -0.17435226 -0.18245158 -0.112739086
0003b0 f6 5c 60 3e f2 e2 3b 3e e0 84 0b 3c 5a d8 43 be
       0.21910462 0.18348292 0.008515567 -0.191255
0003c0 60 d5 a0 3c 70 cf ff bc f0 29 4a be 58 95 d2 bd
       0.019632995 -0.031226844 -0.1974256 -0.10282391
0003d0 7c 65 6c be 3c 8e 69 be 5e 34 06 3e 00 5d 44 bd
       -0.23085588 -0.22808164 0.13105914 -0.047940254
0003e0 e2 21 09 be 60 ef 6d 3c 78 12 5d bd fe 0c 4d be
       -0.13391832 0.0145224035 -0.05397269 -0.20024487
0003f0 46 8e 00 3e 18 6e 4e be bc cf 7a 3e 90 75 09 be
       0.12554273 -0.20159185 0.24493307 -0.13423753

net.trm_encoder.layer.0.multi_head_attention.query.bias f4 [16]
000000 48 c8 30 be a8 11 12 3d 78 3f 67 3e f0 d0 f4 3c
       -0.17263901 0.03566137 0.22582805 0.029884785
000010 3c 05 ad bd e4 9a 95 bd 00 4c 4a bd a8 02 e1 3d
       -0.08448264 -0.07304934 -0.049388885 0.10986835
000020 9c 02 34 3e 90 1a 26 3d de 06 02 3e f4 69 94 3d
       0.1757912 0.040552676 0.12697932 0.072467715
000030 a0 0e 5e bd b0 f9 81 bd c0 47 0e bd 70 eb f8 bc
       -0.054213166 -0.06346452 -0.034736395 -0.030385703

net.trm_encoder.layer.0.multi_head_attention.key.bias f4 [16]
000000 22 bc 1e be ce 28 2b 3e d8 7a a8 bd ea 34 06 3e
       -0.15501454 0.16714785 -0.082265556 0.13106123
000010 b0 28 80 3d 40 60 c4 bb c2 67 0e 3e 3c 9e ca 3d
       0.062577605 -0.005992919 0.13906768 0.09893462
000020 54 a7 bb 3d 68 53 3e bd 94 34 11 3e 8e d1 43 3e
       0.09162775 -0.04646626 0.14180213 0.19122908
000030 2e 88 6a 3e fa 87 0b be fc 3b c6 bd dc b5 13 be
       0.22903511 -0.1362609 -0.0967941 -0.14424843

net.trm_encoder.layer.0.multi_head_attention.value.bias f4 [16]
000000 08 43 49 bd c2 34 04 3e 88 29 d2 bd 2c 41 a7 3d
       -0.04913619 0.1291075 -0.10261828 0.081667274
000010 24 c6 f9 3d 8e 3f 56 3e ac 5a ab 3d c0 1a eb bb
       0.121959955 0.20922682 0.08366904 -0.0071748197
000020 78 d4 11 3d 16 cd 00 be 9c 31 ea 3d 7c 53 52 be
       0.035603017 -0.12578234 0.114352435 -0.2053966
000030 28 80 6e 3d 80 19 e6 bd b0 6f c2 bc 8c fe d0 bd
       0.058227688 -0.112353325 -0.023734897 -0.10204801

net.trm_encoder.layer.0.multi_head_attention.dense.bias f4 [16]
000000 a8 a6 97 3d 60 0b 14 bd ae 38 51 3e 80 80 37 3d
       0.07404834 -0.03614366 0.20431778 0.04480028
000010 f8 2a 65 be c0 2a f0 3c 80 0a 4f 3c d0 21 cb bd
       -0.22379673 0.02931726 0.012636781 -0.099185586
000020 80 19 0d 3d 80 09 45 be 40 f7 5f bc 40 18 72 bc
       0.034448147 -0.19241905 -0.013669789 -0.014776289
000030 e0 9f 6a 3e 34 ba 61 be f4 44 4f 3e 60 a5 96 3c
       0.2291255 -0.22043687 0.20241147 0.018389404

net.trm_encoder.layer.0.multi_head_attention.LayerNorm.weight f4 [16]
000000 6c 27 3d 3e 50 03 18 3d 58 62 13 be 78 bc 97 bd
       0.1847207 0.037112534 -0.14392984 -0.074089944
000010 c2 c0 65 be cc 26 bf 3d 92 fe 21 3e e8 38 0e be
       -0.22436813 0.09333572 0.15819767 -0.13888896
000020 40 4c 99 bc 5c 4d a6 bd 98 3f c4 3d 26 49 08 3e
       -0.018713117 -0.08120224 0.09582442 0.13309154
000030 10 66 80 3c a6 9b 12 be 06 b3 78 3e 08 e5 44 3e
       0.015673667 -0.14317188 0.24287042 0.19227993

net.trm_encoder.layer.0.multi_head_attention.LayerNorm.bias f4 [16]
000000 b8 6f c1 3d 1e 32 3c 3e 20 19 d5 3c 68 e6 1c 3d
       0.09445137 0.18378493 0.026012957 0.03830567
000010 30 49 32 3d 72 dc 0a be 5c 53 78 3e dc 76 dd 3d
       0.04352683 -0.13560656 0.24250549 0.10813686
000020 00 ff 13 3d 3c 08 a5 3d 04 2f 6b be c4 8d d5 bd
       0.03613186 0.08058211 -0.22967154 -0.1042743
000030 1c ae ba bd b8 48 2d 3e 5c 1b 70 3e d2 ff 7b be
       -0.0911524 0.16922271 0.23447937 -0.24609306

net.trm_encoder.layer.0.feed_forward.dense_1.bias f4 [256]
000000 9c 87 f2 bd 84 9a 59 be 4e 61 37 be 88 7a 5f be
       -0.11842272 -0.2125035 -0.17908213 -0.21824086
000010 f4 8f c1 bd b8 6b 01 be 18 42 e0 bd 3a 32 5c 3e
       -0.09451285 -0.12638748 -0.109501064 0.21503535
000020 20 b3 ab bd fa d6 4b be d8 e7 80 3d e0 6e 05 3e
       -0.08383775 -0.19906226 0.06294221 0.13030577
000030 f0 47 a0 3c 3c de f3 bd b8 6b 8a 3d b4 b6 c7 bd
       0.019565552 -0.11907622 0.06758827 -0.09751645
000040 78 68 ef bd 4a aa 61 3e 94 fb 5f be 18 4e db bd
       -0.11689848 0.22037616 -0.21873313 -0.107082546
000050 88 b9 7e 3e ec 6c a9 3d 48 f8 6b be b4 36 ac bd
       0.24875462 0.08272728 -0.2304393 -0.08408871
000060 e0 22 70 3e 5c f4 29 be 8c 75 3d 3e b0 4a da 3c
       0.23450804 -0.16597122 0.18501872 0.026646942
000070 5c 5f a7 bd 74 8b 00 be cc 06 14 be 6c 16 6f 3e
       -0.08172485 -0.12553197 -0.14455718 0.23348397
000080 72 34 60 3e 5c 6d e7 3d c8 5f ab bd 48 d9 85 bd
       0.21895006 0.113001555 -0.08367878 -0.06535584
000090 84 4c e8 3d c8 76 7f bd c2 30 5c be 54 33 45 3e
       0.11342719 -0.062369138 -0.21502975 0.19257861
0000a0 00 dc 94 bb 20 a2 32 3c ac a8 13 3e 06 ec 27 3e
       -0.0045428276 0.010902911 0.14419812 0.1639863
0000b0 34 d6 c8 3d 3c cb 95 bd 84 22 ff 3d c8 a3 68 3d
       0.09806481 -0.073141545 0.12457755 0.05679682
0000c0 7c 07 82 bd 80 06 d4 3c 5e 92 73 be 40 ee ea bc
       -0.06349084 0.025882006 -0.23786303 -0.02867806
0000d0 24 83 2f 3e 84 4d d3 3d 78 c1 1f be 24 e5 8a 3d
       0.1713987 0.10317519 -0.15601146 0.06781986
0000e0 00 ff 76 3c a0 ad 4f 3c 6c d5 e5 bd d0 0c ca 3c
       0.015075445 0.012675673 -0.112223476 0.024664313
0000f0 5a f5 54 3e 00 e8 11 3c 16 b6 2e 3e 94 3b d1 bd
       0.20796719 0.008905411 0.17061648 -0.10216442
000100 70 d2 d4 bd 20 e3 da bc 20 d0 46 3c 00 3e 7d 3e
       -0.103917 -0.02671963 0.012134582 0.24730682
000110 24 ee d7 bd 7e b4 01 be 8e 7c 0c be d2 ba 7a be
       -0.105434686 -0.12666509 -0.13719389 -0.24485329
000120 d0 c8 98 3c 2c d6 a2 3d 7c b5 30 be 88 06 c1 bd
       0.018650442 0.07951006 -0.17256731 -0.09425074
000130 24 e4 74 be 50 c7 19 3e a4 82 f3 bd 80 8d 16 3e
       -0.23915154 0.15017438 -0.11890152 0.14702415
000140 26 78 68 be 38 3c ec 3d a0 14 49 be 46 16 37 3e
       -0.22702083 0.11534923 -0.19636774 0.1787959
000150 82 b0 0a be 00 06 83 3a 8c 9e 6e 3e e0 0d 0c 3d
       -0.13543895 0.0009996295 0.23302668 0.03419292
000160 8e 36 5e 3e f8 e9 35 3d 94 12 7b be f0 8d 01 bd
       0.21700498 0.044412583 -0.24518806 -0.031629503
000170 70 42 cd bd 88 00 7b 3e 74 2c 66 be 20 e5 17 3e
       -0.100224376 0.24511921 -0.22477895 0.14833498
000180 a8 63 65 3d d4 4e df bd b0 ae 3c be 50 ee 4c be
       0.056003243 -0.10903707 -0.18426013 -0.20012784
000190 3c ea 0f be 02 1c 7e be 60 df a1 3d 30 f3 47 bd
       -0.14054197 -0.24815372 0.079039335 -0.048815906
0001a0 4a bf 5f 3e 7c ec 7a be 40 5a 37 3d a8 f8 52 3d
       0.21850315 -0.24504274 0.044763803 0.05150667
0001b0 00 15 b4 3c da ac 48 3e 80 7f aa bd 9a 6c 53 be
       0.02198267 0.19597188 -0.083251 -0.20646897
0001c0 a0 43 14 bd c4 cd 4f be 50 05 cc bc 60 7d 01 bc
       -0.036197305 -0.20293337 -0.024904877 -0.007903427
0001d0 f2 e1 64 be 10 6a b6 bd 70 50 6f 3e 4e 4f 0b 3e
       -0.22351816 -0.089069486 0.23370528 0.13604471
0001e0 a8 91 59 be 60 47 38 3d 60 75 02 bc 30 b4 82 3d
       -0.2124697 0.044989944 -0.007962555 0.06382024
0001f0 02 fb 4b be 88 7d 58 3e 48 64 76 3d 78 b7 13 be
       -0.1991997 0.21141636 0.06015423 -0.14425457
000200 9a 42 41 be 50 71 42 bd 28 1b 9a 3d 20 f7 f5 bc
       -0.18873063 -0.047471344 0.07524711 -0.030025065
000210 c0 c4 7d 3c 78 e7 1b 3e 00 d8 ce bd 8a 62 7a 3e
       0.015488803 0.15225017 -0.100997925 0.24451652
000220 a0 bf ee 3c f0 44 20 be 6e 3e 43 be c8 e5 cc bd
       0.029144108 -0.15651298 -0.19066784 -0.10004765
000230 f0 c7 e7 3c 14 30 50 be c4 78 f9 3d a0 2e 1f 3e
       0.02829358 -0.2033084 0.12181237 0.1554513
000240 bc e4 2f be 8e ac 06 3e 38 b5 68 3d 18 47 ea 3d
       -0.17177099 0.13151762 0.05681345 0.11439341
000250 b0 11 d2 3d 98 9b 3d bd 90 77 26 bd 6c d5 ea 3d
       0.1025728 -0.046290964 -0.040641367 0.11466488
000260 30 60 fa bd 5c d1 97 3d 20 04 27 3c 5e 06 06 3e
       -0.122253776 0.07412979 0.010193855 0.13088366
000270 10 5c 1d bd 72 ef 28 3e 70 65 60 bd b4 ac a8 bd
       -0.038417876 0.16497591 -0.05478424 -0.082360655
000280 34 5b 16 be 60 bd 48 bd 58 81 95 3d c0 39 ba 3d
       -0.14683229 -0.049008727 0.07300061 0.09093046
000290 16 d8 78 be 9c 32 58 be 84 b6 1a 3e 10 e9 e5 3d
       -0.2430118 -0.21113056 0.15108687 0.11226094
0002a0 d4 0f 50 3e ba d9 0d be 94 b2 ff bd 3c 6c 71 3e
       0.20318538 -0.13852587 -0.12485233 0.23576444
0002b0 7c dd 0d be c0 2a 27 be 74 21 fa 3d b6 50 3b 3e
       -0.13854021 -0.16324902 0.12213412 0.18292508
0002c0 02 91 4b 3e 8c 82 44 be 3e 47 51 3e cc 6a 60 be
       0.19879535 -0.19190425 0.20437333 -0.2191574
0002d0 3a ba 6d 3e b6 ba 0e be 10 6f c2 bc 5c 1c 8e 3d
       0.23215571 -0.13938412 -0.0237346 0.06939003
0002e0 d0 aa 8d 3c cc 94 7c be 64 a3 f7 3d 80 40 fe 3c
       0.017293364 -0.24666137 0.12091711 0.031036615
0002f0 e0 e1 04 bd b8 82 6e 3d 40 e2 8c 3c 80 72 6f 3e
       -0.032441974 0.058230132 0.017197728 0.23383522
000300 00 54 7a bb 24 eb 11 be 80 96 d0 3c 50 4a f3 3c
       -0.003819704 -0.14249855 0.025462389 0.02969852
000310 6c 8b f7 3d d8 b5 4c be 68 37 b1 3d 48 ad 9f 3d
       0.120871395 -0.19991243 0.08653146 0.07796723
000320 0c cd b8 3d a0 33 9d bd b4 d3 19 be c4 89 4e be
       0.090234846 -0.07675862 -0.15022165 -0.20169741
000330 58 32 43 bd 00 e6 44 3c 6c ce 87 bd d4 c1 65 be
       -0.047655433 0.012017727 -0.06631169 -0.22437221
000340 00 0d c2 bc 88 1e ab bd 58 1f 2b be 8e c1 1b 3e
       -0.02368784 -0.08355433 -0.16711175 0.15210554
000350 94 e3 bf 3d 84 cd bf bd ac 28 6f 3e d0 6f 19 be
       0.09369579 -0.09365371 0.23355359 -0.1498406
000360 b0 72 fb bd b0 6b bb bc 34 59 df bd 32 98 20 3e
       -0.12277734 -0.022878498 -0.10905686 0.15683058
000370 54 55 c7 bd 7c 22 a2 bd d8 a3 d8 bd 0c d9 8b 3d
       -0.09733072 -0.079167336 -0.10578126 0.06828508
000380 3c 2b 08 3e 00 59 86 bc de 91 53 be 80 b1 d8 3c
       0.13297743 -0.01639986 -0.20661113 0.026451826
000390 f6 9e 20 3e 24 95 e1 bd ce d9 07 3e a6 fe 00 3e
       0.15685639 -0.110147744 0.1326668 0.1259714
0003a0 28 3f 6b bd 40 21 ee 3c 34 7e c5 bd 80 ba 1c bc
       -0.057433277 0.02906859 -0.09643212 -0.009565949
0003b0 d0 f4 7c 3e a8 92 52 be 78 1e cd 3d a2 99 1a 3e
       0.24702764 -0.20563757 0.10015577 0.15097669
0003c0 d4 88 4c be 2e bb 35 be 80 eb 9a bc 00 f5 43 be
       -0.19974071 -0.17747185 -0.018911123 -0.19136429
0003d0 98 82 de 3d 20 22 5e 3d 30 e0 82 bd d0 08 3f be
       0.108647525 0.054231763 -0.063904166 -0.18655705
0003e0 d8 39 7b 3d a0 2b 4f bd f4 e0 18 3e c0 85 b9 bb
       0.06133446 -0.050578713 0.14929563 -0.005661696
0003f0 60 fa 37 bd 4c 0b 35 3e 90 70 fd 3c 74 45 60 3e
       -0.04491651 0.1768009 0.030937463 0.21901494

net.trm_encoder.layer.0.feed_forward.dense_2.bias f4 [16]
000000 70 27 1d 3d bc 76 f8 bd 3c a0 c1 bd 8e c9 74 3e
       0.03836769 -0.12132022 -0.094543904 0.23905012
000010 58 e3 32 3e 80 d3 79 3c 64 aa bc 3d 1e 5a 48 3e
       0.17469537 0.015248179 0.09212187 0.19565627
000020 20 8d 3e 3c 20 0e 68 3e 9e 22 31 be 02 5a 0f 3e
       0.0116303265 0.22661638 -0.17298362 0.13999179
000030 64 7a 6b 3e 90 ac e0 3c b4 23 82 bd 24 52 9c 3d
       0.22995907 0.027426034 -0.06354466 0.076328546

net.trm_encoder.layer.0.feed_forward.LayerNorm.weight f4 [16]
000000 80 22 45 3e 4a 7c 09 be e4 42 70 3e 52 d6 21 3e
       0.19251442 -0.13426319 0.23463017 0.15804413
000010 f6 04 5e 3e 8c dc 0c be 14 0d cb bd 4c 49 b8 bd
       0.2168158 -0.13756007 -0.09914604 -0.08998355
000020 30 ef 9b 3d b8 b6 95 3d b8 92 67 bd 50 79 7f 3e
       0.07613981 0.073102415 -0.056536406 0.24948621
000030 e0 ec 33 bc e8 bb 21 be d0 be 3f 3d 0a 06 1a 3e
       -0.010981768 -0.15794337 0.046812832 0.15041366

net.trm_encoder.layer.0.feed_forward.LayerNorm.bias f4 [16]
000000 78 98 7a 3e a8 75 34 3d 66 08 11 3e 80 40 ce bc
       0.24472225 0.04405752 0.1416336 -0.02517724
000010 78 cf ca bd 0a b5 4f 3e 00 56 b8 3a 80 83 fe 3b
       -0.09902853 0.20283905 0.0014063716 0.007767141
000020 78 06 4f bd 70 39 2d 3e 90 4a 6b 3e f0 cb 2d bd
       -0.05054328 0.16916442 0.22977662 -0.042430818
000030 b4 b4 eb bd 54 22 bc 3d 04 fc 36 3e c0 f7 8d bd
       -0.11509076 0.09186235 0.17869574 -0.0693202

net.trm_encoder.layer.1.multi_head_attention.query.bias f4 [16]
000000 4c 8a 4b 3e 24 41 2c be 54 58 77 3e 40 74 19 bc
       0.19876975 -0.16821724 0.24154788 -0.009366095
000010 ba 3c 69 be 90 f9 25 3e cc be ae 3d 6c 58 a5 3d
       -0.22777072 0.16208482 0.08532485 0.08073506
000020 84 32 ec 3d 44 2e 36 be ec 9b 79 be 00 a8 77 bd
       0.115330726 -0.17791086 -0.24375886 -0.06046295
000030 10 4f df bc 10 7d 2e 3d 10 73 26 bd 18 98 0e bd
       -0.02725938 0.042599738 -0.040637076 -0.034813017

net.trm_encoder.layer.1.multi_head_attention.key.bias f4 [16]
000000 18 37 5e bd 7c e3 33 be 74 1d a1 bd a0 b2 9e bc
       -0.05425176 -0.17567247 -0.07866946 -0.019372284
000010 80 41 8d bc 98 c3 25 bd ea 2b 1d 3e 76 6e 30 be
       -0.017243147 -0.040469736 0.15348783 -0.17229638
000020 8a 78 4f 3e 60 c3 b4 bc 20 f1 2c bc f8 ab 5f 3e
       0.20260826 -0.022065818 -0.010555536 0.21842945
000030 14 e8 c4 bd 58 a3 24 be 68 19 1c 3d 22 7c 47 be
       -0.09614578 -0.16077936 0.038110167 -0.19480947

net.trm_encoder.layer.1.multi_head_attention.value.bias f4 [16]
000000 64 36 65 3e f0 12 3e 3d 40 b3 ef 3c a4 f7 1e be
       0.2238403 0.04640478 0.029260278 -0.15524155
000010 4e 26 43 3e 3c d9 58 be 36 04 57 be 86 2e 25 3e
       0.19057581 -0.21176618 -0.209977 0.16131029
000020 00 80 c8 3c 3c 1d c8 bd 1c 81 26 be 40 75 29 bc
       0.024475098 -0.09771201 -0.16260189 -0.010342896
000030 18 fb 41 bd 80 cf 21 3d 94 91 b4 bd c0 ce 4b bd
       -0.047358602 0.039504528 -0.08816829 -0.04975772

net.trm_encoder.layer.1.multi_head_attention.dense.bias f4 [16]
000000 c0 50 87 3b 50 4a 13 3e 5a 8b 50 be 08 4d 60 3e
       0.004129499 0.14383817 -0.20365658 0.21904385
000010 f0 8b 7d be 48 9b 16 3d cc 14 b1 3d 80 82 71 3b
       -0.24760413 0.03676918 0.08646545 0.0036851466
000020 a8 dc 76 bd 70 5b 51 3d 86 cd 1b 3e 3a 76 5a 3e
       -0.060269028 0.051112592 0.1521512 0.21334162
000030 c4 11 ac 3d 60 6c 4a be 80 32 3c bb 78 39 3d 3d
       0.08401826 -0.19767904 -0.0028716624 0.046197385

net.trm_encoder.layer.1.multi_head_attention.LayerNorm.weight f4 [16]
000000 38 e6 7b 3d 00 99 27 3d 44 79 85 3d da f6 3b be
       0.06149885 0.040917397 0.0651727 -0.18355885
000010 2a de 6b be 88 8d 98 3d ca fb 0e 3e 58 e0 7e 3e
       -0.23033968 0.0744887 0.13963237 0.24890268
000020 cc c6 69 3e 1c 8d cc 3d fe c8 66 3e 68 d5 aa 3d
       0.22829741 0.09987852 0.2253761 0.08341485
000030 a8 bc 80 3d 1c 3a 79 be e0 23 4d bd fe 89 3e be
       0.06285983 -0.24338573 -0.05008304 -0.18607327

net.trm_encoder.layer.1.multi_head_attention.LayerNorm.bias f4 [16]
000000 da 6a 26 3e 38 60 ae 3d f8 69 2c 3d 40 1e 53 bd
       0.16251698 0.08514446 0.042093247 -0.05154252
000010 14 ff 88 bd c0 f7 ef 3c 70 b6 c6 bc 38 58 d7 bd
       -0.06689277 0.029292941 -0.024256915 -0.10514873
000020 9a 43 5a be 64 9b 8e bd c0 e2 cf bc e8 51 0f be
       -0.2131485 -0.06963232 -0.025376678 -0.13996089
000030 dc a0 75 3e 5a ba 3b be 62 bc 77 3e 64 04 cd bd
       0.23987144 -0.18332806 0.24192956 -0.10010603

net.trm_encoder.layer.1.feed_forward.dense_1.bias f4 [256]
000000 c0 c7 2e bc 5e 8c 3b 3e 72 3a 32 3e f0 c4 87 3c
       -0.010667741 0.18315265 0.17405108 0.0165734
000010 24 d4 77 be 7c c3 0d be 10 a7 e8 bd 28 20 23 3d
       -0.24202019 -0.13844103 -0.1135999 0.03982559
000020 48 c4 5b 3d b2 31 5b 3e 60 89 3b 3c f6 92 00 be
       0.053653985 0.21405676 0.011446327 -0.12556061
000030 c8 64 1c 3d a0 a0 6d be a0 ac 0e 3d f4 07 1a be
       0.03818205 -0.23205805 0.034832597 -0.15042096
000040 40 1d a6 bd 38 b6 b3 3d 9e ff 4a be 7e d9 21 3e
       -0.08111048 0.0877499 -0.19824073 0.15805623
000050 10 a6 16 be c8 3d ed 3d 20 dd 7d 3d b8 1d 4f 3e
       -0.14711785 0.115840495 0.06197846 0.2022618
000060 e0 2d a6 3c 48 22 5c bd 00 c0 6f 3d 00 7a 46 bd
       0.020285547 -0.05374363 0.058532715 -0.048456192
000070 b0 39 87 bd f6 83 01 be c0 8b e1 bb f8 e2 40 bd
       -0.066028 -0.12647995 -0.0068831146 -0.047091454
000080 40 0d ad bb a4 a0 f6 bd a0 4e 0b bc e0 63 b7 3c
       -0.0052811205 -0.120423585 -0.008502632 0.022386491
000090 f4 c9 78 3e b8 1b 5b 3e ac 5e ac bd e2 20 62 3e
       0.24295789 0.21397293 -0.08416495 0.22082856
0000a0 80 7e 34 bb 40 41 f7 bc 44 b5 e1 bd 6c 68 e9 bd
       -0.002754122 -0.03018248 -0.11020902 -0.1139687
0000b0 00 e1 21 be e6 84 5e be cc fe ad 3d f2 bc 3b 3e
       -0.15808487 -0.21730384 0.08495864 0.18333796
0000c0 b6 a3 62 3e 30 be f0 3d 32 a5 75 be f4 fd d0 bd
       0.22132763 0.117550254 -0.23988798 -0.10204688
0000d0 9c 54 15 3e 74 5e f7 3d 78 fb bc 3d 10 82 47 be
       0.14583057 0.120785624 0.09227651 -0.19483209
0000e0 a0 7f c9 3d 46 7a 4f be 78 9c 96 3d f0 da a5 bc
       0.09838796 -0.20261487 0.07354063 -0.020246
0000f0 00 fa d7 3a 22 b6 5a be c0 a7 a2 bd 26 ea 3b be
       0.0016477704 -0.2135854 -0.07942152 -0.1835104
000100 de 37 43 3e 9c fc 2b be c2 57 63 be 8c 85 9c 3d
       0.1906428 -0.16795582 -0.22201446 0.076426595
000110 3e 02 76 be d0 b3 38 be 80 6a c9 3d 20 19 ec bd
       -0.24024293 -0.18037343 0.098347664 -0.1152823
000120 a8 09 24 3e 40 cf 7b 3d f0 7b e0 bc c6 56 17 3e
       0.16019309 0.061476946 -0.027402848 0.14779195
000130 cc 30 5a 3e 20 fe f2 3d 90 4a 18 bd 08 59 15 bd
       0.21307677 0.11864877 -0.037180483 -0.03646186
000140 54 41 ab bd ac 2a d8 bd d2 36 7f 3e 02 de 10 3e
       -0.0836207 -0.10555014 0.24923256 0.1414719
000150 96 57 25 3e 42 10 15 be 60 cf 80 bd 38 44 26 bd
       0.16146693 -0.14556983 -0.06289554 -0.040592402
000160 00 a6 4d bd 58 f8 34 3d 80 85 0d bb 20 fd bf 3c
       -0.050207138 0.04418215 -0.0021594465 0.02343613
000170 98 cb e8 bd 74 17 fe 3d 3c 4a 81 bd 40 75 45 3c
       -0.113669574 0.12406817 -0.06312987 0.01205188
000180 5c c0 ca 3d be b0 16 be 7a 1b 43 be 0a c4 19 3e
       0.09899971 -0.1471586 -0.1905345 0.15016189
000190 b8 31 7f be 94 be a0 bd e8 57 b1 3d a0 35 94 3d
       -0.2492131 -0.0784885 0.08659345 0.07236791
0001a0 c6 02 27 3e 40 28 1a be 6e 48 72 be 52 22 4a be
       0.16309652 -0.15054417 -0.23660442 -0.19739655
0001b0 88 9f 97 bd a8 6e e1 3d ec b2 11 3e d0 2a c6 3c
       -0.07403475 0.11007434 0.1422841 0.024190336
0001c0 80 eb 6d bc 8c af 14 3e a8 7e 57 be 44 49 f9 3d
       -0.01452148 0.14520091 -0.2104441 0.121721774
0001d0 22 89 38 be 60 8c 72 bc 40 e8 80 3d 30 df 81 bc
       -0.18021062 -0.014803976 0.06294298 -0.015853494
0001e0 32 c9 27 3e 70 92 c6 3d 64 30 dd 3d 30 f5 b8 bc
       0.16385344 0.096958995 0.108002454 -0.022577852
0001f0 70 5f 39 bd 9e 9d 45 3e 92 47 4d be 30 66 fd bc
       -0.045257032 0.19298407 -0.20046833 -0.030932516
000200 0e 38 15 be 32 f2 04 3e a0 38 7a 3e 02 4f 46 be
       -0.14572164 0.12983015 0.24435663 -0.19366077
000210 40 41 cd 3b a6 38 22 3e 32 29 20 3e d0 0b 9c bd
       0.006263882 0.15841922 0.15640715 -0.076194406
000220 70 b5 c3 3c 90 ab 52 bd 9a ec 2d be f0 91 16 be
       0.023890227 -0.051433146 -0.16984788 -0.14704108
000230 e0 45 eb 3c f4 ca 63 be fc 9a 21 3e 00 be 34 be
       0.028719842 -0.22245389 0.15781778 -0.17650604
000240 4e 59 08 3e a8 1a db bd f2 0c 71 be c6 70 19 be
       0.13315317 -0.10698444 -0.23540094 -0.14984426
000250 e4 0c 72 3e 20 c7 a5 bc 28 03 1c be 48 6b a5 bd
       0.2363773 -0.020236552 -0.15235579 -0.08077103
000260 1c ba f2 bd 4a 10 32 3e 70 a8 26 3e 4e 63 35 be
       -0.11851904 0.17389026 0.16275191 -0.17713663
000270 32 cf 6e 3e d4 47 30 3e bc 50 2a 3e 08 6f 93 bd
       0.23321226 0.172149 0.1663236 -0.07198912
000280 bc ed 23 be 70 3c 0d bd 98 cc 74 3d 30 c5 cc 3c
       -0.16008657 -0.034481466 0.05976543 0.02499637
000290 ac 63 81 3d e8 91 db bd a6 0e 20 be 64 9c f8 3d
       0.06317839 -0.10721189 -0.15630588 0.12139204
0002a0 14 d1 d2 3d a0 2c 57 3c b0 ca 38 3e b8 4b 1d 3d
       0.10293785 0.013133198 0.18046069 0.03840229
0002b0 f4 5e 20 be e0 f7 1b 3e 08 c4 ce bd b8 76 6c 3d
       -0.15661222 0.15231276 -0.10095984 0.057730407
0002c0 dc 66 b1 bd e2 e0 03 3e 40 9f 22 be cc 73 0b be
       -0.08662197 0.12878755 -0.15881062 -0.13618392
0002d0 5a 16 7a be 58 c3 e9 bd 80 4d 16 3b 74 86 c9 bd
       -0.24422589 -0.11414212 0.0022934377 -0.09840098
0002e0 b8 1d 04 3d 50 2c 44 be 00 d8 62 bd 20 d2 20 bd
       0.032254905 -0.19157529 -0.055381775 -0.03926289
0002f0 60 eb 90 3c 90 b7 db 3c 24 05 43 3e ee 37 14 3e
       0.01769036 0.026820928 0.1904493 0.1447446
000300 66 f0 4d be c0 35 54 3e 22 7a 68 be c0 ab 65 3e
       -0.20111236 0.20723629 -0.2270284 0.22428799
000310 7e fe 57 be 60 98 37 3c 4a d7 59 3e 54 4d 2b be
       -0.21093175 0.011205763 0.21273533 -0.16728717
000320 04 7f cd 3d c8 6d 10 bd c8 ba 7e bd 62 7f 52 3e
       0.10033992 -0.035260946 -0.062189847 0.20556405
000330 b0 2e 10 3d 28 a0 f5 3d 7e 52 77 be 00 06 29 3d
       0.035200775 0.11993438 -0.24152562 0.041265488
000340 cc 7e 4b be 18 2c 27 3d 60 29 5f 3e 18 73 35 be
       -0.19872588 0.040813535 0.21793127 -0.17719686
000350 40 7d af 3b ba ec 3a 3e f6 eb 7f 3e b0 8e 02 3d
       0.005355507 0.18254367 0.24992356 0.03187436
000360 f4 a6 84 3d 7c a1 6d 3e 06 4f 40 be d0 c7 d2 3d
       0.06477156 0.23206133 -0.18780145 0.102920175
000370 f6 77 2e 3e 88 19 2c 3d f4 96 d9 3d 18 f5 93 3d
       0.17037949 0.042016536 0.10624495 0.07224482
000380 26 ee 11 3e d8 e3 7b 3d 0a 1a 55 be 3e 09 69 3e
       0.14251003 0.061496586 -0.20810714 0.22757432
000390 36 0c 5b 3e 1c 44 6f be 82 b6 0c be 28 1e f4 3d
       0.21391377 -0.23365825 -0.13741496 0.11919814
0003a0 18 c1 28 bd 34 16 82 bd 94 c1 fe bd 90 b3 3c be
       -0.041199774 -0.06351891 -0.12439266 -0.18427873
0003b0 04 25 06 be 88 70 09 bd f4 c9 ef bd f8 b4 7b bd
       -0.13100058 -0.033554584 -0.117084414 -0.061451882
0003c0 be db 30 3e a4 ae ff bd 40 f1 45 3c fc a6 44 be
       0.17271325 -0.12484482 0.012081444 -0.19204324
0003d0 28 2b 4e bd d0 84 90 3d ac 59 2d be 44 a1 7c 3e
       -0.050334126 0.07056582 -0.16928738 0.24670893
0003e0 c0 e8 6b bc 52 6d 21 be ae 18 36 be 88 16 0b 3e
       -0.014398754 -0.15764359 -0.17782852 0.13582814
0003f0 9c 20 d8 3d cc 3f 80 3d 08 34 30 bd 96 93 6a 3e
       0.10553095 0.06262168 -0.04301837 0.22907862

net.trm_encoder.layer.1.feed_forward.dense_2.bias f4 [16]
000000 a4 43 30 3e 3c 50 0b 3e 7c 6f c5 3d 10 cd 85 bc
       0.17213303 0.13604826 0.096404046 -0.016333133
000010 a0 42 57 3e 42 f5 04 be 44 59 a0 3d 00 ab fd bb
       0.21021509 -0.12984183 0.07829526 -0.007741332
000020 00 84 60 3b c2 46 55 3e ec 32 2c 3e 9e e2 10 be
       0.0034258366 0.20827773 0.168163 -0.14148948
000030 80 68 21 3d 62 20 7f 3e 4e 03 6a 3e ac b6 1b 3e
       0.0394063 0.24914697 0.22852823 0.15206403

net.trm_encoder.layer.1.feed_forward.LayerNorm.weight f4 [16]
000000 a8 5b a3 3d 70 66 75 3d 5e 67 0b be d0 39 ff bd
       0.079764664 0.059912145 -0.1361365 -0.12462199
000010 a8 46 a6 3d 38 8a 01 be ac f2 b4 bd e0 b5 90 3c
       0.08118945 -0.12650383 -0.088353485 0.01766485
000020 d6 03 46 3e 90 03 bc bd e8 e8 21 3e a0 bc 3d 3d
       0.19337401 -0.09180367 0.15811503 0.046322465
000030 06 75 2f 3e f0 61 60 bd a8 cb f7 bd d8 93 b9 3d
       0.17134485 -0.0547809 -0.12099391 0.09061402

net.trm_encoder.layer.1.feed_forward.LayerNorm.bias f4 [16]
000000 f0 87 30 3d 04 33 22 3e 3c 9c ee 3d 4c 38 4e be
       0.04309839 0.15839773 0.11650893 -0.20138663
000010 96 79 10 3e 54 af fb bd e8 80 29 bd 8c 6a 09 3e
       0.14108881 -0.122893006 -0.0413827 0.1341955
000020 90 8f ee bc 0a eb 32 3e 6c e1 a7 bd 2e b5 65 be
       -0.02912119 0.17472473 -0.08197293 -0.22432396
000030 a4 57 35 3e c0 ca fc bc 84 75 e4 3d 20 18 02 3c
       0.17709213 -0.030858397 0.11155227 0.007940322

net.LayerNorm.weight f4 [16]
000000 b4 e6 b1 3d 38 cf 2f 3d 3c b9 ff 3d dc c4 c4 3d
       0.08686581 0.04292223 0.124865025 0.096078604
000010 ec b5 a8 3d e2 8b 07 be 80 bd ff bb c8 79 6a 3e
       0.08237824 -0.13236955 -0.0078045726 0.22898018
000020 f0 a2 9e bc 18 26 4c be 86 0b 46 be 56 06 6c 3e
       -0.019364804 -0.19936407 -0.19340333 0.23049292
000030 dc 80 fe bd 76 6a 61 be f8 fe 18 be ca 18 65 3e
       -0.12426922 -0.22013268 -0.14941013 0.22372738

net.LayerNorm.bias f4 [16]
000000 d8 d3 c7 3d 68 4e 02 be ea ad 79 be a0 47 7d 3c
       0.09757203 -0.12725222 -0.24382749 0.015458971
000010 1e 48 73 3e fc 95 cc bd 64 ab 6d 3e c0 6a 0a 3d
       0.2375798 -0.09989545 0.23209912 0.03379321
000020 f8 fb 54 3d 3a f1 58 be f0 b0 a8 3c 18 61 c2 bd
       0.05199811 -0.2118577 0.020592183 -0.094911754
000030 46 6c 20 3e 3a 4d 74 be 00 9d cd bc 40 b4 1c bc
       0.15666303 -0.23857585 -0.025099277 -0.009564459

onnx::MatMul_371 f4 [16, 16]
000000 00 fe 81 bd 2e 79 6d 3e 66 d1 2a 3e 88 a9 4d 3e
       -0.06347275 0.23190758 0.16681442 0.20084202
000010 00 21 94 ba 04 02 37 be 6c 72 c7 3d 78 07 ed 3d
       -0.0011301339 -0.17871863 0.09738621 0.1157369
000020 dc ae 32 be a4 40 36 3e 10 c0 43 be ac 97 3b be
       -0.17449516 0.17798096 -0.19116235 -0.18319577
000030 44 c3 3e 3e 40 d7 1d bd ae 01 6b 3e 54 98 ad 3d
       0.18629175 -0.038535357 0.2294986 0.0847632
000040 84 e9 31 3e 60 2f 9e 3c 68 48 6e be fc ec a9 bd
       0.17374235 0.0193097 -0.23269808 -0.08297154
000050 5c c1 1d be c2 50 28 be 40 5e a2 bd c8 22 17 be
       -0.15405792 -0.16437057 -0.07928133 -0.14759362
000060 94 f9 e1 bd 0c 0d 06 3e f4 93 8e 3d d8 9a 9a 3d
       -0.110339314 0.13090914 0.069618136 0.07549065
000070 20 51 11 bc 32 b4 16 3e c4 e5 3b 3e c0 38 82 bc
       -0.008869439 0.14717177 0.18349367 -0.015896201
000080 20 4e 36 3c 62 e4 5e be 54 70 77 be 26 c6 06 be
       0.011127025 -0.21766809 -0.24163944 -0.13161525
000090 f8 ff 39 be a0 0b ca 3d aa dc 7e 3e 30 be 43 3e
       -0.1816405 0.098654985 0.24888864 0.1911552
0000a0 12 47 24 be 0e 1b 74 be 94 c6 e3 3d dc bb ed bd
       -0.16042736 -0.23838446 0.1112186 -0.11608097
0000b0 58 de 8d bd 2c 90 4d 3e 94 92 5c 3e c8 05 d6 bd
       -0.06927174 0.20074528 0.2154029 -0.104503214
0000c0 fc 15 e2 3d 58 bd 6a 3e c0 85 98 3b a4 e2 69 be
       0.110393494 0.22923791 0.004654616 -0.22840363
0000d0 02 bf 63 3e 60 ca b0 bd a4 2d 3a be 10 fc 71 3d
       0.22240832 -0.0863235 -0.18181473 0.059078276
0000e0 60 81 fa bc 8c 11 ad 3d 10 de ee bc aa 81 67 be
       -0.030579269 0.084506124 -0.029158622 -0.22608057
0000f0 88 f3 35 3e 76 1d 46 be 40 47 2e 3d 8a 0b 5b be
       0.17768681 -0.19347176 0.042548418 -0.2139112
000100 f4 5d 9a 3d f8 e9 0b 3d 52 2c 4c be 38 b2 0b bd
       0.075374514 0.034158677 -0.19938782 -0.03410551
000110 80 c4 da 3c 1c 36 b3 bd c8 cf fb 3d b8 c1 03 3d
       0.026705027 -0.08750555 0.122954905 0.032167166
000120 76 a1 5c 3e d0 50 49 3d b4 4d 37 be fe e4 13 3e
       0.21545967 0.049149334 -0.17900735 0.14442822
000130 a0 6b 38 3e 98 03 ce 3d 00 0f 3c 3b ba 3a 53 3e
       0.18009806 0.10059279 0.0028695464 0.20627871
000140 e4 b0 9b bd 2c 64 22 be 60 d9 29 3e 80 d8 fc bb
       -0.076020986 -0.15858525 0.16586828 -0.0077162385
000150 de 99 50 3e 36 d1 43 3e 34 0b e4 3d 30 63 c4 bd
       0.20371196 0.19122776 0.11134949 -0.09589231
000160 a6 37 2d be 80 48 a6 bd 4a 49 45 3e 90 cc e1 bd
       -0.1691576 -0.08119297 0.19266239 -0.11025345
000170 74 9a 4a 3e 70 ef 98 bc 80 41 f3 bb 34 77 17 be
       0.19785482 -0.01866886 -0.0074235797 -0.14791566
000180 70 3f 8f bd f4 4b 45 be 58 35 fb bd 8e 30 4a 3e
       -0.069945216 -0.19267255 -0.12266034 0.19745085
000190 de e7 3f be e4 bc 32 be f2 cb 1a 3e 80 b8 f0 bb
       -0.18740794 -0.17454869 0.15116861 -0.007346213
0001a0 94 2b 7a be a4 91 7f be 00 99 69 bd 0c b4 86 3d
       -0.24430686 -0.24957901 -0.057030678 0.0657731
0001b0 40 43 7a 3c 0e 35 3a be 20 39 ef 3c 50 6c 7c 3e
       0.015274823 -0.18184301 0.029202044 0.24650693
0001c0 88 95 15 be e0 b1 4a bc b0 50 84 bc f4 0c 6d 3e
       -0.14607823 -0.01237151 -0.016151756 0.23149472
0001d0 a0 a9 63 3e ba 3f 0a be b8 c3 bb bd c0 4b 80 3c
       0.22232676 -0.13500872 -0.0916819 0.01566112
0001e0 94 cf 61 3e 8a a3 4e 3e c0 28 7f bc 40 2d 01 3e
       0.22051841 0.20179573 -0.01557368 0.12614918
0001f0 b4 8e 34 3e 40 f5 26 bd e6 3d 72 3e e4 f5 05 be
       0.17632562 -0.040761232 0.23656425 -0.13082081
000200 1e 28 2b 3e 8c 61 2e 3e ac e3 07 be ec 1d b3 3d
       0.16714522 0.17029399 -0.13270444 0.087459415
000210 12 21 2a be f4 26 28 be 6a d2 08 3e 7a 04 2f be
       -0.16614178 -0.1642111 0.13361517 -0.17091551
000220 88 6c 18 be f4 4b 9c bd a4 7b f1 bd b4 ea 3f be
       -0.14885151 -0.076316744 -0.11791161 -0.18741876
000230 04 44 2c 3e 6c d3 81 3d 9c 23 59 be b2 10 47 3e
       0.16822821 0.06339154 -0.2120499 0.19439963
000240 00 60 42 3e c0 35 95 bc 70 bb 38 3d 28 d5 fb bd
       0.18981934 -0.018214107 0.04510063 -0.12296516
000250 f6 df 2b 3e a0 61 79 be fc 31 1c be 88 b8 7c 3d
       0.16784653 -0.24353647 -0.15253443 0.06169942
000260 ee 31 0f 3e e0 38 94 bc 04 c0 d0 3d 46 7e 09 be
       0.1398389 -0.018093526 0.10192874 -0.13427076
000270 b8 e0 4a 3e 00 50 78 bb 2c b1 ba 3d 24 32 12 3e
       0.19812286 -0.003788948 0.09115824 0.1427694
000280 9e 20 0d be 4a 2c 32 3e e0 b9 6f bc 68 f1 c1 bd
       -0.13781974 0.17399707 -0.014631718 -0.09469873
000290 64 49 4a be de 4f 3c 3e 70 a8 63 3e 54 af 61 be
       -0.19754559 0.18389842 0.22232223 -0.22039539
0002a0 18 77 73 3d 90 9e 2e bd f8 5e 1c be 5c 9e d9 bd
       0.05943975 -0.042631686 -0.15270603 -0.10625908
0002b0 5c 0c 98 bd a0 da 99 bd 9e 93 2d be 0e 81 6a 3e
       -0.07424232 -0.075124025 -0.16950843 0.22900793
0002c0 00 2a cd bb 90 e2 ff bc 88 c9 05 3d 44 55 31 be
       -0.0062611103 -0.031235963 0.0326629 -0.17317683
0002d0 80 a1 12 bc da a7 1a be a8 48 68 3d ec df 3b be
       -0.008949637 -0.15103093 0.056709915 -0.18347138
0002e0 cc 46 d5 3d d2 41 25 3e 16 52 21 3e 40 e6 61 3c
       0.10413894 0.1613839 0.1575397 0.013787806
0002f0 a6 42 5e be 68 cb 39 3e 28 4d 48 bd 60 ad 25 bd
       -0.21705112 0.18144 -0.048901707 -0.040448546
000300 24 5d 2e be 24 70 7c be 28 db 2b 3d 9c 4b 44 be
       -0.17027718 -0.24652153 0.04195705 -0.19169468
000310 72 c9 1c be 26 e7 6f be 80 ba c0 3b 00 d3 5a 3b
       -0.1531122 -0.2342802 0.0058816075 0.0033389926
000320 ba df 3c 3e 40 65 14 be 80 c6 92 3b ba 10 1f be
       0.1844472 -0.14491749 0.0044792295 -0.15533724
000330 48 39 a5 bd 98 23 49 bd 76 3f 52 3e 04 84 c2 3d
       -0.08067566 -0.04910621 0.20532021 0.09497836
000340 5e 23 5e 3e 68 4c 6f be 00 d1 35 be a0 5d 41 bd
       0.21693179 -0.2336899 -0.17755508 -0.04720843
000350 60 92 70 be 98 7d 58 3e 60 2d 3c 3c bc 16 f1 bd
       -0.23493338 0.2114166 0.011485428 -0.11771914
000360 7e 0f 04 be d8 cc 05 be e0 a1 22 bd 20 f2 df bd
       -0.12896535 -0.13066423 -0.039705157 -0.109348536
000370 18 4e 54 be 9c 93 83 bd b4 36 03 be f0 75 81 3c
       -0.20732915 -0.06424639 -0.12813836 0.015803307
000380 e8 7d 4c be 50 36 99 3c 80 12 ba 3b 4c f8 ca 3d
       -0.19969904 0.018702656 0.005678475 0.0991064
000390 c0 8c ea 3c 44 22 4c 3e 70 45 5d be 0c 96 45 be
       0.028631568 0.19934946 -0.2160852 -0.1929552
0003a0 8a c6 6f 3e f2 8a 16 3e f0 aa 1c be 48 d6 33 3e
       0.2341558 0.14701441 -0.15299582 0.1756221
0003b0 6a ea 36 be fc 6f 95 3d a2 2b 59 3e bc 27 21 3e
       -0.1786286 0.0729675 0.21208051 0.15737814
0003c0 b0 31 bf 3d 5a a7 41 3e 1c bb 59 3e 50 3a 2f bd
       0.09335649 0.18911496 0.21262783 -0.04278022
0003d0 64 96 87 bd 8a a2 3d be 68 7d 0e be 4c a9 9f bd
       -0.066204816 -0.18519035 -0.13915026 -0.07795963
0003e0 fc ca b5 bd e2 30 41 3e d2 7e 6b be 18 63 65 be
       -0.08876607 0.18866304 -0.22997597 -0.22401083
0003f0 a0 35 ab 3c c2 ad 1a 3e d8 6f 94 3d 92 c4 01 be
       0.020899594 0.15105346 0.07247895 -0.12672642
