rust/model_store/core_bolcom_c10000_t50_eager.pth (torch, 743099 bytes, 37 tensors)

weight f4 [10000, 16]
0.03556454 0.0022051632 -0.066773415 -0.1842373 -0.16753477 0.20697096 -0.09607503 0.2460345
-0.24644002 -0.19728616 -0.045714527 0.09088591 0.028407782 0.20181632 -0.11352584 0.22658452
0.028484643 -0.13799086 -0.0014569163 -0.08073437 -0.23752609 0.1234518 -0.23569286 0.12685934
-0.05297023 -0.05111763 0.23191357 -0.006003976 0.019666731 0.008308262 0.16439378 0.22780687
-0.1961954 0.11917156 -0.15391678 0.03150916 0.2475059 -0.014324188 -0.07746789 -0.13303244
-0.15565667 0.04537946 -0.14597914 0.008309573 -0.23273507 -0.08680546 0.06950039 -0.013734877
0.11340839 -0.063132584 0.13964 -0.079244226 0.15676206 -0.05509767 -0.029154807 0.08554435
0.04519394 -0.027604997 0.14495358 -0.12990326 0.04873535 -0.14486736 -0.0023407042 -0.17107221
0.09980616 0.064118624 0.15142262 -0.13246772 -0.19368893 -0.085909575 0.04993996 0.009193957
-0.12607154 0.1638655 -0.2315489 -0.049207896 0.19136739 0.105378956 -0.20881003 -0.24254575
0.16722226 0.12077016 0.23016614 -0.2109825 -0.20292419 0.121044874 -0.022943974 0.15579173
-0.20769534 -0.16814157 0.19033271 0.02626279 0.032293856 -0.02224958 0.15520021 0.22151715
0.10581419 -0.066346765 0.14435306 -0.24080446 -0.108160555 -0.027849883 -0.015740216 -0.17079777
-0.080881685 -0.2081905 0.058566302 0.13558567 -0.045692593 0.078801244 0.14672646 0.22731319
0.14090079 -0.17067346 0.22557214 0.11479068 -0.1279403 -0.11077568 0.24453127 -0.02697143
0.07151431 0.23931858 0.24682608 0.15451553 0.099818945 0.09773436 0.13288423 -0.24383664
0.19405344 0.1660448 -0.21880609 0.17104533 0.1317268 0.09796688 0.06015134 -0.04608795
0.08137268 -0.025127709 0.018565863 0.17604116 0.047709495 -0.16630074 0.018822998 0.21748224
-0.21045354 0.23932424 -0.09439671 -0.20850971 -0.0073527396 -0.22271192 -0.21971977 -0.1416387
-0.10008839 -0.23060438 -0.19891319 -0.15359667 0.18557975 0.14228046 0.20261765 -0.23983881
-0.11140779 -0.098160565 -0.04895261 -0.10125092 0.064276814 -0.09659469 0.021728605 -0.14171115
0.1649093 0.07256761 -0.14683169 0.2418038 0.16444689 0.14550492 -0.1622113 -0.01096338
0.04183787 0.05241126 0.2058838 0.028037488 -0.12162039 0.1874268 0.17422518 0.13471556
-0.1570229 -0.155482 0.23628202 -0.16483042 0.031302303 0.21362132 -0.13169181 -0.23177686
0.069904834 0.1502755 0.18633765 0.12791961 -0.09160885 0.22972104 0.12103799 -0.24813381
0.10516399 -0.17911357 -0.19154584 0.019637197 0.14702863 -0.2427668 -0.12292811 0.10622674
0.060455143 -0.21072176 -0.22086093 -0.06061864 0.0935798 -0.06511271 0.08821356 0.12597597
0.0010149777 -0.019516617 0.16861254 0.016806304 0.23780125 0.11932963 -0.22611713 0.17290619
0.04946071 -0.11404526 0.13229829 0.040514767 -0.21639043 -0.10278502 0.24050924 0.023961186
0.2445916 -0.016085386 -0.049464166 -0.06319308 0.0289855 -0.08853623 0.017667413 -0.19121513
0.12718105 0.057995975 0.1687291 -0.24860537 -0.06255001 -0.1197637 0.011630386 -0.18171185
-0.063301384 0.24607411 -0.1709595 0.19435126 0.24510014 -0.17544231 0.19469845 -0.16418743
00000000: 20ac 113d 8084 103b 80c0 88bd b4a8 3cbe
00000010: 3c8e 2bbe 32f0 533e fcc2 c4bd 78f0 7b3e
00000020: c65a 7cbe 6205 4abe 283f 3bbd 6422 ba3d
00000030: 70b7 e83c f0a8 4e3e 3c80 e8bd c605 683e
00000040: a058 e93c 7a4d 0dbe 00f6 beba 1058 a5bd
00000050: 0a3a 73be 4cd4 fc3d 7859 71be 6ae7 013e
00000060: 50f7 58bd b860 51bd c07a 6d3e 00bd c4bb
00000070: 201c a13c 601f 083c d856 283e 3446 693e
00000080: 72e7 48be 3810 f43d 5c9c 1dbe c00f 013d
00000090: 3072 7d3e 00b0 6abc 7ca7 9ebd a839 08be
000000a0: 7664 1fbe d0df 393d 8e7b 15be e024 083c
000000b0: 1a52 6ebe 10c7 b1bd 3856 8e3d 4008 61bc
000000c0: a842 e83d a84b 81bd cafd 0e3e cc4a a2bd
000000d0: 3c86 203e 18ae 61bd 10d6 eebc e031 af3d
000000e0: 481d 393d e023 e2bc b66e 143e 5c05 05be
000000f0: b89e 473d 1c58 14be 8066 19bb 8e2d 2fbe
00000100: 2c67 cc3d a050 833d 880e 1b3e 9ea5 07be
00000110: 6456 46be 5cf1 afbd d88d 4c3d 40a2 163c
00000120: e618 01be 5ccc 273e 281b 6dbe 388e 49bd
00000130: d0f5 433e ecd0 d73d 4cd2 55be ea5d 78be
00000140: 503c 2b3e 5856 f73d acb0 6b3e cc0b 58be
00000150: 5ccb 4fbe 60e6 f73d 00f5 bbbc de87 1f3e
00000160: 16ae 54be 4e2d 2cbe 94e6 423e 1025 d73c
00000170: 9046 043d c044 b6bc ceec 1e3e 64d5 623e
00000180: 1cb5 d83d d0e0 87bd 4ad1 133e 7295 76be
00000190: 4883 ddbd 7025 e4bc a0f1 80bc 9ce5 2ebe
000001a0: 4ca5 a5bd e42f 55be 38e3 6f3d f8d6 0a3e
000001b0: 2828 3bbd 8c62 a13d 763f 163e cac4 683e
000001c0: 4c48 103e 06c5 2ebe 62fc 663e 6017 eb3d
000001d0: c802 03be 5cde e2bd 6866 7a3e 30f3 dcbc
000001e0: 1876 923d ee0f 753e fabf 7c3e 5239 1e3e
000001f0: e06d cc3d f428 c83d ce12 083e 50b0 79be
00000200: f2b5 463e a607 2a3e b40e 60be 8226 2f3e
00000210: 64e3 063e dca2 c83d 4061 763d b8c6 3cbd
00000220: b8a6 a63d a0d8 cdbc 7017 983c 2244 343e
00000230: 086b 433d be4a 2abe b032 9a3c aab3 5e3e
00000240: 2281 57be 6a11 753e 1053 c1bd 9283 55be
00000250: 40ef f0bb 980e 64be 38fe 60be bc09 11be
00000260: 24fb ccbd 8e23 6cbe e6af 4bbe 7248 1dbe
00000270: 9e08 3e3e f8b1 113e 007b 4f3e 4e98 75be
00000280: c429 e4bd 6808 c9bd 8882 48bd a45c cfbd
00000290: 90a3 833d 70d3 c5bd 3000 b23c ba1c 11be
000002a0: fcdd 283e 549e 943d 0c5b 16be 6a9b 773e
000002b0: c464 283e 3eff 143e b81a 26be c09f 33bc
000002c0: 305e 2b3d 30ad 563d 34d3 523e e0ae e53c
000002d0: 1c14 f9bd d0ec 3f3e 1668 323e e0f2 093e
000002e0: 9cca 20be ac36 1fbe eaf3 713e 4ec9 28be
000002f0: d836 003d 8cbf 5a3e 38da 06be ea56 6dbe
00000300: 442a 8f3d d2e1 193e 4ccf 3e3e 5cfd 023e
00000310: 6c9d bbbd fe3b 6b3e c4e2 f73d ca16 7ebe
00000320: 3860 d73d 8c69 37be 9824 44be 30de a03c
00000330: ac8e 163e dc97 78be bcc1 fbbd 688d d93d
00000340: d09f 773d 72c7 57be 5e29 62be 404b 78bd
00000350: c4a6 bf3d d059 85bd 50a9 b43d d8ff 003e
00000360: 0009 853a 50e1 9fbc c4a8 2c3e 60ad 893c
00000370: 2c82 733e 1863 f43d 408b 67be 520e 313e
00000380: 5097 4a3d 9090 e9bd 3479 073e d0f2 253d
00000390: 7495 5dbe f480 d2bd 0e48 763e 404a c43c
000003a0: 3876 7a3e 80c5 83bc f09a 4abd 606b 81bd
000003b0: 0073 ed3c 7c52 b5bd 40bb 903c e6cd 43be
000003c0: c03b 023e 308d 6d3d 52c7 2c3e 6892 7ebe
000003d0: 381a 80bd ac46 f5bd 608d 3e3c ac12 3abe
000003e0: 28a4 81bd dafa 7b3e 0210 2fbe 0404 473e
000003f0: 88fb 7a3e 26a7 33be 085f 473e c020 28be

weight f4 [50, 16]
0.11620277 0.15002653 -0.07687822 0.24576938 0.16340989 -0.08812904 0.19382492 0.089957595
0.10610762 0.208042 0.12971416 0.18881702 0.06486428 0.19008094 -0.07605386 -0.16893849
0.14450708 0.12829617 -0.18102068 0.1304808 0.053773075 -0.09774998 0.18386683 -0.025687546
0.08487785 -0.13671285 -0.069425434 -0.09295562 -0.1966824 0.16137323 -0.15192792 -0.22431034
0.18431541 0.06783283 0.21078813 -0.094502985 -0.18383259 0.0160712 0.08190358 -0.10881254
0.057863027 0.09471771 -0.11805403 0.03673312 0.11022428 0.23529905 0.17907128 0.13580862
0.23748675 0.0039544404 0.1592511 0.022185415 -0.06840941 -0.13464239 -0.0038093626 0.07990983
0.23011899 0.041978627 -0.22918227 0.079707384 0.20536304 -0.11290684 0.24789801 -0.20728657
0.023162842 -0.11252636 0.01136896 -0.13078076 0.051028013 0.09730995 -0.24748015 0.10693073
-0.050097704 0.042143792 0.117385924 -0.21804947 -0.13721752 -0.1510239 -0.0771434 -0.041166484
0.052130014 -0.17747867 -0.115976065 -0.24980783 0.08839697 0.020476878 0.1017963 0.055341363
-0.055955768 -0.004881829 0.21062666 0.03369665 -0.054665327 0.062208295 0.08034605 -0.2443608
0.15270448 0.021320134 -0.0058190823 0.16439167 0.236494 0.05444181 0.249724 -0.23329055
-0.03022778 0.0005032122 -0.08656892 -0.022821575 -0.23787624 -0.099021256 -0.032097787 0.06433478
-0.0325059 -0.1750234 0.1574023 0.111798376 -0.08674988 0.23697942 -0.18050832 0.06349781
0.16405624 -0.03191632 -0.05973795 0.2165423 0.12329963 0.22185239 -0.15584522 -0.09849316
-0.20362079 0.20122534 0.20984098 0.123931915 0.073011875 -0.1546427 -0.19886711 0.18653029
-0.2494668 -0.09875643 -0.09830183 -0.066007525 0.20614654 -0.236649 0.017522216 0.14976501
-0.059658706 0.038084656 -0.14194632 -0.14376554 -0.03121832 0.05599171 -0.23100749 0.07258141
-0.22558454 0.07082659 -0.0471406 0.11339638 0.19418728 -0.2090154 -0.11138883 -0.036310136
-0.14955595 0.2310712 -0.08965731 0.2254214 0.22341126 0.18291047 -0.11108023 -0.08395797
-0.21575022 -0.04071036 -0.013384074 -0.23898157 -0.049312264 0.19301999 0.122415006 0.121618
-0.06781092 -0.21988043 0.08386013 0.06665331 0.19283718 0.026479423 -0.115626514 -0.23746732
0.036961168 0.1888079 0.2175855 0.062300682 -0.15633675 -0.078624785 0.11299324 -0.18452525
0.023578614 0.21975046 0.18438533 0.23079956 0.111855924 -0.031339437 -0.051924556 -0.090954095
0.22015825 0.1303049 0.053579807 0.20620629 -0.24466613 0.004616946 0.13049877 -0.18839958
-0.20057121 -0.1214464 0.08591443 -0.20372453 0.081492394 -0.014182508 0.17141283 -0.19695085
0.2255517 0.24304476 0.20842305 -0.13623676 -0.17438823 0.081427515 0.22412807 -0.021893203
-0.22695944 -0.15476295 0.05739948 -0.13235736 0.055785954 -0.05546999 0.2491799 -0.117375016
0.015078366 -0.17435226 -0.18245158 -0.112739086 0.21910462 0.18348292 0.008515567 -0.191255
0.019632995 -0.031226844 -0.1974256 -0.10282391 -0.23085588 -0.22808164 0.13105914 -0.047940254
-0.13391832 0.0145224035 -0.05397269 -0.20024487 0.12554273 -0.20159185 0.24493307 -0.13423753
00000000: b8fb ed3d 8ea0 193e 5472 9dbd f8aa 7b3e
00000010: ec54 273e 007d b4bd 0a7a 463e b03b b83d
00000020: f44e d93d f608 553e cad3 043e 4059 413e
00000030: 90d7 843d 94a4 423e 20c2 9bbd 36fe 2cbe
00000040: aaf9 133e 1260 033e 7c5d 39be c29c 053e
00000050: 2841 5c3d 2431 c8bd 9647 3c3e b06e d2bc
00000060: 70d4 ad3d 74fe 0bbe ec2e 8ebd 845f bebd
00000070: 1c67 49be 063f 253e fe92 1bbe 9cb1 65be
00000080: 2ebd 3c3e f0eb 8a3d d8d8 573e c88a c1bd
00000090: 9c3e 3cbe c0a7 833c 10bd a73d 1cd9 debd
000000a0: c801 6d3d 5cfb c13d 50c6 f1bd 7875 163d
000000b0: 44bd e13d 3cf2 703e 765e 373e 6a11 0b3e
000000c0: ba2f 733e 4094 813b b812 233e 30be b53c
000000d0: 3c1a 8cbd b2df 09be 80a6 79bb c4a7 a33d
000000e0: 50a4 6b3e c8f1 2b3d c2ae 6abe a03d a33d
000000f0: b04a 523e b43b e7bd fad8 7d3e ee42 54be
00000100: 00c0 bd3c 3874 e6bd e044 3a3c 64eb 05be
00000110: c002 513d 704a c73d 706b 7dbe 80fe da3d
00000120: 4033 4dbd f89e 2c3d 0868 f03d 5c48 5fbe
00000130: c082 0cbe 02a6 1abe 5cfd 9dbd 309e 28bd
00000140: 4886 553d f8bc 35be dc84 edbd a0cd 7fbe
00000150: 7809 b53d 20bf a73c 947a d03d a0ad 623d
00000160: e031 65bd c0f7 9fbb 84ae 573e 8005 0a3d
00000170: c0e8 5fbd 20ce 7e3d 788c a43d b839 7abe
00000180: 905e 1c3e 90a7 ae3c 00ae bebb 4a56 283e
00000190: 7c2b 723e 60fe 5e3d a6b7 7f3e b8e3 6ebe
000001a0: 40a0 f7bc 00ea 033a 0c4b b1bd 50f4 babc
000001b0: d495 73be a8cb cabd f878 03bd f4c1 833d
000001c0: e824 05bd 5639 33be 122e 213e 8cf6 e43d
000001d0: eca9 b1bd bcaa 723e 2cd7 38be 240b 823d
000001e0: 5cfe 273e b0ba 02bd c8af 74bd 44bd 5d3e
000001f0: 8484 fc3d 462d 633e e495 1fbe c8b6 c9bd
00000200: f881 50be 040e 4e3e 8ee0 563e 04d0 fd3d
00000210: 4087 953d a85a 1ebe d2a3 4bbe cc01 3f3e
00000220: 3a74 7fbe d040 cabd 7852 c9bd f42e 87bd
00000230: 1418 533e 1e54 72be c08a 8f3c 005c 193e
00000240: b05c 74bd a8fe 1b3d 605a 11be 4637 13be
00000250: 90bd ffbc 9057 653d 3a8d 6cbe 90a5 943d
00000260: a2ff 66be 880d 913d 8016 41bd 5c3c e83d
00000270: 08d9 463e 2208 56be d41f e4bd f0b9 14bd
00000280: 3225 19be ee9d 6c3e 409e b7bd ded4 663e
00000290: ecc5 643e e24c 3b3e 087e e3bd 28f2 abbd
000002a0: a0ed 5cbe e8bf 26bd e048 5bbc 96b7 74be
000002b0: a8fb 49bd 08a7 453e b8b4 fa3d dc12 f93d
000002c0: 74e0 8abd 5628 61be dcbe ab3d 8881 883d
000002d0: 1c77 453e 60eb d83c 98cd ecbd a22a 73be
000002e0: 9864 173d dc56 413e bcce 5e3e 002f 7f3d
000002f0: be16 20be 0806 a1bd 0069 e73d 30f4 3cbe
00000300: f027 c13c 4406 613e 82cf 3c3e b856 6c3e
00000310: b814 e53d c85d 00bd d8ae 54bd 2446 babd
00000320: 2a71 613e a66e 053e 8076 5b3d be27 533e
00000330: c289 7abe c049 973b 78a1 053e d2eb 40be
00000340: 8a62 4dbe e4b8 f8bd e8f3 af3d 2a9d 50be
00000350: 7ce5 a63d c05d 68bc d886 2f3e 7cad 49be
00000360: 06f7 663e bae0 783e da6c 553e a681 0bbe
00000370: d492 32be 78c3 a63d d481 653e 6059 b3bc
00000380: 0e68 68be 2e7a 1ebe b81b 6b3d b088 07be
00000390: d07f 643d 8034 63bd 0429 7f3e 5062 f0bd
000003a0: 400b 773c 6689 32be 96d4 3abe c0e3 e6bd
000003b0: f65c 603e f2e2 3b3e e084 0b3c 5ad8 43be
000003c0: 60d5 a03c 70cf ffbc f029 4abe 5895 d2bd
000003d0: 7c65 6cbe 3c8e 69be 5e34 063e 005d 44bd
000003e0: e221 09be 60ef 6d3c 7812 5dbd fe0c 4dbe
000003f0: 468e 003e 186e 4ebe bccf 7a3e 9075 09be

weight f4 [16, 16]
-0.06347275 0.17374235 0.011127025 0.110393494 0.075374514 -0.076020986 -0.069945216 -0.14607823
0.16714522 0.18981934 -0.13781974 -0.0062611103 -0.17027718 0.21693179 -0.19969904 0.09335649
0.23190758 0.0193097 -0.21766809 0.22923791 0.034158677 -0.15858525 -0.19267255 -0.01237151
0.17029399 -0.018214107 0.17399707 -0.031235963 -0.24652153 -0.2336899 0.018702656 0.18911496
0.16681442 -0.23269808 -0.24163944 0.004654616 -0.19938782 0.16586828 -0.12266034 -0.016151756
-0.13270444 0.04510063 -0.014631718 0.0326629 0.04195705 -0.17755508 0.005678475 0.21262783
0.20084202 -0.08297154 -0.13161525 -0.22840363 -0.03410551 -0.0077162385 0.19745085 0.23149472
0.087459415 -0.12296516 -0.09469873 -0.17317683 -0.19169468 -0.04720843 0.0991064 -0.04278022
-0.0011301339 -0.15405792 -0.1816405 0.22240832 0.026705027 0.20371196 -0.18740794 0.22232676
-0.16614178 0.16784653 -0.19754559 -0.008949637 -0.1531122 -0.23493338 0.028631568 -0.066204816
-0.17871863 -0.16437057 0.098654985 -0.0863235 -0.08750555 0.19122776 -0.17454869 -0.13500872
-0.1642111 -0.24353647 0.18389842 -0.15103093 -0.2342802 0.2114166 0.19934946 -0.18519035
0.09738621 -0.07928133 0.24888864 -0.18181473 0.122954905 0.11134949 0.15116861 -0.0916819
0.13361517 -0.15253443 0.22232223 0.056709915 0.0058816075 0.011485428 -0.2160852 -0.13915026
0.1157369 -0.14759362 0.1911552 0.059078276 0.032167166 -0.09589231 -0.007346213 0.01566112
-0.17091551 0.06169942 -0.22039539 -0.18347138 0.0033389926 -0.11771914 -0.1929552 -0.07795963
-0.17449516 -0.110339314 -0.16042736 -0.030579269 0.21545967 -0.1691576 -0.24430686 0.22051841
-0.14885151 0.1398389 0.05943975 0.10413894 0.1844472 -0.12896535 0.2341558 -0.08876607
0.17798096 0.13090914 -0.23838446 0.084506124 0.049149334 -0.08119297 -0.24957901 0.20179573
-0.076316744 -0.018093526 -0.042631686 0.1613839 -0.14491749 -0.13066423 0.14701441 0.18866304
-0.19116235 0.069618136 0.1112186 -0.029158622 -0.17900735 0.19266239 -0.057030678 -0.01557368
-0.11791161 0.10192874 -0.15270603 0.1575397 0.0044792295 -0.039705157 -0.15299582 -0.22997597
-0.18319577 0.07549065 -0.11608097 -0.22608057 0.14442822 -0.11025345 0.0657731 0.12614918
-0.18741876 -0.13427076 -0.10625908 0.013787806 -0.15533724 -0.109348536 0.1756221 -0.22401083
0.18629175 -0.008869439 -0.06927174 0.17768681 0.18009806 0.19785482 0.015274823 0.17632562
0.16822821 0.19812286 -0.07424232 -0.21705112 -0.08067566 -0.20732915 -0.1786286 0.020899594
-0.038535357 0.14717177 0.20074528 -0.19347176 0.10059279 -0.01866886 -0.18184301 -0.040761232
0.06339154 -0.003788948 -0.075124025 0.18144 -0.04910621 -0.06424639 0.0729675 0.15105346
0.2294986 0.18349367 0.2154029 0.042548418 0.0028695464 -0.0074235797 0.029202044 0.23656425
-0.2120499 0.09115824 -0.16950843 -0.048901707 0.20532021 -0.12813836 0.21208051 0.07247895
0.0847632 -0.015896201 -0.104503214 -0.2139112 0.20627871 -0.14791566 0.24650693 -0.13082081
0.19439963 0.1427694 0.22900793 -0.040448546 0.09497836 0.015803307 0.15737814 -0.12672642
00000000: 00fe 81bd 84e9 313e 204e 363c fc15 e23d
00000010: f45d 9a3d e4b0 9bbd 703f 8fbd 8895 15be
00000020: 1e28 2b3e 0060 423e 9e20 0dbe 002a cdbb
00000030: 245d 2ebe 5e23 5e3e e87d 4cbe b031 bf3d
00000040: 2e79 6d3e 602f 9e3c 62e4 5ebe 58bd 6a3e
00000050: f8e9 0b3d 2c64 22be f44b 45be e0b1 4abc
00000060: 8c61 2e3e c035 95bc 4a2c 323e 90e2 ffbc
00000070: 2470 7cbe 684c 6fbe 5036 993c 5aa7 413e
00000080: 66d1 2a3e 6848 6ebe 5470 77be c085 983b
00000090: 522c 4cbe 60d9 293e 5835 fbbd b050 84bc
000000a0: ace3 07be 70bb 383d e0b9 6fbc 88c9 053d
000000b0: 28db 2b3d 00d1 35be 8012 ba3b 1cbb 593e
000000c0: 88a9 4d3e fcec a9bd 26c6 06be a4e2 69be
000000d0: 38b2 0bbd 80d8 fcbb 8e30 4a3e f40c 6d3e
000000e0: ec1d b33d 28d5 fbbd 68f1 c1bd 4455 31be
000000f0: 9c4b 44be a05d 41bd 4cf8 ca3d 503a 2fbd
00000100: 0021 94ba 5cc1 1dbe f8ff 39be 02bf 633e
00000110: 80c4 da3c de99 503e dee7 3fbe a0a9 633e
00000120: 1221 2abe f6df 2b3e 6449 4abe 80a1 12bc
00000130: 72c9 1cbe 6092 70be c08c ea3c 6496 87bd
00000140: 0402 37be c250 28be a00b ca3d 60ca b0bd
00000150: 1c36 b3bd 36d1 433e e4bc 32be ba3f 0abe
00000160: f426 28be a061 79be de4f 3c3e daa7 1abe
00000170: 26e7 6fbe 987d 583e 4422 4c3e 8aa2 3dbe
00000180: 6c72 c73d 405e a2bd aadc 7e3e a42d 3abe
00000190: c8cf fb3d 340b e43d f2cb 1a3e b8c3 bbbd
000001a0: 6ad2 083e fc31 1cbe 70a8 633e a848 683d
000001b0: 80ba c03b 602d 3c3c 7045 5dbe 687d 0ebe
000001c0: 7807 ed3d c822 17be 30be 433e 10fc 713d
000001d0: b8c1 033d 3063 c4bd 80b8 f0bb c04b 803c
000001e0: 7a04 2fbe 88b8 7c3d 54af 61be ecdf 3bbe
000001f0: 00d3 5a3b bc16 f1bd 0c96 45be 4ca9 9fbd
00000200: dcae 32be 94f9 e1bd 1247 24be 6081 fabc
00000210: 76a1 5c3e a637 2dbe 942b 7abe 94cf 613e
00000220: 886c 18be ee31 0f3e 1877 733d cc46 d53d
00000230: badf 3c3e 7e0f 04be 8ac6 6f3e fcca b5bd
00000240: a440 363e 0c0d 063e 0e1b 74be 8c11 ad3d
00000250: d050 493d 8048 a6bd a491 7fbe 8aa3 4e3e
00000260: f44b 9cbd e038 94bc 909e 2ebd d241 253e
00000270: 4065 14be d8cc 05be f28a 163e e230 413e
00000280: 10c0 43be f493 8e3d 94c6 e33d 10de eebc
00000290: b44d 37be 4a49 453e 0099 69bd c028 7fbc
000002a0: a47b f1bd 04c0 d03d f85e 1cbe 1652 213e
000002b0: 80c6 923b e0a1 22bd f0aa 1cbe d27e 6bbe
000002c0: ac97 3bbe d89a 9a3d dcbb edbd aa81 67be
000002d0: fee4 133e 90cc e1bd 0cb4 863d 402d 013e
000002e0: b4ea 3fbe 467e 09be 5c9e d9bd 40e6 613c
000002f0: ba10 1fbe 20f2 dfbd 48d6 333e 1863 65be
00000300: 44c3 3e3e 2051 11bc 58de 8dbd 88f3 353e
00000310: a06b 383e 749a 4a3e 4043 7a3c b48e 343e
00000320: 0444 2c3e b8e0 4a3e 5c0c 98bd a642 5ebe
00000330: 4839 a5bd 184e 54be 6aea 36be a035 ab3c
00000340: 40d7 1dbd 32b4 163e 2c90 4d3e 761d 46be
00000350: 9803 ce3d 70ef 98bc 0e35 3abe 40f5 26bd
00000360: 6cd3 813d 0050 78bb a0da 99bd 68cb 393e
00000370: 9823 49bd 9c93 83bd fc6f 953d c2ad 1a3e
00000380: ae01 6b3e c4e5 3b3e 9492 5c3e 4047 2e3d
00000390: 000f 3c3b 8041 f3bb 2039 ef3c e63d 723e
000003a0: 9c23 59be 2cb1 ba3d 9e93 2dbe 284d 48bd
000003b0: 763f 523e b436 03be a22b 593e d86f 943d
000003c0: 5498 ad3d c038 82bc c805 d6bd 8a0b 5bbe
000003d0: ba3a 533e 3477 17be 506c 7c3e e4f5 05be
000003e0: b210 473e 2432 123e 0e81 6a3e 60ad 25bd
000003f0: 0484 c23d f075 813c bc27 213e 92c4 01be

bias f4 [16]
-0.17263901 0.03566137 0.22582805 0.029884785 -0.08448264 -0.07304934 -0.049388885 0.10986835
0.1757912 0.040552676 0.12697932 0.072467715 -0.054213166 -0.06346452 -0.034736395 -0.030385703
00000000: 48c8 30be a811 123d 783f 673e f0d0 f43c
00000010: 3c05 adbd e49a 95bd 004c 4abd a802 e13d
00000020: 9c02 343e 901a 263d de06 023e f469 943d
00000030: a00e 5ebd b0f9 81bd c047 0ebd 70eb f8bc

weight f4 [16, 16]
-0.17106485 -0.18957794 -0.18601802 0.24027702 0.091796815 0.15219125 0.20842996 -0.20608592
0.21554404 -0.14687514 -0.14517319 -0.19386801 0.12432054 0.05170977 0.23747486 -0.10830939
-0.24030125 -0.14611089 -0.23189774 0.06526956 -0.08146116 0.1921292 0.24127257 -0.07972965
0.13747752 -0.055618823 -0.14278877 -0.0017367601 0.1956265 0.18603766 -0.16896275 -0.23618758
-0.21782503 -0.21221146 -0.012531936 -0.20999211 0.021439433 0.14395186 -0.22328371 -0.044466108
0.16507733 -0.1504753 0.22203434 -0.052910924 -0.16556603 -0.12746811 0.22409317 -0.22920895
0.15278769 0.059092015 -0.077442676 0.1307641 -0.0507164 0.08365369 -0.15115279 -0.1382989
0.10281515 -0.05964786 -0.03744805 -0.14276224 0.24885494 0.21530586 -0.059758842 -0.16855514
-0.038095236 -0.1482361 0.16636574 -0.023566097 0.08295193 -0.0671241 -0.21711835 0.21944621
-0.015589386 0.10058877 -0.2390151 -0.20983517 0.041715026 0.032146424 0.13722762 -0.22220546
0.034383565 0.05507329 -0.07421106 0.10979906 -0.1756399 -0.06736925 0.23153865 0.18145248
0.14902365 0.117690206 -0.17544329 -0.05644247 0.025375426 0.053803593 -0.026676297 0.1890656
0.032105654 0.14392036 -0.23868328 0.1668221 -0.24403217 0.042753607 -0.15001306 -0.15728715
0.11798856 0.059079796 0.21547922 0.1946435 0.031788528 -0.24250951 -0.19555473 0.22114855
0.06302631 -0.10423544 -0.20655474 0.094115764 -0.048680097 0.1682725 -0.21712404 0.09786633
-0.018189013 0.19717771 -0.06497097 0.12205574 0.2300449 0.21923152 0.12589839 0.23526767
-0.16719085 -0.033767194 0.0069638193 -0.052300155 -0.083446175 -0.063733846 -0.046200514 0.23265532
0.026693791 0.091143966 -0.2187931 0.0917027 -0.17772639 0.11313599 0.09805459 0.03311771
-0.06441441 -0.03140968 0.050953776 -0.06995216 -0.07803765 0.0040360987 0.15717646 -0.0383783
-0.06656793 -0.06461787 -0.01783517 -0.16247308 0.18550673 -0.21603227 -0.0033774674 -0.14266098
-0.035536736 0.081487894 0.21890283 -0.1156356 0.15818027 -0.17154202 0.12048453 0.12568468
0.049821556 0.22807387 -0.2305673 0.115767 0.0033899844 0.22458434 0.1364375 0.07401565
-0.025912493 0.17957339 0.22101423 -0.019116193 -0.05944845 -0.21767366 -0.15685031 -0.18205667
0.18309876 -0.13336012 0.14827621 0.12503338 0.101472646 -0.111836255 0.15050116 0.14748135
-0.21041644 -0.21127215 -0.12183198 0.14076012 -0.004147321 -0.07719651 -0.107105374 0.041977346
0.083338976 0.12375772 0.19190654 -0.11504352 0.13375959 0.21489862 0.19896361 -0.18512926
-0.053169876 -0.075792015 0.21525761 -0.23862204 -0.0019379258 0.24580956 -0.060583472 -0.15829673
-0.24701878 -0.08265591 0.07569322 -0.18064094 0.1553306 -0.22350794 0.1127083 -0.19046724
-0.24596164 -0.04629892 0.026448548 -0.014128774 -0.072209746 -0.07502207 0.24207589 -0.02063933
-0.14764115 -0.18410024 0.06308016 -0.16611639 0.060975075 -0.1431962 0.00016331673 -0.1508613
-0.24591672 0.04806924 -0.010042399 0.09544635 -0.033524662 -0.2305969 0.0013084412 0.045129538
0.004959792 0.042604238 0.20446548 0.21987262 0.0016471744 -0.07544893 0.24960926 0.019272655
00000000: a02b 2fbe b820 42be 827b 3ebe 2e0b 763e
00000010: f8ff bb3d 06d8 1b3e aa6e 553e 3008 53be
00000020: 94b7 5c3e 7066 16be 48a8 14be 5685 46be
00000030: c49b fe3d a0cd 533d 9c2c 733e 50d1 ddbd
00000040: 8811 76be 189e 15be 9a76 6dbe 0cac 853d
00000050: 1cd5 a6bd 84bd 443e 2810 773e 4c49 a3bd
00000060: e8c6 0c3e 90d0 63bd 3837 12be 00a4 e3ba
00000070: 5052 483e a880 3e3e 9204 2dbe 28db 71be
00000080: 860d 5fbe f64d 59be c052 4dbc 2c08 57be
00000090: c0a1 af3c 1e68 133e 7ca4 64be 1822 36bd
000000a0: 080a 293e 3216 1abe f85c 633e 20b9 58bd
000000b0: 248a 29be 0087 02be ae78 653e c0b5 6abe
000000c0: 6074 1c3e 780a 723d 449a 9ebd 06e7 053e
000000d0: 00bc 4fbd a052 ab3d ccc7 1abe 3a9e 0dbe
000000e0: c090 d23d 5051 74bd 2063 19bd 4430 12be
000000f0: d4d3 7e3e 2479 5c3e b0c5 74bd b899 2cbe
00000100: c009 1cbd 34cb 17be c85b 2a3e b00d c1bc
00000110: b4e2 a93d 5c78 89bd 4654 5ebe 82b6 603e
00000120: a06a 7fbc 7c01 ce3d 60c0 74be 08df 56be
00000130: 60dd 2a3d f8ab 033d 6685 0c3e d489 63be
00000140: c8d5 0c3d 8894 613d f8fb 97bd 54de e03d
00000150: f2da 33be e4f8 89bd 7818 6d3e aece 393e
00000160: a899 183e 9007 f13d 68a7 33be 3830 67bd
00000170: 20e0 cf3c 2861 5c3d 4088 dabc 6a9a 413e
00000180: 3881 033d dc5f 133e 6469 74be 6ad3 2a3e
00000190: 92e3 79be 681e 2f3d 069d 19be e20f 21be
000001a0: fca3 f13d a8fd 713d 96a6 5c3e a050 473e
000001b0: b034 023d 6a54 78be 803f 48be c474 623e
000001c0: f013 813d 6479 d5bd 1683 53be c4bf c03d
000001d0: c864 47bd a04f 2c3e c455 5ebe 246e c83d
000001e0: 2001 95bc f4e8 493e 800f 85bd 5cf8 f93d
000001f0: e490 6b3e 3a7e 603e 82eb 003e 02ea 703e
00000200: 1434 2bbe 784f 0abd c030 e43b b038 56bd
00000210: d4e5 aabd e486 82bd c03c 3dbd 323d 6e3e
00000220: f0ac da3c b0a9 ba3d 4c0b 60be a0ce bb3d
00000230: e8fd 35be d8b3 e73d d8d0 c83d 70a6 073d
00000240: b4eb 83bd 70a7 00bd e8b4 503d 1443 8fbd
00000250: 34d2 9fbd 4041 843b def2 203e 9032 1dbd
00000260: c454 88bd 6056 84bd 101b 92bc 585f 26be
00000270: 7af5 3d3e 9037 5dbe 8058 5dbb b815 12be
00000280: f88e 11bd 20e3 a63d 1028 603e 5cd2 ecbd
00000290: 02fa 213e b6a8 2fbe 98c0 f63d 7cb3 003e
000002a0: b011 4c3d 328c 693e d619 6cbe 4017 ed3d
000002b0: 802a 5e3b 70f9 653e 46b6 0b3e 8495 973d
000002c0: 7046 d4bc 16e2 373e 8e51 623e 9099 9cbc
000002d0: 3880 73bd d8e5 5ebe 5e9d 20be 106d 3abe
000002e0: 3e7e 3b3e 8e8f 08be b8d5 173e c008 003e
000002f0: e4d0 cf3d 680a e5bd fa1c 1a3e 5a05 173e
00000300: 6877 57be ba57 58be 0c83 f9bd 6c23 103e
00000310: 40e6 87bb 3419 9ebd 105a dbbd 70f0 2b3d
00000320: a0ad aa3d b074 fd3d 2683 443e f09b ebbd
00000330: 46f8 083e 620e 5c3e 1ebd 4b3e 8692 3dbe
00000340: a8c8 59bd d838 9bbd 7e6c 5c3e 5659 74be
00000350: 0002 feba 80b5 7b3e 6026 78bd 8a18 22be
00000360: 7ef2 7cbe 8047 a9bd 0c05 9b3d f0f9 38be
00000370: fc0e 1f3e 44df 64be 9cd3 e63d d809 43be
00000380: 5edd 7bbe f0a3 3dbd a0aa d83c 607c 67bc
00000390: b4e2 93bd 2ca5 99bd bee2 773e d013 a9bc
000003a0: 3e2f 17be c684 3cbe 2c30 813d 6a1a 2abe
000003b0: 00c1 793d 06a2 12be 0040 2b39 627b 1abe
000003c0: 98d1 7bbe 40e4 443d e088 24bc 6079 c33d
000003d0: 2851 09bd 9821 6cbe 0080 ab3a c0d9 383d
000003e0: c085 a23b c881 2e3d 665f 513e 4a26 613e
000003f0: 00e6 d73a f884 9abd 9299 7f3e b0e1 9d3c

bias f4 [16]
-0.15501454 0.16714785 -0.082265556 0.13106123 0.062577605 -0.005992919 0.13906768 0.09893462
0.09162775 -0.04646626 0.14180213 0.19122908 0.22903511 -0.1362609 -0.0967941 -0.14424843
00000000: 22bc 1ebe ce28 2b3e d87a a8bd ea34 063e
00000010: b028 803d 4060 c4bb c267 0e3e 3c9e ca3d
00000020: 54a7 bb3d 6853 3ebd 9434 113e 8ed1 433e
00000030: 2e88 6a3e fa87 0bbe fc3b c6bd dcb5 13be

weight f4 [16, 16]
0.2231051 -0.008641005 0.019919872 0.0022307634 -0.100505054 -0.09361476 -0.0169757 -0.131401
-0.17859241 -0.21947894 0.022188604 -0.123551875 -0.14060837 0.16427523 0.04239565 -0.17426538
0.011828154 -0.06338039 -0.0048565567 0.029534489 -0.1130614 -0.04614851 -0.044074863 -0.044232756
0.16073412 0.21247458 -0.1064935 -0.06711823 0.09422779 0.19786528 0.15240616 -0.0991551
0.13205427 -0.15336117 0.21520597 -0.06493765 -0.16207057 0.16468042 -0.03236115 0.057504863
0.13624385 -0.023691803 -0.008998424 -0.20739704 -0.18502674 0.16798195 0.03887105 0.20034334
-0.045086384 -0.072319 -0.16117004 0.24589482 -0.02194786 -0.18355519 -0.16994405 0.06332496
0.10475749 0.107112706 0.16882452 0.18414894 0.15356559 -0.089873016 0.023127347 -0.15105519
0.00823772 -0.0011556745 -0.13987648 -0.23883358 -0.03482753 0.024288833 -0.14829618 0.12204602
0.2125391 0.0885824 0.15080106 -0.11831823 -0.12646931 -0.03204286 0.20383683 0.057554334
-0.24081174 -0.1747384 -0.14480343 -0.10558662 -0.06604609 0.19610912 0.24241343 0.15946838
0.05372268 0.1014891 -0.1986284 0.10368234 0.21152753 0.20071924 0.078160584 -0.18412349
-0.08210617 -0.026575 -0.12191787 0.1489521 0.20506486 0.09601015 0.050450236 -0.026900977
0.032509446 0.22882098 0.08590469 0.09765464 0.11319035 -0.033805758 0.13216415 -0.06835371
-0.054027498 -0.24718681 0.0613631 -0.088226825 -0.092519164 0.07153702 0.12616602 0.12549585
-0.24298161 0.17048079 -0.24007496 0.18465751 0.1530157 0.11096418 0.20316023 0.12917286
0.15728912 -0.19455013 0.0644595 0.09322736 0.20357078 0.13425985 0.22744668 -0.19079855
0.24120417 -0.17021552 -0.090345204 -0.058995157 0.09481883 0.19899869 -0.1166127 0.058665812
0.028905451 0.22354117 -0.20657432 0.029953659 0.19271913 -0.0042439103 0.09745115 -0.04654059
0.22607702 0.15243891 0.1268658 -0.03189501 -0.15443495 0.2112467 0.14779252 -0.16560927
0.12725046 0.114034265 0.03217143 0.24199352 0.22615865 0.012237728 0.039560735 0.24284509
-0.11014846 0.075071335 0.16681203 0.13094756 0.23176822 -0.14924303 -0.052289963 0.18728852
-0.2086522 0.018616408 0.24703786 -0.082585245 0.18119234 -0.22772747 0.01360631 0.082853705
0.004372716 -0.16105935 -0.01606673 -0.14493644 0.029259503 -0.24254498 0.22822371 -0.1182192
0.032579303 0.14594394 0.24034327 0.00842464 0.19678032 0.181108 -0.20644596 0.14608163
-0.12741533 0.06693274 0.15271422 0.033668995 -0.21530291 0.22103342 0.01752013 0.19828469
-0.14180693 0.19986871 0.16519901 0.2231862 -0.13985303 0.027847707 -0.019103914 0.08234975
-0.058978498 -0.18135661 0.05250272 0.10244128 0.05083087 -0.18254933 0.1881572 0.053858697
0.07533261 0.13031 0.16404769 0.019285828 0.14081642 -0.06475368 0.21388915 0.2071929
-0.17177811 0.19329739 0.22932407 -0.20820847 -0.004956126 0.115645826 -0.13487849 -0.09442887
0.016746491 -0.12889278 0.22741047 0.21295625 -0.23812264 -0.06750643 -0.2456783 0.071887314
0.099782735 -0.04995027 -0.071017 0.2285884 0.00830403 0.18586734 -0.051173866 0.1381866
00000000: aa75 643e 0093 0dbc 002f a33c 0032 123b
00000010: 98d5 cdbd 18b9 bfbd a010 8bbc fc8d 06be
00000020: eee0 36be 16bf 60be e0c4 b53c c408 fdbd
00000030: a4fb 0fbe c437 283e 10a7 2d3d a072 32be
00000040: e0ca 413c 94cd 81bd c023 9fbb 50f2 f13c
00000050: bc8c e7bd 3806 3dbd d887 34bd 682d 35bd
00000060: 7c97 243e f092 593e 4419 dabd 4875 89bd
00000070: 80fa c03d 329d 4a3e 5c10 1c3e d411 cbbd
00000080: 3c39 073e b60a 1dbe f45e 5c3e 08fe 84bd
00000090: d4f5 25be fca1 283e 208d 04bd 388a 6b3d
000000a0: 8283 0b3e 5015 c2bc 206e 13bc e45f 54be
000000b0: a677 3dbe 7603 2c3e 4037 1f3d ce26 4d3e
000000c0: 80ac 38bd fc1b 94bd c209 25be dacb 7b3e
000000d0: 00cc b3bc e4f5 3bbe d005 2ebe 84b0 813d
000000e0: 188b d63d e85d db3d 56e0 2c3e 8a91 3c3e
000000f0: 4c40 1d3e 580f b8bd 9075 bd3c 36ae 1abe
00000100: 80f7 063c 007a 97ba c83b 0fbe ca90 74be
00000110: 50a7 0ebd 60f9 c63c f4da 17be 44f3 f93d
00000120: daa3 593e b06a b53d 986b 1a3e d450 f2bd
00000130: 2c81 01be 603f 03bd 9aba 503e 18be 6b3d
00000140: 5a97 76be a0ee 32be 5a47 14be cc3d d8bd
00000150: 2c43 87bd d4d0 483e 3a3b 783e ae4b 233e
00000160: 500c 5c3d 84d9 cf3d 3e65 4bbe 6857 d43d
00000170: ac9a 583e 5889 4d3e a812 a03d de8a 3cbe
00000180: 4827 a8bd d0b3 d9bc 14b0 f9bd e686 183e
00000190: 86fc 513e f8a0 c43d e8a4 4e3d 705f dcbc
000001a0: a028 053d 0c50 6a3e ccee af3d 28ff c73d
000001b0: 58d0 e73d e877 0abd 0a56 073e 08fd 8bbd
000001c0: f04b 5dbd 8a1e 7dbe e057 7b3d 44b0 b4bd
000001d0: b07a bdbd 0082 923d aa31 013e fc81 003e
000001e0: 2cd0 78be 8492 2e3e 36d6 75be dc16 3d3e
000001f0: 26b0 1c3e 3041 e33d 3c09 503e e445 043e
00000200: 6610 213e 2638 47be 5803 843d fced be3d
00000210: dc74 503e 6a7b 093e c8e7 683e b260 43be
00000220: 3afe 763e fa4c 2ebe e806 b9bd e8a4 71bd
00000230: 6030 c23d 50c6 4b3e a4d2 eebd 904b 703d
00000240: 20cb ec3c fae7 643e 3888 53be 6061 f53c
00000250: 2a58 453e 8010 8bbb 7894 c73d 58a1 3ebd
00000260: bc80 673e f218 1c3e 1ce9 013e 58a4 02bd
00000270: 3224 1ebe 0e51 583e ec56 173e 7a95 29be
00000280: f24d 023e cc8a e93d 30c6 033d 26cd 773e
00000290: 2296 673e c080 483c 700a 223d 62ac 783e
000002a0: 8495 e1bd 00bf 993d c6d0 2a3e 1e17 063e
000002b0: a654 6d3e 2ad3 18be 002e 56bd 90c8 3f3e
000002c0: eca8 55be 7081 983c 7ef7 7c3e 7422 a9bd
000002d0: 7c8a 393e 6431 69be 00ed 5e3c 34af a93d
000002e0: 0049 8f3b beec 24be 609e 83bc 386a 14be
000002f0: a0b1 ef3c b65d 78be 7ab3 693e e81c f2bd
00000300: e071 053d 5472 153e 8c1c 763e 8007 0a3c
00000310: c880 493e 6074 393e 9266 53be 6c96 153e
00000320: 2a79 02be 0814 893d 1e61 1c3e 80e8 093d
00000330: 5e78 5cbe 9656 623e 6086 8f3c 240b 4b3e
00000340: d635 11be 62aa 4c3e ee29 293e ec8a 643e
00000350: a235 0fbe e020 e43c d07f 9cbc fca6 a83d
00000360: 7093 71bd 8cb5 39be 180d 573d bccc d13d
00000370: 0834 503d 36ee 3abe 48ac 403e f09a 5c3d
00000380: fc47 9a3d fc6f 053e 1efc 273e 50fd 9d3c
00000390: 2e32 103e 949d 84bd c205 5b3e 602a 543e
000003a0: 9ae6 2fbe c0ef 453e eed3 6a3e 9a34 55be
000003b0: 0067 a2bb b8d7 ec3d 961d 0abe ec63 c1bd
000003c0: f02f 893c 78fc 03be 4ade 683e 3411 5a3e
000003d0: 6cd6 73be d040 8abd 1893 7bbe a839 933d
000003e0: e45a cc3d a898 4cbd 5c71 91bd 1413 6a3e
000003f0: a00d 083c 0254 3e3e b09b 51bd ca80 0d3e

bias f4 [16]
-0.04913619 0.1291075 -0.10261828 0.081667274 0.121959955 0.20922682 0.08366904 -0.0071748197
0.035603017 -0.12578234 0.114352435 -0.2053966 0.058227688 -0.112353325 -0.023734897 -0.10204801
00000000: 0843 49bd c234 043e 8829 d2bd 2c41 a73d
00000010: 24c6 f93d 8e3f 563e ac5a ab3d c01a ebbb
00000020: 78d4 113d 16cd 00be 9c31 ea3d 7c53 52be
00000030: 2880 6e3d 8019 e6bd b06f c2bc 8cfe d0bd

weight f4 [16, 16]
0.20997334 -0.15797853 0.14041299 -0.10506719 -0.09402907 0.09227976 -0.22669679 0.21292937
-0.100604594 0.17823204 -0.18836156 -0.017080247 0.06290457 0.08652556 -0.24004892 0.11091024
-0.07043874 -0.21495318 -0.018121094 -0.12978199 -0.04441139 -0.17000267 -0.10896656 0.18698531
-0.023788482 -0.008161962 -0.17621043 0.13878167 0.16437137 0.19815838 0.24186075 0.042091995
0.08684486 0.065071315 -0.04476878 -0.16585329 0.09016922 0.18119767 -0.20608342 0.072547704
-0.1691024 0.12240076 -0.12602127 -0.07626 -0.19373804 -0.13271627 -0.16187209 0.14950469
-0.06149435 0.03526908 -0.010934323 0.1570996 -0.14159924 -0.10109919 -0.048486233 0.029242605
-0.015395492 0.07935062 0.040158004 -0.034733176 -0.16005379 -0.13233632 0.04689014 -0.1507304
0.027762234 -0.1673241 -0.20694962 -0.119562626 -0.1679022 -0.21872464 -0.18793684 0.10120249
0.018828869 -0.08810356 0.110079855 -0.20587382 -0.15732706 -0.023754358 -0.0030811727 -0.13206047
0.21830106 0.08802664 0.00044247508 0.05197081 0.20951465 -0.18914753 0.04276964 -0.16980058
-0.0039207637 -0.041946083 0.2427699 0.16413832 -0.24228573 0.07167274 0.12309271 0.07729539
-0.006061703 -0.07181832 0.10650197 0.049613237 0.16645935 0.055007756 0.08368787 0.04125318
-0.18133014 0.041199982 -0.19894502 0.09853503 0.190837 -0.11199784 0.1924651 0.08491194
-0.08242485 -0.114123166 -0.0985049 -0.013229132 -0.101388186 -0.24369398 -0.24252155 0.09431219
-0.005599588 0.20580554 -0.107996255 -0.07135934 -0.12070662 -0.10557294 -0.1493527 0.18036512
-0.10305762 -0.09898788 -0.09515107 0.0008841455 0.0062989295 -0.17617479 0.18776011 0.09669241
0.18931732 -0.0031443834 0.1462628 0.17024666 -0.052387774 0.084077 0.20250553 0.17826888
0.16818368 -0.24579787 -0.118459135 0.012858212 0.08769527 -0.08361909 0.22120759 0.2074362
-0.12271935 -0.12597859 0.13385227 0.19433644 -0.1910162 -0.05758822 -0.1933837 0.21504402
-0.0822587 0.06793231 -0.0664272 -0.119846165 0.20091513 0.04612562 0.09031156 -0.17768016
0.06258869 -0.055176347 0.097029954 -0.23889652 0.0024622083 -0.20613405 -0.05189714 0.108634055
-0.0065406263 -0.1952804 -0.0019593835 -0.03567508 0.062369943 0.16499013 0.079413116 -0.18781272
-0.026563168 0.106690854 -0.15326542 -0.23760125 -0.15870193 0.09005007 -0.12692454 0.09409037
-0.2007972 -0.12967741 -0.15806311 -0.059180647 -0.055031538 -0.19207874 0.0015876889 -0.08426529
0.18884692 -0.07749674 0.22335368 -0.21340114 -0.13200054 0.0665676 -0.019078583 -0.16419551
0.06243792 0.19561848 -0.21409008 -0.19664338 -0.069583684 0.053613275 0.20934609 0.21003467
-0.0058116615 0.044445068 0.24086347 -0.13228849 -0.1038824 0.07715264 0.0023544729 -0.1378923
-0.039607555 0.18888652 0.20057678 -0.10318795 0.1611954 0.16010183 0.1315592 -0.07932073
-0.11990434 -0.096092284 0.07449272 0.15833032 -0.11137098 -0.12717 0.20673442 -0.1109454
0.10830718 0.21826285 0.059971303 -0.20514879 0.22127002 0.0631448 0.02925098 -0.16014025
0.16341892 0.050600708 0.18637148 0.050067604 0.097572386 0.071930856 0.09455836 0.24131572
00000000: 4003 573e 20c5 21be 6cc8 0f3e 782d d7bd
00000010: 5092 c0bd 2cfd bc3d 3423 68be 280a 5a3e
00000020: c809 cebd 7682 363e dae1 40be e0eb 8bbc
00000030: 1cd4 803d 5034 b13d 62cf 75be e824 e33d
00000040: 3042 90bd b01c 5cbe b072 94bc 92e5 04be
00000050: b8e8 35bd 2e15 2ebe dc29 dfbd 1479 3f3e
00000060: 10e0 c2bc c0b9 05bc 8270 34be c81c 0e3e
00000070: f850 283e 08ea 4a3e 58aa 773e a868 2c3d
00000080: b8db b13d 1c44 853d 785f 37bd 72d5 29be
00000090: a4aa b83d e28b 393e 8807 53be e493 943d
000000a0: 2e29 2dbe 40ad fa3d b80b 01be 342e 9cbd
000000b0: 4463 46be c6e6 07be ccc1 25be c217 193e
000000c0: 80e1 7bbd 5076 103d e025 33bc b8de 203e
000000d0: 64ff 10be 180d cfbd 8099 46bd 308e ef3c
000000e0: 603d 7cbc 9482 a23d b87c 243d 6044 0ebd
000000f0: 24e5 23be 2c83 07be e00f 403d 1259 1abe
00000100: a06d e33c 0257 2bbe 9aea 53be 40dd f4bd
00000110: 8eee 2bbe 5af9 5fbe 8472 40be 4043 cf3d
00000120: 003f 9a3c a46f b4bd 8c71 e13d 96d0 52be
00000130: 581a 21be 8098 c2bc 80ed 49bb dc3a 07be
00000140: 508a 5f3e 5047 b43d 00fc e739 58df 543d
00000150: 028b 563e e4af 41be 382f 2f3d 34e0 2dbe
00000160: c079 80bb a8cf 2bbd ac98 783e e013 283e
00000170: c019 78be 28c9 923d 0818 fc3d 0c4d 9e3d
00000180: 40a1 c6bb 7c15 93bd b41d da3d 4037 4b3d
00000190: 5274 2a3e d04f 613d 8c64 ab3d 18f9 283d
000001a0: 9cae 39be 50c1 283d 3eb8 4bbe bccc c93d
000001b0: c66a 433e 205f e5bd 9215 453e 50e6 ad3d
000001c0: 5cce a8bd 68b9 e9bd f0bc c9bd 00bf 58bc
000001d0: 9ca4 cfbd ea8a 79be 9257 78be c026 c13d
000001e0: c07c b7bb b0be 523e 242d ddbd d824 92bd
000001f0: 0835 f7bd a036 d8bd eaef 18be a2b1 383e
00000200: e00f d3bd 28ba cabd 90de c2bd 00c6 673a
00000210: 4067 ce3b 2a67 34be 3044 403e ac06 c63d
00000220: 66dc 413e 0012 4ebb eac5 153e 2455 2e3e
00000230: 9094 56bd 9030 ac3d 9c5d 4f3e 1e8c 363e
00000240: 5838 2c3e 70b2 7bbe b49a f2bd 40ab 523c
00000250: 9499 b33d 7c40 abbd 3e84 623e 286a 543e
00000260: 4854 fbbd 8800 01be 9210 093e 2200 473e
00000270: c099 43be a0e1 6bbd 6006 46be 8034 5c3e
00000280: 4077 a8bd 1820 8b3d fc0a 88bd e871 f5bd
00000290: b2bc 4d3e 38ee 3c3d 44f5 b83d caf1 35be
000002a0: 802e 803d 9800 62bd a4b7 c63d 4aa1 74be
000002b0: 005d 213b ce14 53be 1892 54bd 887b de3d
000002c0: c052 d6bb 96f7 47be 0069 00bb 0820 12bd
000002d0: a077 7f3d 2cf3 283e 58a3 a23d fa51 40be
000002e0: 009b d9bc bc80 da3d 9cf1 1cbe be4d 73be
000002f0: c282 22be 2c6c b83d 82f8 01be 74b2 c03d
00000300: c89d 4dbe 28ca 04be 4cdb 21be 6867 72bd
00000310: c068 61bd 4ab0 44be 001a d03a 4893 acbd
00000320: 1661 413e 9cb6 9ebd d4b6 643e d485 5abe
00000330: 262b 07be 9854 883d b04a 9cbc de22 28be
00000340: e8be 7f3d 3650 483e 6e3a 5bbe e25c 49be
00000350: e481 8ebd 9899 5b3d d25e 563e 5413 573e
00000360: c06f bebb 080c 363d eaa4 763e a276 07be
00000370: 4cc0 d4bd 3402 9e3d 804d 1a3b a433 0dbe
00000380: 883b 22bd 786b 413e 0064 4d3e 3454 d3bd
00000390: 6810 253e bcf1 233e 74b7 063e e872 a2bd
000003a0: 6890 f5bd 08cc c4bd a48f 983d 5821 223e
000003b0: 7816 e4bd da38 02be 30b2 533e 5837 e3bd
000003c0: 28d0 dd3d 4c80 5f3e 78a4 753d 8612 52be
000003d0: 9c94 623e 1052 813d c09f ef3c cefb 23be
000003e0: 4a57 273e b042 4f3d 2ad8 3e3e b013 4d3d
000003f0: 08d4 c73d 7c50 933d d0a7 c13d 781b 773e

bias f4 [16]
0.07404834 -0.03614366 0.20431778 0.04480028 -0.22379673 0.02931726 0.012636781 -0.099185586
0.034448147 -0.19241905 -0.013669789 -0.014776289 0.2291255 -0.22043687 0.20241147 0.018389404
00000000: a8a6 973d 600b 14bd ae38 513e 8080 373d
00000010: f82a 65be c02a f03c 800a 4f3c d021 cbbd
00000020: 8019 0d3d 8009 45be 40f7 5fbc 4018 72bc
00000030: e09f 6a3e 34ba 61be f444 4f3e 60a5 963c

weight f4 [16]
0.1847207 0.037112534 -0.14392984 -0.074089944 -0.22436813 0.09333572 0.15819767 -0.13888896
-0.018713117 -0.08120224 0.09582442 0.13309154 0.015673667 -0.14317188 0.24287042 0.19227993
00000000: 6c27 3d3e 5003 183d 5862 13be 78bc 97bd
00000010: c2c0 65be cc26 bf3d 92fe 213e e838 0ebe
00000020: 404c 99bc 5c4d a6bd 983f c43d 2649 083e
00000030: 1066 803c a69b 12be 06b3 783e 08e5 443e

bias f4 [16]
0.09445137 0.18378493 0.026012957 0.03830567 0.04352683 -0.13560656 0.24250549 0.10813686
0.03613186 0.08058211 -0.22967154 -0.1042743 -0.0911524 0.16922271 0.23447937 -0.24609306
00000000: b86f c13d 1e32 3c3e 2019 d53c 68e6 1c3d
00000010: 3049 323d 72dc 0abe 5c53 783e dc76 dd3d
00000020: 00ff 133d 3c08 a53d 042f 6bbe c48d d5bd
00000030: 1cae babd b848 2d3e 5c1b 703e d2ff 7bbe

weight f4 [256, 16]
0.19453764 -0.24480826 -0.09401208 0.22777572 0.14766395 -0.011552095 0.20863679 -0.046049386
-0.24446478 0.078392506 -0.136789 0.16247323 -0.031537473 -0.16817051 -0.19309512 0.0149849355
0.0032755136 0.15855724 0.23585266 0.23753148 0.06828797 -0.0374991 -0.0580239 0.23219451
0.19440398 -0.024518251 -0.0026179552 0.105241686 0.00200212 -0.19809169 -0.092613846 0.0071375966
-0.015503943 -0.22867331 -0.007021606 0.009174317 -0.050411493 -0.18698433 0.17641404 0.21511501
0.09274495 0.18007436 -0.23029208 -0.011621952 -0.032888442 0.043074608 -0.13910997 -0.16587496
0.053105086 -0.24845463 0.0007957518 0.12627146 -0.14864281 0.10302612 -0.20432949 0.11193523
-0.0051468015 -0.21217933 -0.119131535 0.24382508 -0.10659236 0.24067575 -0.00022658706 -0.0023490787
0.093601316 0.057718694 0.20218381 -0.0166291 -0.01885593 -0.15818077 -0.23390016 -0.24560446
-0.028461188 0.15730503 0.13069731 0.011045933 0.19835073 0.06882164 0.23682293 -0.23199096
-0.07813847 0.16418585 0.16300091 -0.050342977 -0.15088728 0.084116906 -0.23049697 0.1135537
0.23635218 -0.20403317 -0.016557395 -0.14880592 0.23764837 -0.06853208 -0.19942418 -0.11098391
0.23775864 0.14293352 -0.18169287 0.21069616 -0.07448059 -0.18987086 0.108712584 -0.18244436
-0.10962534 -0.23159719 0.076025605 0.1210804 0.20570108 0.0787442 0.08884999 -0.008638263
-0.24969086 0.23312104 0.23644003 0.010740191 -0.044873893 -0.032760173 0.13318765 0.15089324
-0.17222026 0.018233508 -0.19027638 0.22173274 0.11181113 0.13177958 0.24857709 -0.019931823
-0.21371081 0.08505002 0.15642929 0.2240369 -0.109618574 0.100789815 0.11263627 0.08860028
0.22746488 0.09568611 -0.085728705 -0.18797284 -0.010473728 0.092679024 -0.2201727 -0.21550706
-0.05944386 0.24618983 -0.0574269 0.07503536 0.16363764 0.24662289 -0.03279829 -0.2247087
0.20823014 -0.22891414 -0.09118757 -0.14079243 -0.06330806 -0.06744087 -0.031561166 0.11113691
0.18686292 -0.110212594 0.08950055 -0.14610738 0.06316781 -0.1094462 -0.22973478 -0.22439632
0.11898303 -0.2175188 -0.004960984 -0.23193043 0.031148016 -0.18686986 -0.13514712 -0.23620114
0.16617295 -0.18784332 -0.15899628 -0.1026234 -0.16334325 0.08751041 0.039070398 0.08885443
0.021651536 -0.010346353 0.03435248 0.1851652 0.16874275 -0.23407766 -0.1869058 -0.17512476
-0.0034067035 -0.040166855 0.21488082 0.08764541 0.011617631 -0.23547816 -0.16686106 -0.13122171
0.06079349 -0.0043536127 -0.012623727 0.008747727 0.041365832 -0.077325135 -0.10243356 0.1979501
0.16910443 -0.08185029 -0.2163389 -0.005696237 0.1324411 -0.20131269 -0.16528568 -0.028461903
-0.0031496584 -0.050293624 -0.1793507 -0.15623096 -0.08165997 0.02193436 0.12549073 -0.15810943
0.07269174 0.077133924 -0.020168751 0.09401348 -0.22705403 0.017977536 0.23337933 -0.17956316
0.024796009 -0.24526572 0.20893106 -0.074227065 -0.1387642 -0.11750159 0.0040418804 -0.13735738
-0.09186947 -0.1229572 0.18594486 0.22129294 0.13708436 -0.24943256 -0.13614747 0.12297967
-0.035513937 -0.245971 -0.15005708 0.17493552 -0.08010739 0.070552856 0.12352878 0.037413985
00000000: e034 473e 04af 7abe 6889 c0bd 0a3e 693e
00000010: 3835 173e 0045 3dbc e2a4 553e 489e 3cbd
00000020: fa54 7abe 408c a03d 6a12 0cbe 625f 263e
00000030: 702d 01bd e434 2cbe baba 45be 6083 753c
00000040: 00aa 563b d45c 223e 5c83 713e 743b 733e
00000050: 90da 8b3d a898 19bd 78aa 6dbd 66c4 6d3e
00000060: d611 473e 80da c8bc 0092 2bbb f488 d73d
00000070: 0036 033b 8cd8 4abe 54ac bdbd 80e2 e93b
00000080: 4004 7ebc 5629 6abe 8015 e6bb e04f 163c
00000090: 487c 4ebd d278 3fbe e2a5 343e 1c47 5c3e
000000a0: 10f1 bd3d 6a65 383e b0d1 6bbe 006a 3ebc
000000b0: 08b6 06bd 006f 303d d872 0ebe 20db 29be
000000c0: b884 593d e46a 7ebe 009a 503a 4e4d 013e
000000d0: d235 18be 5cff d23d c03b 51be 4c3e e53d
000000e0: 80a6 a8bb 8a45 59be 3cfb f3bd 48ad 793e
000000f0: 184d dabd b473 763e 0098 6db9 00f3 19bb
00000100: 0cb2 bf3d 706a 6c3d 4609 4f3e c039 88bc
00000110: c077 9abc 24fa 21be 8683 6fbe bc7f 7bbe
00000120: 7027 e9bc 9214 213e 84d5 053e 00fa 343c
00000130: 741c 4b3e 5cf2 8c3d b681 723e 0a8f 6dbe
00000140: 1007 a0bd 5620 283e b6e9 263e 7034 4ebd
00000150: 3282 1abe 7c45 ac3d 6607 6cbe d88e e83d
00000160: 4e06 723e 12ee 50be 60a3 87bc 9460 18be
00000170: 185a 733e 8c5a 8cbd da35 4cbe 884b e3bd
00000180: 0077 733e 2a5d 123e b20d 3abe bcc0 573e
00000190: 4889 98bd 826d 42be b4a4 de3d b2d2 3abe
000001a0: 4083 e0bd d027 6dbe 50b3 9b3d 00f9 f73d
000001b0: 4ea3 523e a444 a13d fcf6 b53d 8087 0dbc
000001c0: f6ae 7fbe 48b7 6e3e 561d 723e a0f7 2f3c
000001d0: b0cd 37bd 882f 06bd 5862 083e c283 1a3e
000001e0: 825a 30be 705e 953c d0d7 42be e80d 633e
000001f0: 3cfd e43d 3af1 063e fe8a 7e3e 1048 a3bc
00000200: 02d7 5abe b42e ae3d 002f 203e ee69 653e
00000210: b47f e0bd e46a ce3d d8ad e63d 1074 b53d
00000220: 8eec 683e 14f7 c33d 8892 afbd f47b 40be
00000230: 009a 2bbc 80ce bd3d f474 61be e2ad 5cbe
00000240: 687b 73bd 3019 7c3e 7838 6bbd 24ac 993d
00000250: a090 273e b68a 7c3e 8057 06bd 0a1a 66be
00000260: 483a 553e 7868 6abe 8cc0 babd e42b 10be
00000270: a8a7 81bd 701e 8abd 4846 01bd c09b e33d
00000280: fe58 3f3e 24b7 e1bd 104c b73d 2c9d 15be
00000290: 205e 813d 5425 e0bd 983f 6bbe 26c8 65be
000002a0: 60ad f33d 40bd 5ebe c08f a2bb 2c7f 6dbe
000002b0: 202a ff3c d05a 3fbe 0264 0abe b6de 71be
000002c0: 3e29 2a3e 005a 40be eccf 22be 382c d2bd
000002d0: 7443 27be a838 b33d 4808 203d 50f9 b53d
000002e0: 905e b13c c083 29bc 30b5 0c3d f29b 3d3e
000002f0: e6ca 2c3e 0eb2 6fbe 3c64 3fbe e853 33be
00000300: 0043 5fbb 0086 24bd b809 5c3e 707f b33d
00000310: e057 3e3c 3021 71be a0dd 2abe fc5e 06be
00000320: 9802 793d c0a8 8ebb c0d3 4ebc a052 0f3c
00000330: 386f 293d a45c 9ebd b0c8 d1bd 6eb3 4a3e
00000340: b629 2d3e 20a1 a7bd f287 5dbe 80a7 babb
00000350: a49e 073e ea24 4ebe a640 29be f028 e9bc
00000360: 806a 4ebb b000 4ebd b6a7 37be 02fb 1fbe
00000370: 583d a7bd b0af b33c a480 003e 70e7 21be
00000380: 68df 943d 64f8 9d3d f038 a5bc 248a c03d
00000390: da80 68be a045 933c fefa 6e3e 68df 37be
000003a0: 0021 cb3c f026 7bbe 06f2 553e 5c04 98bd
000003b0: 3418 0ebe aca4 f0bd c071 843b 6aa7 0cbe
000003c0: 1026 bcbd fcd0 fbbd 5468 3e3e 9e9a 623e
000003d0: d85f 0c3e 406b 7fbe 3e6a 0bbe c4dc fb3d
000003e0: 1077 11bd d2df 7bbe 90a8 19be 4c22 333e
000003f0: 580f a4bd 047e 903d a8fc fc3d 683f 193d
