rust/model_store/core_bolcom_c10000_t50_eager.pth (torch, 743419 bytes, 37 tensors)

weight f4 [10000, 16]
0	0xbe6c9a3e	-0.23105714
1	0x3e6d429e	0.23169944
2	0xbd80b094	-0.062836796
3	0xbe3e6d76	-0.18596444
4	0xbd3622f8	-0.044466943
5	0xbde6a560	-0.112620115
6	0x3db2e628	0.08735305
7	0xbe45176c	-0.19247216
8	0x3dad8558	0.08472699
9	0xbd3016d8	-0.042990535
10	0x3e018102	0.12646869
11	0x3dd9901c	0.1062319
12	0x3d1b4358	0.03790602
13	0xbe464298	-0.19361341
14	0x3d4d9068	0.050186545
15	0x3d89fa54	0.067371994
16	0x3e678668	0.22609866
17	0xbe0b6012	-0.13610867
18	0xbe343c58	-0.17601144
19	0xbd0f3208	-0.034959823
20	0xbe7881c0	-0.24268246
21	0xbdc6ddbc	-0.09710261
22	0x3bc47400	0.0059952736
23	0x3dbb529c	0.09146616
24	0xbdfa5b94	-0.122244984
25	0xbd5207f0	-0.0512771
26	0xbd230308	-0.039797813
27	0xbdb42738	-0.08796543
28	0x3d8535e4	0.065044194
29	0x3e5513ae	0.20808288
30	0x3db68aec	0.08913216
31	0x3e20e742	0.15713218
32	0x3e7f08bc	0.24905676
33	0x3e14d14a	0.14532962
34	0x3c8a01c0	0.016846538
35	0xbdd5c49c	-0.10437891
36	0xbd55a870	-0.052162588
37	0xbe64b7de	-0.22335765
38	0x3e7f58f6	0.2493628
39	0xbd9352a8	-0.071935
40	0xbe2e7054	-0.17035037
41	0x3d93435c	0.07190582
42	0xbd5cefa0	-0.05393946
43	0x3e65d746	0.22445402
44	0x3dda4384	0.10657409
45	0x3d996ab8	0.07491058
46	0x3e29a3fe	0.16566464
47	0x3d4b6d70	0.049664915
48	0x3e678492	0.22609165
49	0xbe73c2b2	-0.23804739
50	0x3de66a4c	0.11250743
51	0x3d2ce4c0	0.04221034
52	0x3e66c7c0	0.22537136
53	0x3c992cd0	0.018698126
54	0xbcdb6e00	-0.02678585
55	0xbe53c05c	-0.20678848
56	0xbe6d4fa8	-0.23174918
57	0x3e71bffe	0.23608395
58	0x3e12ca0e	0.1433489
59	0xbd6b7428	-0.057483822
60	0xbdcf6a98	-0.10127753
61	0xbd6dbe40	-0.058042765
62	0x3d044028	0.032287747
63	0xbde36e48	-0.11105019
64	0x3e3ec1c8	0.18628609
65	0xbca8ec00	-0.020620346
66	0xbe149a30	-0.14511943
67	0x3d78c7a0	0.060737252
68	0xbdd0a5cc	-0.10187873
69	0xbe66731c	-0.22504848
70	0xbe373482	-0.17891124
71	0x3e09e9f4	0.13468152
72	0x3d3426a0	0.04398215
73	0x3e2a7324	0.16645485
74	0xbe02f4b0	-0.12788653
75	0x3e3b45e6	0.18288383
76	0x3bb44f00	0.0055025816
77	0x3e3004ac	0.17189282
78	0x3c9cc3a0	0.01913625
79	0xbdcb9de8	-0.099422276
80	0xbe58bdd6	-0.21166167
81	0x3d922e9c	0.07137796
82	0xbe6c93be	-0.23103234
83	0x3d97fb28	0.07420951
84	0x3e64742a	0.22309938
85	0xbe2ece0c	-0.17070788
86	0x3c527340	0.012844861
87	0xbe49e6fc	-0.1971702
88	0xbe1f57e8	-0.15560877
89	0xbd263190	-0.04057461
90	0xbe7f12d0	-0.2490952
91	0xbce07aa0	-0.027402222
92	0xbd1bb418	-0.038013548
93	0xbe0948bc	-0.13406652
94	0xbdfd23f4	-0.12360373
95	0x3e65ba70	0.22434402
96	0xbd6b7420	-0.057483792
97	0x3e273f4a	0.16332737
98	0xbe4a89e6	-0.19779167
99	0xbbf5f1c0	-0.0075056255
100	0x3de6d0f4	0.112703234
101	0x3d7e7310	0.06212145
102	0x3e68b9cc	0.22727126
103	0xbd87539c	-0.06607744
104	0xbe261cf4	-0.16221982
105	0x3e3f4cb6	0.18681607
106	0xbe631c70	-0.22178817
107	0x3e347960	0.17624426
108	0x3e7e14a4	0.24812561
109	0x3e27a438	0.16371238
110	0x3e35941a	0.17732278
111	0x3d6f95e8	0.05849257
112	0x3e2e067a	0.16994658
113	0x3e670240	0.22559452
114	0xbe5ef996	-0.21774897
115	0x3dd9a610	0.10627377
116	0xbc4fabe0	-0.012675256
117	0xbde41b10	-0.11137974
118	0x3d597478	0.05308959
119	0xbe70c67e	-0.23513219
120	0xbdea79ec	-0.11449036
121	0x3e0740f2	0.13208368
122	0xbd3b9ad8	-0.045801967
123	0xbe15978c	-0.14608592
124	0x3de644f0	0.112436175
125	0x3e711d2a	0.23546281
126	0x3d8cf988	0.06883532
127	0x3e30aa92	0.17252567
128	0xbda5ad64	-0.08089712
129	0x3da22190	0.07916558
130	0xbd8bf490	-0.06833756
131	0x3e6ccec8	0.23125756
132	0xbd947bd8	-0.07250184
133	0x3dd9d784	0.106368095
134	0x3cb659c0	0.022259593
135	0xbe2b43b0	-0.1672504
136	0x3d6070a0	0.054794908
137	0xbe42e77c	-0.19033617
138	0x3e6928e4	0.22769505
139	0xbe55b52c	-0.20869893
140	0xbe45bcf6	-0.19310364
141	0x3e653260	0.22382498
142	0x3d809104	0.062776595
143	0x3e44af50	0.19207501
144	0x3d8d47e8	0.06898481
145	0x3e1ac982	0.15115932
146	0xbe339d48	-0.17540467
147	0x3c89f1e0	0.016838968
148	0xbe2d6084	-0.16931349
149	0x3e39ea12	0.18155697
150	0x3d8744dc	0.06604931
151	0xbe74b32e	-0.23896477
152	0xbdd42588	-0.10358721
153	0xbe461a20	-0.19345903
154	0x3c4fa1c0	0.012672842
155	0xbd6ec228	-0.05829063
156	0x3e45f4f8	0.1933173
157	0xbe775678	-0.24154079
158	0x3e39e9ec	0.1815564
159	0xbcf9ada0	-0.030478299
160	0x3d01cf18	0.03169164
161	0xbe677120	-0.22601748
162	0xbde67b4c	-0.11253986
163	0x3e515fec	0.20446748
164	0xbe3c2f48	-0.18377411
165	0x3af42e00	0.0018629432
166	0x3db0e278	0.086369455
167	0xbd33ed80	-0.04392767
168	0xbdd02680	-0.10163593
169	0xbdab04f0	-0.08350551
170	0xbe3e2aaa	-0.18570963
171	0x3c26b860	0.010175794
172	0xbdfa9f7c	-0.122374505
173	0xbdebed90	-0.11519921
174	0xbe6ff16a	-0.23431936
175	0xbd870068	-0.06591874
176	0x3de97af4	0.114004046
177	0xbe605c44	-0.21910197
178	0xbba97a00	-0.0051720142
179	0xbe079ca8	-0.13243353
180	0xbd156ab8	-0.036478728
181	0x3d6e6c68	0.058208853
182	0x3e099306	0.13434991
183	0x3dbd13d4	0.092322975
184	0xbe00d5c4	-0.12581545
185	0x3dc07d4c	0.093988985
186	0x3e6a8f7c	0.22906297
187	0x3b5fc100	0.0034142137
188	0xbc9a7490	-0.01885441
189	0xbe2e23e4	-0.17005879
190	0xbe01a9e2	-0.12662461
191	0xbcc16130	-0.023605913
192	0x3d91716c	0.07101712
193	0xbdd0f5b8	-0.10203117
194	0x3be7a340	0.0070690215
195	0xbe1aaffc	-0.15106195
196	0xbd94d960	-0.072680235
197	0xbe11af72	-0.14227083
198	0xbe66b806	-0.22531137
199	0x3b179880	0.0023131669
200	0x3e5555c6	0.20833501
201	0x3d82f034	0.06393471
202	0x3daa6a70	0.083210826
203	0x3e17c63c	0.14821714
204	0xbc9e2dd0	-0.019308954
205	0x3e08b3d4	0.13349849
206	0x3ccf1570	0.025278777
207	0xbd04f3a0	-0.0324589
208	0x3dcbd89c	0.09953424
209	0xbd8c5e18	-0.068538845
210	0xbe797f92	-0.2436507
211	0xbe6b3ebe	-0.22973153
212	0xbd9fda9c	-0.07805368
213	0x3e0c5a28	0.13706267
214	0x3dcc99f0	0.09990299
215	0xbe2961b4	-0.16541177
216	0x3d2773d8	0.04088196
217	0xbddf971c	-0.10917494
218	0x3e5b2e6e	0.2140443
219	0x3e5a87aa	0.21340814
220	0x3e1de6ee	0.15420124
221	0xbcc96e50	-0.024588734
222	0x3dfad4b4	0.12247601
223	0xbddc6bd4	-0.10762754
224	0x3e10cf28	0.14141524
225	0xbca85a50	-0.020550877
226	0xbc072140	-0.0082476735
227	0x3db6b164	0.08920553
228	0xbda2d170	-0.07950103
229	0x3e7a180c	0.24423236
230	0xbbab2240	-0.005222589
231	0xbe6ae046	-0.22937116
232	0x3d8932ec	0.06699166
233	0xbe7aea80	-0.24503517
234	0x3e66b8fc	0.22531503
235	0x3e7632b8	0.24042785
236	0x3e59b456	0.21260199
237	0xbdafefcc	-0.085906595
238	0xbd7a84a0	-0.061161637
239	0xbbb02500	-0.0053755045
240	0xbce69260	-0.028145969
241	0xbe1a51c0	-0.15070248
242	0x3dd99dd4	0.106258065
243	0x3dffacbc	0.12484118
244	0x3bd005c0	0.0063483417
245	0xbd75ec70	-0.060039937
246	0x3c99fb10	0.018796474
247	0x3e1269ba	0.14298144
248	0xbdbee040	-0.09320116
249	0xbe690d64	-0.22759014
250	0xbe1d50be	-0.15362832
251	0x3dc068e8	0.09395009
252	0x3e795c44	0.24351603
253	0xbd8f6658	-0.070019424
254	0xbde399c0	-0.1111331
255	0xbd1c0780	-0.03809309

weight f4 [50, 16]
0	0x3e603d8c	0.21898478
1	0x3da2468c	0.07923612
2	0xbe13cc98	-0.14433515
3	0x3db37de8	0.08764249
4	0x3e6d78aa	0.23190561
5	0x3cbbdc40	0.022932172
6	0x3d0189c8	0.03162554
7	0x3e7759a8	0.24155295
8	0x3e544106	0.2072793
9	0x3de131e8	0.10995847
10	0xbe456fb0	-0.19280887
11	0xbe562a30	-0.20914531
12	0xbe0b49d2	-0.13602379
13	0x3e444f4e	0.19170877
14	0xbe3fa6e4	-0.18716007
15	0xbe7512c8	-0.23932946
16	0xbe45d80e	-0.193207
17	0xbe46784a	-0.19381824
18	0xbe11e73c	-0.14248365
19	0xbe500016	-0.20312533
20	0x3e49ad2c	0.19694966
21	0x3e595aaa	0.21225992
22	0xbe435ccc	-0.19078368
23	0xbcb52eb0	-0.022116989
24	0x3dc46b28	0.09590751
25	0x3e383dd2	0.17992333
26	0xbc894820	-0.016758025
27	0xbe6651ea	-0.22492185
28	0x3e26cb12	0.16288403
29	0xbd955080	-0.07290745
30	0x3e397bf4	0.1811369
31	0x3e1775a8	0.14790976
32	0xbe6c13a0	-0.23054361
33	0xbe6b7e36	-0.22997364
34	0x3d33a508	0.043858558
35	0x3d916acc	0.07100448
36	0x3db220d8	0.08697671
37	0x3ddaba28	0.10680038
38	0xbe3c3034	-0.18377763
39	0x3d14ce48	0.036329538
40	0xbe34d766	-0.17660293
41	0x3d987600	0.07444382
42	0xbdec33d8	-0.11533326
43	0xbe560e2a	-0.2090384
44	0xbdb6f814	-0.08934036
45	0x3de34110	0.11096394
46	0x3e2e758a	0.17037025
47	0xbe15404e	-0.14575312
48	0xbca343a0	-0.019929707
49	0x3e15b458	0.14619577
50	0x3d6cf808	0.05785373
51	0x3e29b984	0.16574675
52	0x3dc24bfc	0.09487149
53	0x3e214996	0.15750727
54	0x3ca49450	0.020090252
55	0xbe5c4c48	-0.21513474
56	0xbe3731dc	-0.17890114
57	0xbdc8559c	-0.09781954
58	0xbd898494	-0.067147404
59	0x3cff0f20	0.031135142
60	0xbcdb1340	-0.026742578
61	0x3e644494	0.22291785
62	0xbe31d0e6	-0.17364845
63	0xbdd4ab54	-0.10384241
64	0x3cca4410	0.024690658
65	0x3d4d5518	0.05012998
66	0x3c068140	0.008209527
67	0x3da5dd80	0.080988884
68	0x3c410420	0.011780769
69	0xbe01e1b4	-0.12683755
70	0x3de2edb8	0.110804975
71	0x3dc035ec	0.09385285
72	0x3e32a5f8	0.17446125
73	0x3d2fb710	0.04289919
74	0x3e651ade	0.2237353
75	0x3e0c7336	0.13715824
76	0x3e25607c	0.16150087
77	0xbe0f8d36	-0.14018711
78	0x3e72b3f4	0.23701459
79	0x3e02204a	0.1270763
80	0x3e169df6	0.14708695
81	0x3d251030	0.04029864
82	0x3c2e3b60	0.010634273
83	0x3e4d9896	0.20077738
84	0x3dbbe2cc	0.091741174
85	0xbd298ad8	-0.041392177
86	0x3e3fd6f4	0.18734342
87	0x3e128ab4	0.14310724
88	0xbb8ff540	-0.0043932498
89	0xbc027380	-0.007962108
90	0xbe35dcce	-0.17760012
91	0xbc110e60	-0.008853525
92	0x3e22ec1a	0.15910378
93	0x3a35e800	0.0006939173
94	0xbc1eb420	-0.0096865
95	0x3e7aa7c2	0.24478057
96	0xbd8f9e38	-0.070126
97	0xbd592878	-0.05301711
98	0xbe2d887e	-0.16946599
99	0xbcbd3ad0	-0.023099333
100	0x3cfc89b0	0.030827373
101	0x3d03fbc0	0.03222251
102	0xbdd71610	-0.10502255
103	0x3e761754	0.24032336
104	0x3d60b028	0.054855496
105	0xbdfca3f8	-0.12335962
106	0x3d8bff74	0.06835833
107	0x3e7bfbd2	0.2460778
108	0xbd86ac9c	-0.065758914
109	0x3e450e48	0.19243729
110	0xbc3d1400	-0.011540413
111	0x3ddc41b8	0.10754722
112	0x3d985958	0.07438916
113	0x3e7575e8	0.23970759
114	0xbdf41848	-0.11918694
115	0xbe347b96	-0.1762527
116	0xbe7602b4	-0.24024469
117	0xbcbfa560	-0.023394287
118	0xbcdde080	-0.027084589
119	0x3d07cdd0	0.033155262
120	0xbe2a721c	-0.16645092
121	0x3e1a7c5a	0.15086499
122	0xbe6fcc8a	-0.23417869
123	0xbdba25b4	-0.090892226
124	0xbe2c5206	-0.16828164
125	0xbdfa55ac	-0.12223372
126	0xbe248058	-0.16064584
127	0xbe0a97d0	-0.13534474
128	0xbe66d91e	-0.22543761
129	0xbdd73004	-0.10507205
130	0x3e31c2cc	0.17359465
131	0x3ddf64f4	0.10907927
132	0x3e73617a	0.23767653
133	0x3e1d0976	0.1533564
134	0x3d7111b8	0.05885479
135	0xbe1abb56	-0.15110525
136	0xbc089240	-0.00833565
137	0x3de8166c	0.11332402
138	0x3dd49508	0.10379988
139	0xbca4f380	-0.020135641
140	0xbd5fef58	-0.054671615
141	0xbe674f34	-0.22588807
142	0x3de6844c	0.112557024
143	0x3e66445c	0.22487015
144	0x3ddf3bb4	0.10900059
145	0x3dc2dcd8	0.09514779
146	0x3e31c7ca	0.1736137
147	0x3d95a564	0.073069364
148	0x3da13550	0.07871497
149	0x3e6f1396	0.23347315
150	0xbb2c9680	-0.0026334822
151	0xbe1ff5de	-0.15621135
152	0x3e13f556	0.14449057
153	0xbddb67ac	-0.10713133
154	0x3e57f0e2	0.21087983
155	0x3d398d60	0.04530084
156	0x3e27dd0e	0.1639292
157	0x3e4a6c1e	0.19767806
158	0x3e750c9a	0.23930588
159	0xbe15c9ac	-0.14627713
160	0xbdd0eea4	-0.10201767
161	0x3e05cb30	0.13065791
162	0x3e269db6	0.162711
163	0xbe76162c	-0.24031895
164	0x3d487220	0.048936963
165	0x3e3731c4	0.17890078
166	0x3e146af8	0.1449393
167	0x3d040ef8	0.032240838
168	0x3e444044	0.1916514
169	0xbdd4dc88	-0.103936255
170	0xbe618ade	-0.2202563
171	0xbddbb0a8	-0.10727054
172	0xbded5598	-0.11588591
173	0x3d5356d8	0.051596493
174	0xbe730ffe	-0.2373657
175	0xbe70cbea	-0.23515287
176	0x3bf9bbc0	0.0076212585
177	0xbe332392	-0.17494038
178	0xbe039f7a	-0.12853804
179	0x3de70e2c	0.11282
180	0xbd37eef8	-0.044905633
181	0x3cdb2550	0.02675119
182	0x3ddcf538	0.10788959
183	0x3da912ec	0.08255562
184	0x3e257a7a	0.16160002
185	0x3bf0a480	0.0073438287
186	0x3e55aa2a	0.20865694
187	0x3cb78c30	0.022405714
188	0x3d8deee8	0.069303334
189	0x3d1ddf00	0.038542747
190	0x3de9141c	0.11380789
191	0x3e60f538	0.21968544
192	0x3e0f1d50	0.13976026
193	0x3e1a86cc	0.15090483
194	0xbd8fbbcc	-0.07018241
195	0xbe50ff20	-0.20409822
196	0xbd4a4590	-0.049382746
197	0xbd512718	-0.051062673
198	0x3dab43d8	0.083625495
199	0xbe64bcb8	-0.22337615
200	0x3d49fb00	0.049311638
201	0xbd323e30	-0.043516338
202	0xbd43a0a8	-0.047760636
203	0x3e20376a	0.15646139
204	0xbde1d81c	-0.11027548
205	0xbe3c436a	-0.18385091
206	0x3e51d714	0.20492202
207	0xbd942b5c	-0.07234833
208	0xbe011b9a	-0.12608185
209	0xbe5b0090	-0.21386933
210	0xbd919bec	-0.07109818
211	0x3df3e098	0.11908072
212	0xbe2940b4	-0.16528589
213	0x3d1efee0	0.038817286
214	0x3db5600c	0.0885621
215	0x3e0178d2	0.12643746
216	0xbdeae088	-0.11468607
217	0x3e2bf2b4	0.16791803
218	0xbe1f055a	-0.15529385
219	0x3e19299e	0.14957282
220	0x3e33584c	0.17514151
221	0x3da4e660	0.08051753
222	0xbda5d2c4	-0.08096841
223	0x3e640714	0.22268325
224	0xbdee1e8c	-0.1162692
225	0xbe0bd590	-0.13655686
226	0x3e6f41c0	0.23364925
227	0x3e0a7788	0.1352216
228	0xbda3a7f0	-0.07991016
229	0xbe210724	-0.1572538
230	0x3dc9e5c4	0.098582774
231	0xbe5f9984	-0.21835905
232	0x3e3692d4	0.17829448
233	0x3e2a2464	0.16615444
234	0x3dcff248	0.10153633
235	0x3d623758	0.05522856
236	0xbe249b8c	-0.16074961
237	0xbd10f488	-0.035389453
238	0x3e0acae0	0.13553953
239	0xbe67a690	-0.22622132
240	0xbda020f0	-0.07818782
241	0xbd766560	-0.060155272
242	0xbc8ff430	-0.017572492
243	0xbe47b0fe	-0.19501111
244	0x3e73c352	0.23804978
245	0x3d674458	0.056461662
246	0x3e6dc0b4	0.23218042
247	0x3e5d8f3c	0.21636671
248	0xbce92770	-0.028461188
249	0x3e249152	0.1607106
250	0x3dd2cf90	0.10293496
251	0x3dfe5708	0.12418944
252	0x3e1c6594	0.15273124
253	0x3ce6fe20	0.028197348
254	0xbe2f37f0	-0.17111182
255	0x3e3e48f8	0.18582523

weight f4 [16, 16]
0	0xbda5b580	-0.08091259
1	0xbcd9be00	-0.026579857
2	0xbd2717c0	-0.040794134
3	0x3db115a0	0.08646703
4	0xbce873d0	-0.028375536
5	0x3e3c4f82	0.18389705
6	0xbc49bae0	-0.012312621
7	0x3e7150ae	0.23565933
8	0x3e4dcdcc	0.20098037
9	0x3d6b0910	0.05738169
10	0xbdad9a10	-0.08476651
11	0xbe7a2c68	-0.24431002
12	0xbe61c80c	-0.22048968
13	0x3e17dbe6	0.14829978
14	0xbcd64670	-0.026156634
15	0xbdc9df58	-0.098570526
16	0xbe08b1fc	-0.13349146
17	0xbe2b676e	-0.16738674
18	0x3e38cb20	0.18046236
19	0xbd71a730	-0.058997333
20	0xbdbf801c	-0.09350607
21	0x3e40c7a8	0.18826163
22	0x3e3d6d96	0.18498835
23	0xbc7228c0	-0.014780223
24	0x3e5800c8	0.21094048
25	0xbb295880	-0.0025840104
26	0xbdac8508	-0.08423811
27	0xbdc319e8	-0.095264256
28	0x3df7c1a4	0.12097481
29	0x3da4d710	0.080488324
30	0xbe2b2df4	-0.16716748
31	0x3d80e948	0.06294495
32	0x3e30a752	0.17251328
33	0x3e09709e	0.13421866
34	0x3e1cf560	0.15327978
35	0x3d545ec0	0.051848173
36	0xbd91b320	-0.071142435
37	0xbcecd770	-0.028911322
38	0x3dd87788	0.10569674
39	0x3da6c664	0.08143309
40	0x3e1841f2	0.14868906
41	0xbddff4b8	-0.10935348
42	0x3e440776	0.19143471
43	0xbd9dd5d4	-0.077068
44	0xbe660586	-0.22463045
45	0xbe1ba206	-0.15198526
46	0x3c74ed60	0.014949173
47	0xbdc1ab4c	-0.094565004
48	0xbdf4d124	-0.11953953
49	0xbe18944e	-0.14900324
50	0xbe61b928	-0.22043288
51	0x3e07122a	0.13190523
52	0xbe25186c	-0.16122597
53	0xbe5ee2d8	-0.21766222
54	0x3de9156c	0.11381039
55	0xbcfb6280	-0.030686617
56	0xbdbe57bc	-0.09294078
57	0x3e36afe2	0.17840531
58	0xbe74cf76	-0.23907265
59	0x3e482294	0.1954444
60	0xbda2f050	-0.07955992
61	0x3b7e0f00	0.0038766265
62	0xbd9adaf8	-0.07561296
63	0xbe7808f2	-0.24222162
64	0x3d9cbfbc	0.07653758
65	0xbe0a1b04	-0.13486868
66	0x3e13edf4	0.1444624
67	0xbad73c00	-0.001642108
68	0x3e5bda86	0.21470079
69	0xbdfa2cf0	-0.122156024
70	0xbe3a9ede	-0.18224666
71	0xbd6ced60	-0.057843566
72	0x3dc90458	0.09815282
73	0xbdde7198	-0.1086151
74	0xbc06dfa0	-0.008232027
75	0x3e42bbc8	0.19016945
76	0xbe426e6a	-0.18987432
77	0xbe3e2534	-0.1856888
78	0xbe3fd73a	-0.18734446
79	0x3e019022	0.12652639
80	0x3e38ab7c	0.18034166
81	0xbdf93760	-0.12168765
82	0x3e4a7958	0.19772851
83	0xbe07570e	-0.13216802
84	0xbe664692	-0.22487858
85	0x3e54b3e4	0.20771748
86	0x3da03d3c	0.078241795
87	0x3e6ab550	0.22920728
88	0xbe7bafee	-0.2457883
89	0x3cef1780	0.02918601
90	0x3e5db52e	0.21651146
91	0xbe627700	-0.22115707
92	0xbe48fb56	-0.19627127
93	0x3e66df02	0.22546008
94	0x3e159316	0.1460689
95	0x3e7baf12	0.24578503
96	0x3d3f1298	0.04664859
97	0xbb5c5500	-0.003362
98	0xbe078bf6	-0.13236985
99	0xbe0ff282	-0.14057353
100	0xbe60bbec	-0.21946687
101	0xbe61b55e	-0.22041842
102	0x3e7e4d16	0.24834093
103	0x3e70aac4	0.23502642
104	0x3de17f2c	0.11010584
105	0x3dab92ec	0.083776325
106	0x3e6fd9f4	0.23422986
107	0x3d2a0280	0.04150629
108	0x3e3f1632	0.1866081
109	0x3e4a1b1e	0.19736907
110	0xbcce5b50	-0.025190026
111	0xbe193064	-0.14959866
112	0x3e568362	0.20948556
113	0xbe6fbe22	-0.23412374
114	0xbdfc8760	-0.12330508
115	0xbddb2cbc	-0.10701892
116	0xbe2f3cbe	-0.17113015
117	0xbd9d1470	-0.07669914
118	0xbe6d9ea2	-0.23205045
119	0xbe00033e	-0.12501237
120	0xbe5c09c8	-0.21488106
121	0x3e38b080	0.1803608
122	0x3d3e0ea0	0.046400666
123	0xbc4668a0	-0.0121099055
124	0x3df9305c	0.12167427
125	0xbe47f9c0	-0.19528866
126	0xbe654632	-0.22390059
127	0xbd929f30	-0.07159269
128	0x3c972990	0.018452436
129	0xbe518588	-0.20461094
130	0x3e7b1df4	0.24523145
131	0x3cfbbf10	0.030730754
132	0x3e7315b8	0.23738754
133	0x3e4f5e12	0.20250729
134	0xbb420b80	-0.0029608905
135	0x3dcc9050	0.09988463
136	0x3c957420	0.01824385
137	0x3e773c3e	0.24144074
138	0x3e011a06	0.12607583
139	0xbb2d5000	-0.0026445389
140	0x3ddaf6a8	0.10691577
141	0xbe64cf98	-0.22344816
142	0x3e254706	0.16140375
143	0xbe4aa01c	-0.1978764
144	0xbe56d8d4	-0.20981151
145	0x3d423d78	0.047421902
146	0x3d8aae94	0.067715794
147	0xbe1fee90	-0.15618348
148	0x3d88ade0	0.06673789
149	0xbd0468b0	-0.0323264
150	0x3e74c328	0.23902571
151	0xbdabbf90	-0.08386147
152	0xbe167866	-0.14694366
153	0x3db8af80	0.09017849
154	0xbe2faece	-0.17156526
155	0xbd8b8e58	-0.06814259
156	0xbe00927a	-0.12555876
157	0xbe7df65c	-0.2480101
158	0xbe1965f4	-0.14980298
159	0x3e67f874	0.22653371
160	0xbd866b38	-0.06563419
161	0xbe138960	-0.14407873
162	0xbe26b46a	-0.1627976
163	0xbe647858	-0.22311532
164	0x3e352700	0.17690659
165	0xbe293882	-0.16525462
166	0xbe1c3814	-0.15255767
167	0x3e13c15e	0.14429232
168	0x3e212682	0.15737346
169	0x3e7490a2	0.23883298
170	0xbe358d3c	-0.17729658
171	0xbd71a250	-0.058992684
172	0x3be6e600	0.007046461
173	0x3d211848	0.039329797
174	0xbe728712	-0.23684338
175	0x3dda3178	0.10653967
176	0xbe1c8984	-0.15286833
177	0x3e764906	0.24051294
178	0xbd231390	-0.039813578
179	0xbe5cdc0a	-0.21568313
180	0x3d17f7b8	0.037101477
181	0xbe06e58c	-0.13173503
182	0x3c9ac940	0.018894792
183	0x3d9fbcd0	0.07799685
184	0x3dd9d058	0.106354415
185	0x3e2e1cb6	0.1700314
186	0x3c385280	0.011250138
187	0x3e7ad91c	0.24496883
188	0x3de296f8	0.11063951
189	0x3e46f7b0	0.19430423
190	0xbdb5e430	-0.08881414
191	0xbc6eea60	-0.014582247
192	0x3e2f5868	0.17123568
193	0xbd866634	-0.065624624
194	0xbcea5c30	-0.028608412
195	0x3e7213d0	0.2364037
196	0xbde99cbc	-0.11406848
197	0xbe389f76	-0.1802958
198	0xbdcf58e8	-0.101243794
199	0x3be124c0	0.006870836
200	0x3b009500	0.001962006
201	0xbc1db520	-0.009625703
202	0xbe37c3fe	-0.17945859
203	0xbe4e87ea	-0.20169035
204	0xbd9ccf70	-0.07656753
205	0x3df7f6e0	0.121076345
206	0xbe1b78ce	-0.15182802
207	0xbe24a44c	-0.160783
208	0xbe6fee82	-0.23430827
209	0x3e4b963e	0.19881532
210	0xbcb21f10	-0.021743327
211	0xbe675a38	-0.2259301
212	0x3e5adb90	0.21372819
213	0x3cafa560	0.021441162
214	0xbe0eb416	-0.13935885
215	0xbe514b84	-0.20438963
216	0x3dbaf98c	0.091296285
217	0x3e029018	0.1275028
218	0x3e42d04c	0.19024771
219	0x3c09e580	0.0084165335
220	0x3e22b888	0.15890706
221	0x3df8c9c0	0.12147856
222	0x3e101998	0.14072263
223	0xbda6fbc4	-0.08153489
224	0x3dbdb538	0.0926308
225	0xbd81891c	-0.0632498
226	0xbd71f9c8	-0.0590761
227	0x3e65fdbe	0.22460076
228	0x3e0b6d80	0.1361599
229	0x3e2a78c8	0.16647637
230	0x3e5abb58	0.21360528
231	0xbe08eb0c	-0.13370913
232	0xbdedfbf4	-0.11620322
233	0x3e537350	0.20649457
234	0x3db3c114	0.08777061
235	0x3df92a5c	0.121662825
236	0xbdac4044	-0.08410695
237	0xbde0d4b0	-0.10978067
238	0x3e164b4a	0.14677158
239	0x3da48110	0.08032429
240	0x3e79bb0c	0.24387759
241	0x3e14c406	0.14527902
242	0xbe5b7626	-0.21431789
243	0x3d7acd18	0.06123075
244	0xbe036762	-0.12832406
245	0x3e3f39ae	0.18674347
246	0xbdf55aa4	-0.11980179
247	0x3e178394	0.14796287
248	0x3dd6cb80	0.10488033
249	0x3d1af4d0	0.037831128
250	0xbe078fba	-0.13238421
251	0x3d82b704	0.06382564
252	0xbd96749c	-0.0734646
253	0x3e26c4fe	0.16286084
254	0x3e220d82	0.15825465
255	0xbe3c7d86	-0.18407258

bias f4 [16]
0	0x3e5db830	0.21652293
1	0x3c87b790	0.016567022
2	0xbe03ed1a	-0.12883416
3	0xbe4f84f0	-0.20265555
4	0x3e6af6b0	0.22945666
5	0x3e0e2ca4	0.13884217
6	0xbc922900	-0.017841816
7	0xbe218778	-0.15774333
8	0xbd2b8978	-0.041879147
9	0xbe372fe4	-0.17889363
10	0xbdf00f58	-0.117216766
11	0x3d742968	0.0596098
12	0xbe34d1e8	-0.17658198
13	0xbe1f4102	-0.15552142
14	0x3d9a0684	0.07520774
15	0x3e226b12	0.15861157

weight f4 [16, 16]
0	0x3e47c626	0.19509181
1	0xbe6e5ae6	-0.23276863
2	0x3d883934	0.06651536
3	0xbe6321f2	-0.22180918
4	0xbaac3f00	-0.0013141334
5	0x3e3a2b2a	0.18180528
6	0x3e45f1c4	0.19330508
7	0x3dc45fc4	0.09588578
8	0x3e0295a6	0.12752399
9	0xbe66eba6	-0.2255083
10	0x3e514b64	0.20438915
11	0x3e2b396c	0.16721123
12	0x3ce76c80	0.028249979
13	0xbe084822	-0.13308766
14	0x3e03deb0	0.12877917
15	0xbe7ef102	-0.24896625
16	0xbe1867ea	-0.1488339
17	0xbe4f60fe	-0.20251843
18	0xbe0d3a78	-0.13791835
19	0xbe14eb56	-0.14542899
20	0xbe489642	-0.19588569
21	0xbdb64944	-0.08900693
22	0xbd9081f0	-0.070560336
23	0x3e170066	0.14746246
24	0x3e4eaac4	0.2018233
25	0xbe710256	-0.23536047
26	0x3e0cf7a4	0.13766342
27	0x3da34120	0.07971406
28	0xbdfa4b4c	-0.12221393
29	0xbd7c3098	-0.06156978
30	0xbe160636	-0.14650807
31	0x3b80cd00	0.003930688
32	0x3e517f60	0.20458746
33	0xbe56bc5a	-0.20970288
34	0x3df73c0c	0.12072
35	0x3d90e2b0	0.07074487
36	0xbe3a23d2	-0.18177727
37	0xbdb16350	-0.086615205
38	0x3af03c00	0.0018328428
39	0x3e6ce476	0.23134026
40	0xbe0e0838	-0.13870323
41	0xbe08c074	-0.13354665
42	0x3e511d72	0.20421389
43	0xbdb6e84c	-0.08931026
44	0xbd410468	-0.047123343
45	0x3e388b7a	0.18021956
46	0x3dbe09f0	0.09279239
47	0xbe1caf88	-0.15301335
48	0x3d9db628	0.07700759
49	0xbdd2d478	-0.102944314
50	0x3de21fb4	0.11041203
51	0x3a94e400	0.0011359453
52	0x3e4bceb2	0.19903067
53	0xbe79bfec	-0.24389619
54	0xbe676356	-0.22596487
55	0xbe73865c	-0.23781723
56	0xbd2f4268	-0.04278794
57	0xbddfea54	-0.109333664
58	0xbd8c795c	-0.06859085
59	0x3e51dbc2	0.20493987
60	0xbe3cb816	-0.18429598
61	0xbdcf20d4	-0.10113683
62	0x3e237d44	0.15965754
63	0x3da58f80	0.08084011
64	0xbe4ca646	-0.19985303
65	0xbe22cba8	-0.15898001
66	0x3e2e013e	0.16992661
67	0x3e2f8a1e	0.17142531
68	0xbe0f172a	-0.1397368
69	0x3e31f6a0	0.17379236
70	0x3e5a9b50	0.2134831
71	0x3e3c9516	0.18416247
72	0xbe26f826	-0.16305599
73	0x3c9daec0	0.019248366
74	0xbdcd03b0	-0.10010469
75	0xbe7de11a	-0.247929
76	0x3e6bdfe8	0.23034632
77	0x3e2f6bb6	0.17130932
78	0xbe46329e	-0.19355246
79	0xbe383c40	-0.17991734
80	0x3d904cd4	0.07045904
81	0xbe31747a	-0.17329589
82	0x3e6195ce	0.22029802
83	0xbe25d740	-0.16195393
84	0xbdf3e02c	-0.11907992
85	0xbce23a00	-0.027615547
86	0x3e0911a6	0.13385639
87	0xbe0ff018	-0.14056432
88	0xbd98677c	-0.07441613
89	0xbc27ad80	-0.010234237
90	0xbda2fef4	-0.07958785
91	0x3e77a580	0.24184227
92	0x3d0c3ae8	0.034235865
93	0xbe52cea0	-0.20586634
94	0x3e75f744	0.24020106
95	0x3b177f00	0.002311647
96	0x3e00a42e	0.1256263
97	0x3e6ca6aa	0.23110452
98	0x3e4742e6	0.19459113
99	0xbddae4dc	-0.10688183
100	0xbdf2a748	-0.118483126
101	0xbde418a8	-0.11137515
102	0xbe4627a0	-0.19351053
103	0xbe5a2db4	-0.21306497
104	0x3e070dbe	0.13188836
105	0x3cdd8e60	0.027045429
106	0xbdaaa880	-0.0833292
107	0xbcd96e20	-0.02654177
108	0xbdb01c44	-0.08599141
109	0x3e545e9e	0.20739219
110	0xbcb6d680	-0.022319078
111	0x3d8b852c	0.0681251
112	0x3e1145e2	0.14186814
113	0xbe5a7298	-0.21332777
114	0xbe0f5f54	-0.14001209
115	0x3c543da0	0.012954146
116	0x3e549430	0.20759654
117	0x3d9fe9c0	0.07808256
118	0x3e4cb85e	0.19992206
119	0x3dd41ee0	0.103574514
120	0xbe78c3fe	-0.24293515
121	0xbe5fd11e	-0.21857116
122	0xbce86b40	-0.028371453
123	0x3e28227e	0.16419408
124	0xbdce9c30	-0.10088384
125	0x3d2b8d18	0.041882604
126	0xbe7cbb3a	-0.24680796
127	0x3dd0d64c	0.10197124
128	0x3daa0080	0.083008766
129	0x3e10170e	0.14071295
130	0x3c6c8b20	0.014437467
131	0x3e363884	0.17794997
132	0x3e72fdc8	0.23729622
133	0xbdc7b174	-0.097506434
134	0xbcaa2f20	-0.020774424
135	0x3bce7040	0.0063000023
136	0xbdf6536c	-0.1202763
137	0x3d140ac0	0.036143064
138	0x3e3b5c60	0.18296957
139	0xbe6e3f32	-0.23266295
140	0xbe44c864	-0.19217068
141	0xbd95529c	-0.07291147
142	0xbda141f4	-0.07873908
143	0x3e33dd76	0.1756495
144	0x3d6ab4c8	0.057301313
145	0x3db2b528	0.08725959
146	0x3dadc9f8	0.08485788
147	0xbe0158a6	-0.12631473
148	0xbc0626e0	-0.008187979
149	0xbda7e2f0	-0.08197582
150	0xba3df600	-0.00072464347
151	0x3e482c20	0.19548082
152	0x3e3cdbc8	0.18443215
153	0xbe11480c	-0.1418764
154	0x3e284cac	0.16435498
155	0xbdcfc7e8	-0.10145551
156	0xbe3e5bf6	-0.18589768
157	0x3e5411ba	0.20709887
158	0x3e1064f0	0.14101005
159	0xbd2b31f8	-0.0417957
160	0xbc8d3060	-0.017234981
161	0xbd7cdb60	-0.06173265
162	0x3e6491ca	0.22321239
163	0x3d3f4ab0	0.046702087
164	0x3da26098	0.0792858
165	0xbdc8f338	-0.09812015
166	0x3e5c522c	0.21515721
167	0x3e37c336	0.17945561
168	0x3df03944	0.117296726
169	0x3d37d0a0	0.044876695
170	0x3e6b343c	0.22969145
171	0xbe186d30	-0.14885402
172	0xbe02780e	-0.1274111
173	0x3da66064	0.08123854
174	0xbe0b88ae	-0.13626358
175	0xbdace918	-0.084428966
176	0xbe22d026	-0.15899715
177	0xbd735b98	-0.059413522
178	0x3e226f54	0.15862781
179	0xbd9a7b54	-0.07543054
180	0x3e0339c8	0.1281501
181	0xbe7e0bd2	-0.24809197
182	0x3e606bae	0.21916077
183	0xbd9e5fe8	-0.077331364
184	0xbe2ac624	-0.16677147
185	0xbe521566	-0.20515975
186	0xbe0058aa	-0.12533823
187	0xbe2997d4	-0.16561824
188	0x3ce99810	0.028514892
189	0xbe7316a2	-0.23739102
190	0xbe7350c8	-0.23761284
191	0x3ddf4cbc	0.10903308
192	0x3e59fd28	0.21287978
193	0xbddab584	-0.106791526
194	0xbc035680	-0.008016229
195	0x3bf49cc0	0.007464975
196	0xbdb8fb28	-0.09032279
197	0x3e6c825e	0.23096606
198	0xbdee1370	-0.11624801
199	0xbd0c0b28	-0.034190327
200	0xbe69c32e	-0.22828361
201	0xbe2c36f2	-0.16817835
202	0xbd950500	-0.07276344
203	0x3d7bfcd8	0.061520427
204	0x3e45679c	0.19277805
205	0x3df2be58	0.118527114
206	0x3d82bd08	0.06383711
207	0xbe2a815a	-0.16650906
208	0xbcef67e0	-0.029224336
209	0x3c9723c0	0.018449664
210	0xbe6d5764	-0.23177868
211	0xbe65b278	-0.22431362
212	0x3bca94c0	0.006182283
213	0xbddf5488	-0.10904795
214	0x3e1927a0	0.14956522
215	0xbe710d70	-0.23540282
216	0x3e28a89a	0.16470566
217	0xbe75cb58	-0.2400335
218	0xbe67afa2	-0.22625592
219	0xbd9df94c	-0.07713565
220	0x3def7234	0.116917044
221	0xbe1095a2	-0.1411958
222	0xbe4f7492	-0.20259312
223	0xbdbc6164	-0.09198263
224	0x3e7d8330	0.24757075
225	0x3c3a1500	0.011357546
226	0xbe705dd4	-0.23473293
227	0x3e7c53f0	0.24641395
228	0x3e2a6104	0.16638571
229	0xbda92d00	-0.08260536
230	0xbdf9c2d0	-0.12195361
231	0x3e3f24a0	0.18666315
232	0xbe0f88ea	-0.14017072
233	0xbde9e51c	-0.11420652
234	0x3e0771b0	0.13226962
235	0xbe305878	-0.17221248
236	0xbcaba470	-0.020952433
237	0xbe397354	-0.181104
238	0xbe085a2c	-0.13315648
239	0xbd944880	-0.07240391
240	0x3e41308c	0.18866175
241	0x3df88ef8	0.12136644
242	0xbe7dd526	-0.24788341
243	0xbe7f9b78	-0.2496165
244	0xbd6bebc0	-0.057597876
245	0x3e093b6e	0.13401577
246	0xbe2631d4	-0.16229945
247	0xbe42943c	-0.1900186
248	0x3e336366	0.17518386
249	0xbd9aabf4	-0.07552329
250	0x3d9bb068	0.07602006
251	0x3e5feff8	0.21868885
252	0xbdcfa614	-0.10139099
253	0x3b6a1480	0.0035717785
254	0xbe702078	-0.23449886
255	0xbd7a6578	-0.061131924

bias f4 [16]
0	0x3e326302	0.17420581
1	0x3d9b1f50	0.07574332
2	0xbe209ff6	-0.1568602
3	0x3e44d2c0	0.1922102
4	0x3e601868	0.2188431
5	0x3c23b060	0.009990782
6	0x3e2af3ea	0.16694608
7	0x3e055aa4	0.13022858
8	0x3d3b0c20	0.04566586
9	0x3e40eb06	0.18839654
10	0x3e588aca	0.21146694
11	0x3d1b5780	0.037925243
12	0xbe3c8f26	-0.18413982
13	0x3da04904	0.078264266
14	0x3d99cd00	0.07509804
15	0xbe5470ce	-0.20746157

weight f4 [16, 16]
0	0x3d6e40a0	0.0581671
1	0x3e51c97c	0.20487016
2	0x3d39eba8	0.045390755
3	0xbe4bc376	-0.19898781
4	0xbd00d5e0	-0.031453967
5	0x3cea3dd0	0.028593928
6	0x3d77b2c8	0.060473233
7	0xbe219054	-0.15777713
8	0xbdb2dc48	-0.087334216
9	0x3e14bbfe	0.14524838
10	0xbe651fe6	-0.2237545
11	0xbc419220	-0.011814624
12	0x3e5ee99a	0.217688
13	0xbd8e0284	-0.069340736
14	0xbc4fe060	-0.0126877725
15	0xbe31d28c	-0.17365474
16	0xbdbf3fec	-0.09338364
17	0xbe2eba46	-0.17063245
18	0x3d9bfd9c	0.076167315
19	0x3e5b6c20	0.21427965
20	0xbe628bae	-0.22123596
21	0xbb34d300	-0.0027591586
22	0x39aa7000	0.00032508373
23	0x3e152eca	0.1456863
24	0xbb972300	-0.0046123266
25	0xbd69f1b0	-0.057115257
26	0x3d223fb8	0.03961155
27	0x3e2bd5c4	0.16780764
28	0xbe2b0e2e	-0.16704628
29	0xbda19948	-0.07890564
30	0x3d977e34	0.07397118
31	0xbe4a955a	-0.19783536
32	0xbd6d4138	-0.057923526
33	0xbe075da4	-0.13219315
34	0x3a800c00	0.0009769201
35	0x3e4fce82	0.2029362
36	0xbe76929e	-0.24079368
37	0x3d801fa0	0.06256032
38	0xbb100d80	-0.0021980703
39	0x3e0a8590	0.13527513
40	0x3d614220	0.054994702
41	0xbe290380	-0.16505241
42	0xbe09f5dc	-0.13472694
43	0x3db6e72c	0.08930811
44	0x3d3423e0	0.043979526
45	0xbe4102bc	-0.188487
46	0x3e4d6e28	0.20061553
47	0xbdd14ae0	-0.102193594
48	0xbe293eee	-0.16527912
49	0xbe4df6c8	-0.20113671
50	0xbe2a4fd4	-0.16632015
51	0xbe2fb72e	-0.17159721
52	0xbe2db1ec	-0.16962403
53	0xbd02abf8	-0.031902283
54	0x3b458400	0.0030138493
55	0x3d2a2448	0.041538507
56	0x3c4215c0	0.011846006
57	0x3dc758dc	0.097337455
58	0x3dfa7d78	0.122309625
59	0xbe40c18a	-0.1882383
60	0x3e0df1ee	0.1386182
61	0x3d596790	0.05307728
62	0x3d7a78f8	0.06115052
63	0xbd268570	-0.0406546
64	0x3e323da6	0.1740633
65	0xbe75ddaa	-0.2401034
66	0x3b91cf40	0.004449755
67	0xbe563494	-0.20918494
68	0xbe4e06d4	-0.20119792
69	0x3e232d18	0.1593517
70	0x3c5ba840	0.013406813
71	0xbd7bca88	-0.061472446
72	0x3d40aa78	0.04703757
73	0x3e431154	0.19049579
74	0xbcc3fd80	-0.02392459
75	0x3d40a660	0.047033668
76	0x3d0433d0	0.032275975
77	0x3e0fc314	0.1403926
78	0xbe4256e8	-0.18978465
79	0xbdc15b64	-0.094412595
80	0x3b006c00	0.0019595623
81	0x3e3b84e8	0.18312418
82	0xbe5bb08a	-0.21454063
83	0xbda396c0	-0.07987738
84	0x3e6bf0f4	0.23041135
85	0xbdc5e1c0	-0.09662199
86	0xbe411632	-0.18856123
87	0xbdddc7c8	-0.10829121
88	0xbe434748	-0.1907016
89	0xbd079020	-0.033096433
90	0xbe46d0ae	-0.19415542
91	0x3e534e66	0.20635375
92	0x3e717556	0.23579916
93	0xbc3581c0	-0.011078298
94	0xbe3faf1e	-0.18719146
95	0x3d58bb48	0.05291298
96	0xbe648b66	-0.22318801
97	0xbdf53dac	-0.119746536
98	0xbe1631f0	-0.14667487
99	0xbe27c63a	-0.16384211
100	0x3e502488	0.20326436
101	0xbd266880	-0.040627003
102	0xbe3b0f10	-0.18267465
103	0x3e0ada00	0.13559723
104	0x3e25a3c8	0.16175759
105	0xbe705f64	-0.23473889
106	0xbda5de28	-0.080990136
107	0xbc4bae40	-0.012431681
108	0x3dfdad98	0.12386626
109	0x3e0b6c3a	0.13615504
110	0x3e1b7ba4	0.15183884
111	0xbe7c407c	-0.24633974
112	0xbd075ee8	-0.033049494
113	0x3e11a5e0	0.14223433
114	0x3e3e50f4	0.18585569
115	0x3d3365e0	0.043798327
116	0x3e30bb72	0.17259005
117	0xbd0393a0	-0.032123208
118	0xbe61786e	-0.22018597
119	0x3d48ed30	0.049054325
120	0x3e475e32	0.19469526
121	0xbd7a2918	-0.061074346
122	0xbcf27610	-0.029597312
123	0x3e7a493c	0.24441999
124	0x3df87ebc	0.12133548
125	0xbce130d0	-0.027489096
126	0x3e5de352	0.21668747
127	0xbd269850	-0.0406726
128	0xbe3e8b90	-0.18607926
129	0x3e4d6552	0.20058182
130	0x3c0cbb80	0.008589625
131	0x3dc8a128	0.09796363
132	0x3e44e658	0.19228494
133	0xbe268e74	-0.16265279
134	0x3e3b72c2	0.18305495
135	0x3e6ae304	0.22938162
136	0x3db14a7c	0.08656785
137	0x3e784fbe	0.24249169
138	0x3e7cb36c	0.24677819
139	0xbe75280e	-0.23941061
140	0x3ddac8cc	0.1068283
141	0x3df91204	0.12161639
142	0xbd0c2f98	-0.034225076
143	0x3d998520	0.07496095
144	0xbe1a63da	-0.15077153
145	0xbae4f100	-0.0017466843
146	0x3e5c86e8	0.21535838
147	0xbe532f94	-0.20623618
148	0xbd26df60	-0.04074037
149	0xbdad9654	-0.084759384
150	0xbe7311c6	-0.23737249
151	0xbd0a4fe0	-0.03376758
152	0xbdde7c70	-0.10863578
153	0x3e121240	0.14264774
154	0x3dce2e88	0.10067469
155	0xbe2e42e4	-0.17017704
156	0xbdab48e8	-0.08363515
157	0xbe113b72	-0.14182833
158	0x3e05d6ea	0.13070264
159	0x3dadd6c4	0.08488229
160	0xbe442c2a	-0.19157472
161	0xbd788878	-0.06067702
162	0xbcbc3ea0	-0.02297908
163	0x3e5b00ec	0.2138707
164	0xbd4f54e8	-0.050618082
165	0xbde7fc44	-0.11327413
166	0x3e2ac0e2	0.16675141
167	0x3ddf0f4c	0.108915895
168	0xbdc4eb14	-0.0961515
169	0xbe45534a	-0.19270054
170	0x3e1b7424	0.15181023
171	0xbe4491d4	-0.19196254
172	0x3e58f232	0.2118614
173	0xbdbc384c	-0.09190425
174	0xbd646e40	-0.055769205
175	0xbe01fcd2	-0.126941
176	0x3d6a7e40	0.057249308
177	0xbdb05ddc	-0.08611652
178	0x3e2523fe	0.16127011
179	0x3e160362	0.14649728
180	0xbbeb9040	-0.007188827
181	0x3e31bb24	0.17356545
182	0x3dea84b8	0.11451095
183	0xbe500b6e	-0.2031686
184	0xbe225294	-0.15851814
185	0x3e1dd34a	0.15412632
186	0x3da079dc	0.07835743
187	0xbe168902	-0.14700702
188	0x3e2fac1e	0.17155501
189	0xbe1a07b4	-0.15042001
190	0xbdae349c	-0.08506128
191	0xbd472678	-0.04862067
192	0x3ce4b2b0	0.027917236
193	0xbe6bd7da	-0.2303156
194	0x3d62a080	0.055328846
195	0x3dfb7110	0.12277424
196	0x3e1c76b6	0.1527966
197	0xbe79245c	-0.24330276
198	0xbd8d47f0	-0.068984866
199	0xbdf1aa6c	-0.118000835
200	0xbcd88580	-0.026430845
201	0x3e12ed2e	0.1434829
202	0x3de5bce4	0.11217669
203	0xbe2eef5a	-0.17083493
204	0xbe03dcee	-0.12877247
205	0xbe52bd66	-0.20580062
206	0x3da83b70	0.08214462
207	0x3e264a90	0.16239381
208	0xbe7ce288	-0.2469579
209	0x3e2b3e36	0.1672295
210	0x3e3d65fc	0.18495935
211	0x3e249736	0.16073307
212	0x3e4dc1aa	0.20093408
213	0x3e40de48	0.18834794
214	0x3cd98c70	0.026556224
215	0x3d77aaf8	0.060465783
216	0xbddc8e80	-0.10769367
217	0xbd8c87e4	-0.068618566
218	0x3dbd0ffc	0.092315644
219	0x3d478268	0.04870835
220	0x3cc5f6a0	0.024165452
221	0xbd104848	-0.035225183
222	0x3c97dec0	0.018538833
223	0xbc37bca0	-0.011214405
224	0x3e13b768	0.14425433
225	0xbc9ec4e0	-0.019380987
226	0x3dbd6a90	0.09248841
227	0xbdaa5b64	-0.08318213
228	0xbd92fa58	-0.071766555
229	0xbe6bf972	-0.23044375
230	0x3dd5e08c	0.104432195
231	0xbd9e5d00	-0.07732582
232	0x3d30a1b8	0.043122977
233	0xbd0ba1a0	-0.034089684
234	0x3dbbb3a0	0.0916512
235	0x3e14998e	0.14511701
236	0xbe72dbf6	-0.23716721
237	0xbdbafca8	-0.091302216
238	0xbdad9a48	-0.084766924
239	0x3e2948b0	0.16531634
240	0x3e1b3ff8	0.15161121
241	0x3e40a864	0.18814236
242	0x3e5256d6	0.20540938
243	0xbdc0b1c0	-0.09408903
244	0x3de8208c	0.11334333
245	0xbc748e60	-0.014926523
246	0xbe6855a4	-0.2268892
247	0x3e1cb5d4	0.15303737
248	0x3e715b18	0.23569906
249	0xbd8aa7a4	-0.06770256
250	0xbe4648e4	-0.19363743
251	0xbe74ae02	-0.23894504
252	0x3ce26ae0	0.027638853
253	0xbc3b4920	-0.011431009
254	0xbdd4ce10	-0.10390866
255	0x3e06c386	0.13160524

bias f4 [16]
0	0x3d8beb90	0.06832039
1	0xbe754722	-0.23952916
2	0xbc6ad460	-0.014332861
3	0xbc8f2ab0	-0.01747641
4	0x3d9d16c8	0.07670361
5	0x3d5a6088	0.053314716
6	0x3c540bc0	0.012942255
7	0xbe384a76	-0.17997155
8	0x3dbdcf54	0.0926806
9	0x3c59d900	0.013296366
10	0xbe0049e4	-0.12528187
11	0xbd1d0f80	-0.03834486
12	0xbddc14e0	-0.10746169
13	0x3d96c6b0	0.073621154
14	0x3e04e140	0.12976551
15	0x3e0a5d90	0.13512254

weight f4 [16, 16]
0	0xbe4d3e1e	-0.20043227
1	0x3e482b08	0.19547665
2	0x3e5b1286	0.21393785
3	0x3d4d6128	0.050141484
4	0xbe23f204	-0.1601029
5	0x3df96a40	0.12178469
6	0xbe1fb702	-0.15597156
7	0xbe07d73a	-0.13265696
8	0x3e4bb4dc	0.19893211
9	0xbe3cbc78	-0.1843127
10	0x3ddf8bb8	0.10915321
11	0xbdf93cc4	-0.12169793
12	0xbe30c260	-0.17261648
13	0x3cf18d10	0.02948621
14	0x3cd22570	0.025652617
15	0x3e2b87da	0.16751042
16	0x3d570f08	0.05250457
17	0xbd7775b8	-0.060415
18	0x3dcf4d78	0.10122198
19	0xbd625ae0	-0.055262446
20	0x3e1e30c6	0.15448293
21	0x3e40e630	0.1883781
22	0xbdbaf998	-0.091296375
23	0xbddfee44	-0.109341174
24	0x3d99543c	0.074867696
25	0xbe4929ec	-0.19644898
26	0x3d1e4fa8	0.038650185
27	0xbc107f40	-0.008819401
28	0xbd3356c8	-0.043783933
29	0xbacdc300	-0.0015698373
30	0x3e719120	0.23590517
31	0x3e4736ba	0.1945447
32	0xbe694ea4	-0.22783905
33	0xbdd25c28	-0.10271484
34	0xbdf36190	-0.11883843
35	0x3e5b7af6	0.21433625
36	0xbe12b622	-0.1432729
37	0xbe63edc4	-0.22258669
38	0x3e6417d4	0.22274715
39	0x3d71ec00	0.059062958
40	0xbd4d9568	-0.050191313
41	0xbe6b45d6	-0.22975859
42	0xbe27d5fc	-0.16390222
43	0xbdf68228	-0.12036544
44	0xbdf72e90	-0.12069428
45	0xbe43bc7c	-0.1911487
46	0x3e0c311e	0.13690612
47	0x3dfdec3c	0.12398574
48	0xbe624584	-0.2209683
49	0x3c1660a0	0.009178311
50	0x3e2089e0	0.15677595
51	0xbe5159bc	-0.20444387
52	0x3d823cd0	0.06359255
53	0xbd589508	-0.052876502
54	0xbdc94a64	-0.09828642
55	0xbe7cbb90	-0.24680924
56	0xbd9e5758	-0.07731503
57	0xbe5afaea	-0.21384779
58	0x3d9d6eb0	0.076871276
59	0x3d0962d0	0.0335415
60	0x3b72d180	0.0037051141
61	0xbe66b59a	-0.22530213
62	0x3e27d26e	0.16388866
63	0x3d80ff40	0.06298685
64	0xbca63c40	-0.020292401
65	0xbc7bcb00	-0.015368223
66	0xbd244250	-0.040102303
67	0xbe19b722	-0.15011266
68	0xbdacbdc4	-0.084346324
69	0x3e312f08	0.17303097
70	0x3e25c654	0.16188937
71	0xbe0a7ee6	-0.1352497
72	0x3c1312a0	0.0089766085
73	0x3e7ef902	0.24899676
74	0xbe38b6b8	-0.18038452
75	0xbd516668	-0.051123053
76	0xbe291342	-0.16511253
77	0x3d71d248	0.05903843
78	0x3c884dd0	0.016638666
79	0xbe548d60	-0.20757055
80	0xbe524926	-0.20535716
81	0xbe52fb36	-0.20603642
82	0xbd39c618	-0.045354933
83	0x3e2b9a06	0.16757974
84	0x3e60b17a	0.21942702
85	0xbe7977e0	-0.24362135
86	0xbd7d0538	-0.061772555
87	0xbd828714	-0.0637342
88	0x3e485454	0.19563419
89	0x3cbecb00	0.023290157
90	0xbd0169d8	-0.03159508
91	0x3d5a8438	0.05334875
92	0xbce1e340	-0.027574182
93	0xbe69fe14	-0.2285083
94	0x3e5f4b6a	0.21806112
95	0x3e18111c	0.14850277
96	0xbcea8af0	-0.028630704
97	0xbe3a448a	-0.18190208
98	0xbe11b5ee	-0.14229557
99	0xbe099046	-0.13433942
100	0x3c7f78a0	0.015592724
101	0xbe3fce32	-0.18731001
102	0x3e3c8dda	0.18413487
103	0xbd8dd6b0	-0.06925714
104	0x3e04ddc8	0.12975228
105	0xbe6aa4b4	-0.22914392
106	0xbd8279c0	-0.06370878
107	0x3e04fd22	0.12987188
108	0x3e278aea	0.16361585
109	0x3d4d8ae0	0.05018127
110	0x3e162aaa	0.14664713
111	0xbda4e558	-0.08051556
112	0xbd6e6238	-0.058199137
113	0xbe35fe0c	-0.17772692
114	0x3e0bfa82	0.1366978
115	0x3e08c2f6	0.13355622
116	0x3e010358	0.12598932
117	0x3d663358	0.05620131
118	0x3e2084e6	0.15675697
119	0x3dc0ae0c	0.09408197
120	0xbc0f6380	-0.00875175
121	0xbd664a18	-0.056223005
122	0xbe6122b0	-0.21985888
123	0x3cf217e0	0.0295524
124	0xbe3dc75e	-0.18533084
125	0x3e6198fe	0.22031018
126	0x3df2d8bc	0.11857745
127	0xbd3c6c00	-0.046001434
128	0x3e32db6e	0.17466518
129	0xbc8b1640	-0.016978383
130	0x3e2cf6de	0.16891047
131	0x3e642414	0.22279388
132	0xbe60b85c	-0.21945328
133	0xbe33f840	-0.17575169
134	0x3d321578	0.043477505
135	0xbd27af90	-0.040938914
136	0x3e0ee280	0.1395359
137	0xbc980750	-0.018558174
138	0x3dd631b0	0.10458696
139	0xbe22723e	-0.15863892
140	0xbddae87c	-0.10688874
141	0x3d6f3588	0.05840066
142	0x3d97d7dc	0.07414219
143	0x3de29840	0.11064196
144	0x3e59a804	0.21255499
145	0x3e6b0ac8	0.22953331
146	0x3e3a5156	0.1819509
147	0x3c148640	0.009065211
148	0xbe3117aa	-0.17294183
149	0xbe7d5d92	-0.24742725
150	0xbcb3dd80	-0.021956205
151	0xbe4282d6	-0.18995222
152	0x3d0b50c0	0.034012556
153	0x3db109c8	0.08644444
154	0x3a9fe500	0.0012198985
155	0xbe5a0158	-0.21289575
156	0xbd4e48f0	-0.050362527
157	0xbdf76710	-0.120802045
158	0xbe3238a6	-0.17404422
159	0xbbd09080	-0.006364882
160	0xbd467d60	-0.04845941
161	0x3d8e9468	0.069619
162	0x3ca5dc20	0.020246565
163	0xbe52957c	-0.20564836
164	0x3e34f94c	0.17673224
165	0xbda537cc	-0.08067283
166	0x3d7ebce0	0.062191844
167	0xbe6e5a08	-0.23276532
168	0xbe21725c	-0.15766281
169	0xbdf35d84	-0.11883071
170	0xbe232168	-0.15930712
171	0xbe3848a2	-0.17996457
172	0xbbaa5900	-0.005198598
173	0x3e2e8a9e	0.17045066
174	0xbe0a54fa	-0.13508978
175	0xbe412e06	-0.18865213
176	0xbe76a48e	-0.2408621
177	0xbe0a16b6	-0.13485226
178	0x3c63f800	0.013914108
179	0xbe5edd18	-0.21764028
180	0xbe07063a	-0.13185969
181	0x3e782456	0.24232611
182	0xbe43f378	-0.19135845
183	0x3e6315ee	0.22176334
184	0x3e3b2b60	0.18278265
185	0x3c62cf80	0.013843417
186	0x3b343b80	0.0027501285
187	0x3e277ff6	0.16357407
188	0xbe160a80	-0.14652443
189	0xbe6b076c	-0.2295205
190	0x3e164b2c	0.14677113
191	0x3df4650c	0.11933336
192	0x3e583242	0.21112922
193	0x3e4d989c	0.20077747
194	0xbe29a3b0	-0.16566348
195	0xbaecd800	-0.0018069744
196	0xbe7f3fe2	-0.24926713
197	0x3e31d5ca	0.1736671
198	0x3d7e3138	0.062058657
199	0x3d222108	0.039582282
200	0xbd47ca80	-0.048777103
201	0x3bb2ab40	0.0054525435
202	0xbdf992ec	-0.12186226
203	0xbe34c1b0	-0.17652011
204	0x3e0d2224	0.13782555
205	0xbd4ca2f8	-0.049960107
206	0x3df46d1c	0.119348735
207	0xbe46ccb4	-0.19414026
208	0xbe791a9a	-0.24326554
209	0xbe311a8a	-0.1729528
210	0x3ce08630	0.027407736
211	0xbe1ba766	-0.15200576
212	0x3d91fe7c	0.07128617
213	0xbe0742f6	-0.13209137
214	0x3db34c4c	0.08754787
215	0xbe79d07e	-0.2439594
216	0x3e7ef3ac	0.24897641
217	0x3ccf1760	0.0252797
218	0xbe76f004	-0.24114996
219	0x3df02570	0.11725891
220	0xbdc34030	-0.09533727
221	0x3e028274	0.12745076
222	0x3d1fb048	0.038986474
223	0x3e42beba	0.19018069
224	0xbd4d32d8	-0.050097317
225	0x3de21bd0	0.11040461
226	0x3dc23890	0.09483445
227	0x3e38d284	0.18049055
228	0x3e52f59e	0.20601508
229	0x3d5e6ad0	0.054301083
230	0x3e387d12	0.1801646
231	0x3c20a7a0	0.00980559
232	0xbaa34e00	-0.0012459159
233	0x3d97dc88	0.0741511
234	0x3df49ca4	0.11943939
235	0x3e5901d4	0.21192104
236	0x3da99af0	0.08281505
237	0xbe4c4380	-0.19947624
238	0x3d9ccbc8	0.07656056
239	0xbdbc0924	-0.09181431
240	0xbe43a35a	-0.19105282
241	0x3e4b0250	0.19825101
242	0x3e4b5822	0.19857839
243	0x3e00a5b0	0.12563205
244	0xbdffa720	-0.124830484
245	0x3e2bb462	0.1676803
246	0xbe6e6cbe	-0.2328367
247	0x3e0345ec	0.12819642
248	0xbe5e6456	-0.21717963
249	0xbd9179dc	-0.07103321
250	0xbde251a4	-0.11050728
251	0x3e185f1c	0.14880031
252	0xbe43e50a	-0.1913034
253	0x3e4ff6b6	0.20308957
254	0xbe6b2866	-0.2296463
255	0xbe7bc6f2	-0.2458761

bias f4 [16]
0	0xbd053730	-0.032523334
1	0x3e611c68	0.21983492
2	0x3e60b20e	0.21942922
3	0x3e5691ea	0.209541
4	0xbe274738	-0.16335762
5	0x3e5646c6	0.20925435
6	0xbcfac230	-0.030610174
7	0xbe25a75c	-0.16177124
8	0x3dd43a50	0.10362685
9	0xbdfb6e0c	-0.12276849
10	0xbe06d3b4	-0.13166696
11	0x3e1272d2	0.14301613
12	0x3e442c70	0.19157577
13	0x3c7e51e0	0.01552245
14	0xbde6ca04	-0.11269
15	0x3e75ef58	0.24017084

weight f4 [16]
0	0xbe081ae6	-0.13291511
1	0x3d89eed8	0.06735009
2	0x3dddf1b4	0.10837117
3	0x3e676432	0.22596815
4	0xbe589c2e	-0.21153328
5	0x3e453c9e	0.19261405
6	0x3d9f7f9c	0.077880114
7	0x3e5530b4	0.2081936
8	0x3e52ca34	0.20584947
9	0x3d807478	0.06272215
10	0xbdc48e10	-0.09597409
11	0xbdc79d30	-0.09746778
12	0xbddc41fc	-0.10754773
13	0x3d7b76b8	0.061392516
14	0x3a41a400	0.00073868036
15	0xbd20f108	-0.039292365

bias f4 [16]
0	0x3dcbc468	0.09949571
1	0x3e683130	0.22675014
2	0x3e1f5550	0.15559888
3	0xbd2d96f0	-0.042380273
4	0x3e5a6b16	0.21329913
5	0x3e1eb81c	0.1549992
6	0xbe7eceb2	-0.24883536
7	0x3c6551c0	0.0139965415
8	0xbc88ddb0	-0.016707271
9	0x3e4f47e2	0.20242265
10	0x3e0a5f4c	0.13512915
11	0x3dbb251c	0.091379374
12	0xbe66e328	-0.2254759
13	0x3df0f748	0.11765915
14	0x3d1c4fb8	0.038161963
15	0xbe2e74f6	-0.17036805

weight f4 [256, 16]
0	0xbc92ae90	-0.017905504
1	0xbda6927c	-0.081334084
2	0x3b6bab00	0.0035960078
3	0xbe72254a	-0.23647037
4	0x3d9bb1a8	0.076022446
5	0x3e112ae4	0.14176518
6	0x3e16812e	0.14697716
7	0xbdbd5188	-0.092440665
8	0x3cb9a860	0.022663295
9	0xbe4c8e5a	-0.19976178
10	0xbd880b0c	-0.06642732
11	0xba748400	-0.0009327531
12	0x3e35ba84	0.17746931
13	0xbc56c5c0	-0.013108671
14	0x3e29134c	0.16511267
15	0x3e39d170	0.181463
16	0x3e606200	0.21912384
17	0x3e789d8e	0.24278852
18	0x3e1a9358	0.1509527
19	0x3e284560	0.16432714
20	0xbe13d358	-0.1443609
21	0x3c43c160	0.01194796
22	0x3d55f370	0.052234113
23	0xbca5dce0	-0.020246923
24	0x3d984314	0.07434669
25	0xbd662728	-0.056189686
26	0x3e5b8ae4	0.21439701
27	0xbd4c3b38	-0.049861163
28	0xbdc06d98	-0.09395903
29	0xbd6fee60	-0.05857694
30	0xbdf6d32c	-0.120519966
31	0x3e20775c	0.15670532
32	0xbdf6480c	-0.120254606
33	0x3dd613b4	0.10452977
34	0xbe27e7de	-0.16397044
35	0xbe3b6126	-0.18298778
36	0x3a721600	0.00092348456
37	0xbe058b82	-0.130415
38	0xbbb86700	-0.005627513
39	0xbe097f7c	-0.13427538
40	0xbe15add6	-0.14617094
41	0x3e0657b0	0.13119388
42	0xbc5a41c0	-0.01332134
43	0x3e54c824	0.20779473
44	0x3e152656	0.14565405
45	0x3e17f708	0.14840329
46	0x3cac6f10	0.021049052
47	0x3db8bf88	0.09020907
48	0xbe5fade8	-0.21843684
49	0x3e66eee8	0.22552073
50	0x3d065bb0	0.032802284
51	0x3dc7d288	0.097569525
52	0xbdaa12d4	-0.083043724
53	0x3e3c7f64	0.1840797
54	0x3e118214	0.14209777
55	0xbcfaef00	-0.030631542
56	0x3e04ec7e	0.1298084
57	0x3e5cb3be	0.21552941
58	0x3e4cfab8	0.20017517
59	0xbddef23c	-0.10886046
60	0x3e5b7800	0.21432495
61	0xbd84ab48	-0.06477982
62	0x3e225a0e	0.15854666
63	0x3e25968c	0.1617071
64	0x3e5640dc	0.2092318
65	0xbe04af94	-0.12957603
66	0xbe38e92c	-0.18057698
67	0x3bfe0b00	0.007752776
68	0x3e38ff0a	0.1806604
69	0x3da859a0	0.082202196
70	0x3dec0e7c	0.115262
71	0x3e7871c2	0.24262145
72	0x3e370a02	0.17874911
73	0x3e317d94	0.1733306
74	0xbe02fac2	-0.12790969
75	0x3e0cd0b8	0.13751495
76	0x3e039328	0.12849104
77	0xbc959bd0	-0.018262774
78	0x3cf25300	0.029580593
79	0xbc61ee80	-0.013789773
80	0x3e3cb3d6	0.18427977
81	0x3e0fa3c6	0.14027318
82	0xbe363d46	-0.17796811
83	0x3e395cd6	0.1810182
84	0xbdf8d578	-0.12150091
85	0x3e59325e	0.2121062
86	0xbc7ca360	-0.015419811
87	0x3e1c53a4	0.15266281
88	0xbe16348e	-0.14668486
89	0xbe3ee6d8	-0.18642747
90	0x3e57b9fa	0.21067038
91	0x3e240282	0.16016582
92	0xbde03d50	-0.109491944
93	0xbd86ea68	-0.06587678
94	0x3e505c60	0.20347738
95	0xbe11ed74	-0.14250737
96	0x3dc07ac8	0.09398419
97	0x3c652960	0.013986915
98	0x3e6dcc7e	0.23222539
99	0xbe4f5184	-0.2024594
100	0xbdeda608	-0.116039336
101	0xbc3eebc0	-0.011652887
102	0x3e3d8d30	0.1851089
103	0xbe3714fc	-0.17879099
104	0xbc664b20	-0.014055997
105	0x3e0a3494	0.1349662
106	0xbd76c398	-0.060245126
107	0x3e6ffa72	0.23435381
108	0x3e509388	0.20368779
109	0x3e413326	0.18867168
110	0xbda79708	-0.08183104
111	0xbc127be0	-0.008940667
112	0xbd076e88	-0.033064395
113	0xbe65212e	-0.22375938
114	0xbdccf444	-0.100075275
115	0x3e13cc92	0.14433506
116	0xbe0476a6	-0.12935886
117	0xbe402446	-0.18763837
118	0x3dc84e80	0.09780598
119	0x3e2ce3dc	0.16883796
120	0xbbeff6c0	-0.007323116
121	0xbe021788	-0.12704289
122	0x3cd9e3b0	0.026597828
123	0xbc733d00	-0.0148460865
124	0xbe2a2d1a	-0.16618767
125	0x3d369ba8	0.04458204
126	0xbe1e1c84	-0.15440565
127	0xbe0f1c1e	-0.1397557
128	0x3e0e5fc2	0.13903716
129	0xbd659c88	-0.056057483
130	0xbe33baac	-0.17551678
131	0x3dfd03d8	0.12354249
132	0x3e5b4fc2	0.21417144
133	0x3daf8ae8	0.08571416
134	0x3cb4e8d0	0.02208367
135	0x3e5a8400	0.21339417
136	0x3e41e102	0.1893349
137	0x3e2cf0e6	0.1688877
138	0xbb9c7980	-0.004775226
139	0xbe036468	-0.1283127
140	0x3d05fb38	0.032710284
141	0xbe6a72fe	-0.22895429
142	0x3ddcc2c0	0.10779333
143	0xbe4ae3f4	-0.1981352
144	0x3e19e864	0.15030056
145	0xbe3ab972	-0.18234804
146	0xbc884540	-0.016634583
147	0xbd8bbfb0	-0.06823671
148	0x3e7a9be0	0.24473524
149	0x3cfc5f30	0.030807108
150	0x3dcb4304	0.099248916
151	0x3d8f79f0	0.070056796
152	0xbd4be4a8	-0.04977861
153	0x3df42700	0.11921501
154	0xbe343906	-0.17599878
155	0x3d8a9e84	0.06768516
156	0x3e4896c8	0.19588768
157	0xbd995400	-0.07486725
158	0xbe6c2e8a	-0.23064628
159	0x3dd14ab8	0.102193296
160	0x3d81a418	0.063301265
161	0xbd997954	-0.07493845
162	0xbe44ba70	-0.19211745
163	0x3dec4874	0.11537257
164	0xbe6ec99e	-0.23319098
165	0x3d9eebb4	0.077598006
166	0xbe29fd2a	-0.1660048
167	0x3d6137b0	0.05498475
168	0xbd8c5fbc	-0.068541974
169	0xbd9c8330	-0.076422095
170	0xbe21c686	-0.15798387
171	0xbd9670c8	-0.0734573
172	0x3ca4dea0	0.020125687
173	0xbdb084b8	-0.08619064
174	0x3e756caa	0.23967233
175	0x3cdb00e0	0.026733816
176	0xbe0a0fb8	-0.13482559
177	0x3e35351c	0.17696041
178	0xbe5b2be0	-0.21403456
179	0xbe095fb6	-0.13415417
180	0xbd887a9c	-0.06664011
181	0x3e2c4198	0.16821897
182	0x3e66960a	0.22518173
183	0x3e2a4540	0.1662798
184	0xbe5185e8	-0.20461237
185	0x3d552250	0.052034676
186	0x3dce08a4	0.10060242
187	0x3d7440c0	0.059632063
188	0x3e1e3312	0.1544917
189	0xbd09e138	-0.03366205
190	0xbe5fd6a2	-0.2185922
191	0xbe18c3ac	-0.14918393
192	0xbe38d3f2	-0.180496
193	0x3e4b2f32	0.19842222
194	0xbe2b2f30	-0.1671722
195	0xbdca6324	-0.09882191
196	0xbdaabfb0	-0.08337343
197	0x3d843f18	0.06457347
198	0xbe4364f8	-0.19081485
199	0xbde3d348	-0.11124283
200	0x3e5fa9d8	0.21842134
201	0x3dc2bcb0	0.095086455
202	0x3e6b39be	0.22971246
203	0xbe3486c0	-0.17629528
204	0xbd222fb8	-0.03959629
205	0x3d594c10	0.053051054
206	0x3e000766	0.12502822
207	0x3e7e2df4	0.24822217
208	0x3d149c48	0.036281854
209	0x3e0bbfde	0.1364741
210	0x3db17ea0	0.0866673
211	0xbd963a30	-0.07335317
212	0xbe644fa0	-0.22296
213	0x3d4dffb0	0.05029267
214	0xbd9b2aa0	-0.075764894
215	0x3e042468	0.12904513
216	0x3e393b48	0.1808902
217	0x3e5869d8	0.21134126
218	0x3da8f790	0.08250344
219	0x3e6953ba	0.22785845
220	0xbd214b90	-0.039378703
221	0x3e5d38b8	0.21603668
222	0xbe5a6c66	-0.21330413
223	0xbe569098	-0.20953596
224	0xbe3507da	-0.17678776
225	0xbe5132cc	-0.20429534
226	0xbe45afae	-0.19305298
227	0x3e7a5358	0.24445856
228	0x3d273650	0.04082328
229	0x3e6948d6	0.22781691
230	0xbe58289e	-0.21109244
231	0xbe361858	-0.17782724
232	0x3e45a7a6	0.19302234
233	0xbe6f4c2e	-0.23368904
234	0x3d27f1b0	0.041001976
235	0x3db16ec8	0.08663708
236	0x3e614778	0.2199992
237	0x3e721f76	0.23644814
238	0x3e1c9b8c	0.15293711
239	0x3c3d8e20	0.01156953
240	0xba635c00	-0.0008673072
241	0x3e641b3a	0.22276011
242	0x3e1c7c80	0.15281868
243	0xbe2124fa	-0.15736762
244	0xbe2c0bca	-0.16801372
245	0x3d796588	0.060887843
246	0x3e4ece1e	0.20195815
247	0xbe2b61ae	-0.1673648
248	0xbdce3a78	-0.10069746
249	0xbe568d62	-0.20952371
250	0x3e70e868	0.23526156
251	0x3e2f8d26	0.17143688
252	0x3e3b9572	0.18318728
253	0x3e24b19e	0.1608338
254	0xbe7e18c4	-0.24814135
255	0x3e201086	0.15631303
