rust/model_store/noop_bolcom_c10000_t50_onnx.pth (onnx, 819 bytes, 1 tensors)

onnx::Expand_21 f4 [1, 21]
0.0 1.0 2.0 3.0 4.0 5.0 6.0 7.0
8.0 9.0 10.0 11.0 12.0 13.0 14.0 15.0
16.0 17.0 18.0 19.0 20.0
00000000: 0000 0000 0000 803f 0000 0040 0000 4040
00000010: 0000 8040 0000 a040 0000 c040 0000 e040
00000020: 0000 0041 0000 1041 0000 2041 0000 3041
00000030: 0000 4041 0000 5041 0000 6041 0000 7041
00000040: 0000 8041 0000 8841 0000 9041 0000 9841
00000050: 0000 a041
