rust/model_store/sasrec_bolcom_c10000_t50_eager.pth (torch, 741347 bytes, 36 tensors)

weight f4 [10000, 16]
00000000: f757 3cbc 6129 493b 8e51 ccbc c788 70bb
00000010: 2bf3 f03a 9b91 e93c 1b0e 88ba a242 a63c
00000020: 0732 f93b 0ea3 a43c af88 8e3c a531 44bc
00000030: 80f7 37bc 8241 b43a 8079 ebbb ca52 fdbb
00000040: f729 9b3c 6514 e83b 105b f839 896b b2bb
00000050: 3083 823c 8428 353c 951e 23bc b35d a6bb
00000060: fc2f 353b 6d11 393b 2d09 353c 2138 f1bc
00000070: 02e4 c3bc c282 eab9 537e 38bc 8624 b2bc
00000080: c166 abbb 709f e8bc edf5 c8bc a208 0abd
00000090: 2c04 92bc 8ff1 183d 3261 38bc 8f8f eb3c
000000a0: 70fb a5bc 071c 863c bed8 25bd 0616 f3ba
000000b0: 5294 17bc e2e7 aabc 8b4c d03c 4e70 f0bc
000000c0: 3e3a 7ebc 38fa 513c a288 cdbc d546 0f3c
000000d0: ee7d 3cba f384 41bd b72e 0ebd 6863 00bd
000000e0: c5ea 02bc 9cb6 49bc 9c87 a338 ab0b 0ebd
000000f0: 5d40 5fbc 366c 093d 2293 133c 3085 503a
00000100: ab2d 4d3c f7e1 ba3c ee9e b73c 8a44 ddbc
00000110: c23d 8fbd 62a8 4a3c 60fd adbc 674b a43c
00000120: 215a 7ebc e263 eb3c 5a4a 8e3c b5c3 16bb
00000130: 4b42 473c 244e 2bbd 969f 87bb b3ef 2fbc
00000140: 5c71 a7bb 42e5 90bc c056 22ba c4d1 ce3b
00000150: a239 67bc 89c7 64bb e93d de3c 8f3e 27bc
00000160: fced 5f3b 1c77 6dbc 77df babc acc0 0bbc
00000170: 81b0 123d 2090 e3bc 05f2 0f3c 7405 293c
00000180: ea5d 68bc 2d39 47bd ca54 b8bb 4cd0 7a3c
00000190: 10ff 373a 7326 c1bc 3b46 5ebc b91b f2bb
000001a0: e63c b63b 5944 79bc ebb0 13bd 8544 d4bc
000001b0: 0d6a 1b3d ee7c 463b c239 1a3c 1ec5 373c
000001c0: b225 bfba fc62 8e3c 72e7 473b af11 9c3c
000001d0: c9b1 db3c a71c e23c d856 6bbc ea56 af3c
000001e0: 9d4b 143d 4435 663c e935 b1bb 1806 a1bc
000001f0: 11f0 07bc b8fa 97bc ba54 9e3c 322c 60bc
00000200: 57c8 ebbb 42dd b8bc 30b9 17bd 6c4d ff3c
00000210: 0169 1abb 32e5 f63c 12bb 113c 548a 58bc
00000220: d5d3 cd3a 992d 9a3b 8ecb ba3b bd6a 2abc
00000230: a23a 97bc e1a2 53bc caf5 0ebb 3723 393c
00000240: 4393 f3bc 490a 8ebb c912 32bb cac4 a43c
00000250: 3d2b c1bc b68d 043c 2264 01bd 70c8 e5bc
00000260: 51bb 9f3c f41c c93b 3e4c c3bc 2df4 413c
00000270: 5812 22bd dbbd c7bb 6f28 cdbc ab21 0abd
00000280: 1844 063d 4aeb aabc 3b56 fc3c 469d 683c
00000290: 0e14 393b 69f1 e53b 77b7 cb3b 3555 cfbc
000002a0: fc2a 443c 682b 953c 2416 65bc 5954 a13b
000002b0: 39d9 033d 4e09 e33c 21f5 73bc 20d4 8abc
000002c0: d240 bd3c 00cb ba3b 640c c0bb a547 48bc
000002d0: 58e9 17bc aa3c 913c 67d7 7abc 898c 503c
000002e0: b523 cdbb a178 b8ba 6127 a6bb a375 1fbb
000002f0: 9312 043c 81ff 4d3c 3b41 313b 25cc afbc
00000300: 10e5 573a 2679 38bc 85c4 2cbd f92b 5bbd
00000310: 13c2 68bc 8f14 8cbc 8961 d53b 2072 fd3c
00000320: 6b7d 323b d2f0 923c 5e64 75ba cffd 033c
00000330: 05ac 6b3b 2dc1 493d 565e 23bc 77e8 febc
00000340: 9ef1 a1bc 13ea 973c 8f03 d03b 3318 f73c
00000350: 3b54 84bc 2a5e 273d 07d6 2b3b 9958 85bc
00000360: 600e fa3c d6c7 ac3c 15c7 69ba 198b 2c3d
00000370: e385 853c f438 903b ef70 7f3c d946 22bc
00000380: eb9b 383d d1e4 96bc ab9d d33c 5b47 913c
00000390: 99ff 90bb 87f1 8bba 61f0 b6bc 26b6 c0bb
000003a0: 902b 3fba f919 91bc 06df 70bc 525f 11bb
000003b0: 5838 553c b998 563b 8bdf 4f3c a5bf afbb
000003c0: d026 59bc e04e 1a3d 57cd 86bc 2a51 ecbc
000003d0: 1227 91bc 0446 aabb d72f c63c 937d f2bc
000003e0: 84c1 673c 9e14 11bd 4b41 bdbc e42d ccbb
000003f0: 9d4e 6ebc cb7f 3cbd 863a e73c 94bb 65bc
-0.011495582 0.003069483 -0.024941232 -0.003670262 0.0018383017 0.028511813 -0.001038018 0.020295445
0.0076048407 0.020097282 0.01739916 -0.011974727 -0.011228442 0.0013752433 -0.007186115 -0.0077308165
0.018940909 0.0070825093 0.00047370093 -0.005444948 0.015931696 0.011057023 -0.009956022 -0.005077088
0.002764701 0.0028239146 0.011049551 -0.02944571 -0.023912434 -0.0004472938 -0.011260587 -0.021745931
-0.005230755 -0.028396338 -0.024531329 -0.03369964 -0.017824255 0.037339743 -0.011253642 0.028754978
-0.020261496 0.016370786 -0.040489905 -0.0018545992 -0.009251671 -0.020862523 0.025427124 -0.029350426
-0.015516816 0.012816004 -0.025089566 0.008744915 -0.0007190396 -0.04724593 -0.03471252 -0.0313448
-0.007990544 -0.012311604 7.797705e-05 -0.034679096 -0.013626185 0.033550464 0.009007247 0.0007954417
0.012523095 0.022812827 0.02241465 -0.027010221 -0.06994201 0.012369247 -0.021238983 0.020055486
-0.015524418 0.028734151 0.017369438 -0.0023004834 0.012161802 -0.041822568 -0.004138897 -0.010738301
-0.005109949 -0.017687444 -0.00061927363 0.006311627 -0.014112862 -0.0034908971 0.02712913 -0.010207786
0.003416895 -0.01449373 -0.022811634 -0.008529823 0.03581286 -0.027778685 0.008785729 0.0103162415
-0.014182547 -0.04863851 -0.005625342 0.015308451 0.0007018903 -0.023577904 -0.013566549 -0.0073885587
0.005561459 -0.015214049 -0.036057394 -0.025911579 0.037942935 0.0030286866 0.009413185 0.01121643
-0.0014583378 0.017381184 0.0030502942 0.019051401 0.026818173 0.027601553 -0.014363967 0.021403749
0.036204923 0.014050785 -0.005408038 -0.019656226 -0.008296982 -0.01855217 0.01932751 -0.013682412
-0.007195513 -0.022566441 -0.037041843 0.031164847 -0.0023561122 0.030138586 0.008894699 -0.013216574
0.001570339 0.0047051427 0.005700535 -0.010401425 -0.018460575 -0.012917251 -0.0021813982 0.0112999
-0.029733306 -0.004334722 -0.0027171841 0.020113368 -0.023580188 0.008090427 -0.031589635 -0.028049678
0.0194985 0.0061374847 -0.023840066 0.011838001 -0.039568275 -0.0060956306 -0.025043694 -0.033723515
0.032779783 -0.020864148 0.030802837 0.014197653 0.0028240713 0.0070173037 0.006216939 -0.025309185
0.011973139 0.018209174 -0.0139823295 0.004923385 0.03218958 0.027714398 -0.014889986 -0.016946852
0.023102198 0.005700469 -0.005860852 -0.012224113 -0.009271942 0.017729122 -0.015310145 0.012728819
-0.00626036 -0.0014074036 -0.0050706123 -0.0024331592 0.008061069 0.012573124 0.0027046937 -0.021459648
0.0008235732 -0.011259353 -0.042179603 -0.053508732 -0.014206427 -0.017099647 0.0065118712 0.030938208
0.00272354 0.017937098 -0.0009360964 0.008056118 0.0035960686 0.049256492 -0.009971222 -0.031116707
-0.019768532 0.018544232 0.0063480805 0.030162906 -0.016153445 0.040861286 0.00262201 -0.016277598
0.030524433 0.021091383 -0.000891791 0.04212484 0.016299194 0.0044013206 0.01559089 -0.009904587
0.04507057 -0.018419655 0.025832018 0.01773422 -0.004425001 -0.0010676839 -0.022331418 -0.005881089
-0.0007292563 -0.01771258 -0.01470161 -0.002218206 0.013013922 0.0032744838 0.012687574 -0.005363422
-0.0132538825 0.037672877 -0.016455336 -0.028847296 -0.017718825 -0.005196335 0.024192734 -0.029600894
0.014145259 -0.035420053 -0.023102423 -0.0062310565 -0.01454511 -0.04602031 0.028226148 -0.014021773

weight f4 [50, 16]
00000000: 2c44 1cbc eddf 843c cd4e 13bc ccdd ea3b
00000010: 080d 08bd 2973 8ebb f4c8 4a3c 8733 d63a
00000020: aa08 d93c d254 b83c 4ba4 f3bb 754c 72bb
00000030: 3730 11bb 209e fd3c 8586 1fbd 4288 80bc
00000040: 3448 c7bb 8bd3 8c3b d9cc 203c 2e15 053c
00000050: 8f90 8a3c 94ee ccbc fee1 203d 97fc 583c
00000060: 2262 4f3b d360 d9bb b445 d83a 2f15 f5bb
00000070: 7be8 c1bc 528f c2bc e46f 14bb 9d93 ff3c
00000080: 9bf2 74bc e35c f5bb dbd1 e0bb 19df 9bbc
00000090: 21de a7b9 7d28 463c 7899 1e3c dbcd fdbc
000000a0: 9731 00bc c94f 66bb 7246 5dbc 0f51 c0bc
000000b0: 3d84 553a 1298 803c dd74 4e3c f3b4 713c
000000c0: 84e8 d33c 1477 24bb f36e afbb 1400 683c
000000d0: 8564 b53c 7751 b6bc d429 f73c c9e3 08bb
000000e0: 89bb 7ebc 8bba 1dbd 29c9 f6bb 4dd7 953c
000000f0: e0f2 853a c20f bc39 d464 5a3c e3b2 793c
00000100: 20dd 493c aaeb a23c e549 113c af1c 7aba
00000110: e496 b0bc ba18 11bc 34c3 c5bc 7b57 90bc
00000120: e034 c43c 5e34 b3bb 7e88 c5ba 80b5 62bc
00000130: b732 9bbc e5fa 38bc f941 b8b9 6e1d 07bc
00000140: 5268 42bc ac1d d8bc dd1a 023d c7a4 633c
00000150: 6bf1 23bc b9e4 9f3b d418 b03b eb64 653b
00000160: 7b37 28bc 8b3c 893a 3b70 fb3b 8f92 ac3b
00000170: f989 b73c 2695 c23c 9392 ad3b 0b17 64bc
00000180: 4a74 8a3c aae9 293d 7090 973a 8e9c c7bc
00000190: 48bc 08bd dbf3 033c 73dd bfbc df97 03bc
000001a0: 10e0 8ebc 54eb 95bc 8031 58bc 0a03 8abb
000001b0: ab0f 31bc 6566 b63b 2976 9a3c b370 9ebc
000001c0: 0fa2 e0bb 4197 1cbd 25f3 cbbc d5bd 19bd
000001d0: 852d 6f39 866d 56bc 4ffb b2bc c018 b83c
000001e0: e56e d83c 6c20 6cbb 7e93 523c 9357 62bc
000001f0: 7df7 cfbb a0c4 b63a 5041 b73a e58a 7dbc
00000200: b3b7 f5bb 6784 603b 402c c5bc 8ef4 37bc
00000210: fedb 66bc 8022 0bbb 219e 623c db11 dc3c
00000220: afc4 88bc 9008 9d3a 2afa 143c 9c5a 66bc
00000230: 2f13 b93c 8970 9abc 040f 4dbb a7fe efbb
00000240: 096c 8d3c 3f82 8abb defa bcba 1cfc a5ba
00000250: db4d dbbc ab02 d13a f492 afbb 46b9 e53b
00000260: ad13 833c 0668 163c 0dd9 a93b d07e 403c
00000270: f8c4 183a bb07 60bb 2c25 d9bc 3c26 91bc
00000280: a217 53bd c7f3 a3ba 0ead 6a3c 5415 473c
00000290: 611c c23b a66f 9e3c 5016 2c3c 6b1a acbc
000002a0: 722e 9e3c 400b 5d3b d75f c9bc 70d3 88bc
000002b0: eb94 d8bb 3eff 2dbc 17a6 9d3c 8567 543b
000002c0: d595 f73b e7c4 febc 408a c3bc 98b5 1b3c
000002d0: 4ec4 d6bc 81a0 f33b 963b 08bd 52c5 413c
000002e0: 7d65 853c f96d 6d3b 3915 db3c 2198 51bc
000002f0: 2706 643d d46c 4dbc 501e 83ba 9942 8e3b
00000300: 5102 193d f97a 2a3c 972c 693d 1faa 073d
00000310: b051 463c f515 52bd 7b42 bb3b e5c7 a93c
00000320: 91d7 93bb 7c48 afbc 1ba2 a63c 978e 05bd
00000330: 26c5 37bc b019 6abc d5c0 3dbc d972 95bc
00000340: 8151 753b cf6a 94b9 2eb8 ff3c 4708 943c
00000350: 1544 c1bc 5301 263b d420 64bb 0d3d c03c
00000360: 78de a7bc c1eb 09bc af3a 91bc 7c47 143c
00000370: 58d4 703c cf3f 4f3d b625 93b9 fcf8 c3ba
00000380: 6e0d d2bc 3791 943b a009 a13c 271b 2a3c
00000390: 7259 29bc f895 d9bc 9cd6 1db9 5319 303c
000003a0: 9251 b13b 21ed 93bc 8b89 073c ad69 a13c
000003b0: 85f7 04bc ca7b a73c 2007 05bc 9bbf f6bc
000003c0: a165 65bb 8bc9 06bd 247d 08bd 6b48 a63c
000003d0: 0432 0dbd dcc4 fa3b fbb3 f2bc e611 2abc
000003e0: 8b78 c13c 263b 75bd 50cc d1bb 6399 04bc
000003f0: 79c5 12bd 5828 a53b 7df0 863b 58e7 ee3c
-0.009537738 0.016220057 -0.008990956 0.0071675535 -0.033215553 -0.0043472243 0.0123770125 0.0016342261
0.02649339 0.022501383 -0.0074353567 -0.0036971841 -0.0022153982 0.030959189 -0.038946647 -0.015689973
-0.0060816053 0.004297679 0.0098144645 0.008122725 0.016914634 -0.025016107 0.039278023 0.013243816
0.0031644185 -0.006633857 0.0016500265 -0.007479332 -0.023670426 -0.023749981 -0.00226497 0.031198317
-0.01495042 -0.0074878796 -0.006860954 -0.01902728 -0.0003201822 0.012094614 0.0096801445 -0.030981949
-0.007824323 -0.003514277 -0.013505565 -0.023476152 0.000814501 0.015697513 0.012601105 0.014752614
0.025867708 -0.002509539 -0.0053538023 0.014160175 0.022142658 -0.022255642 0.030171312 -0.0020887724
-0.015547642 -0.03850798 -0.0075313044 0.01829114 0.0010219477 0.00035869895 0.013329703 0.015240404
0.012320787 0.019887764 0.0088677155 -0.00095410174 -0.021556325 -0.008855993 -0.024140932 -0.017619839
0.023950994 -0.005468889 -0.0015070585 -0.013837218 -0.018945081 -0.011290287 -0.00035144368 -0.008246763
-0.011865692 -0.026381336 0.0317639 0.013894266 -0.010006289 0.004879561 0.0053740535 0.0035002779
-0.010267134 0.0010470314 0.007673291 0.0052664946 0.022404658 0.02375276 0.005297014 -0.0139215095
0.016901154 0.041482605 0.0011563431 -0.024366643 -0.033382684 0.008053745 -0.023421025 -0.008031814
-0.017440826 -0.01830069 -0.0131953955 -0.004211788 -0.010806958 0.0055664056 0.018855171 -0.019340849
-0.0068552564 -0.038230184 -0.024896214 -0.037534554 0.00022809774 -0.013087636 -0.021848349 0.02247274
0.026420066 -0.0036030067 0.012852548 -0.013814825 -0.0063466416 0.0013944097 0.0013981257 -0.01547501
-0.0074987053 0.0034258605 -0.024068952 -0.01122774 -0.014090536 -0.002123028 0.013831646 0.026863983
-0.016695349 0.0011980701 0.009092847 -0.014059689 0.022592155 -0.01885249 -0.0031289468 -0.007324058
0.01726343 -0.0042269523 -0.0014418026 -0.0012663635 -0.026770523 0.001594623 -0.0053580943 0.0070106117
0.016000593 0.009180075 0.005183345 0.011748984 0.00058276905 -0.0034184295 -0.026506983 -0.017718427
-0.05153621 -0.0012508564 0.014323486 0.012151081 0.005923793 0.019340347 0.010503367 -0.02100869
0.019309256 0.003372863 -0.024581833 -0.016702384 -0.0066095493 -0.0106199365 0.019244237 0.0032410335
0.007555703 -0.03109975 -0.023869634 0.009503745 -0.026216652 0.007434905 -0.03325995 0.01182683
0.016283745 0.003622888 0.026743518 -0.012792618 0.05566993 -0.012538154 -0.0010003541 0.004341435
0.037355725 0.0104052955 0.05692729 0.033121224 0.012104437 -0.05129047 0.005714712 0.0207252
-0.0045117815 -0.021396868 0.02034097 -0.032606687 -0.011216437 -0.014288351 -0.011581619 -0.01824324
0.0037432613 -0.00028308338 0.031215753 0.018070353 -0.023592034 0.002533038 -0.0034809606 0.023466611
-0.020491824 -0.0084180245 -0.017728178 0.009050246 0.014699064 0.050597962 -0.00028066122 -0.0014951522
-0.02564117 0.0045339125 0.01965791 0.01038245 -0.010336267 -0.026560768 -0.00015052635 0.010748225
0.0054113353 -0.018057408 0.008272539 0.01970371 -0.008115654 0.02044477 -0.0081193745 -0.030120661
-0.0035003203 -0.03290705 -0.03332247 0.020298203 -0.034471527 0.007652862 -0.029626837 -0.010380244
0.02361705 -0.05987086 -0.00640253 -0.008093211 -0.035832856 0.0050402097 0.004118024 0.029163048

weight f4 [16, 16]
00000000: f6af 8d3b ca66 413d f80f d73b 3d70 803c
00000010: 4153 6f3c 77cc c43c d8de 213d 54a9 c23c
00000020: 42bf 5c3c 45cb 063d a215 273b 45f3 f3bc
00000030: ef84 8bbb 7bde 70bc b8b9 693c 92eb 80bc
00000040: 6160 d2bc de9e 99bc 136d 3c3c 976a 0ebc
00000050: ce7c f2bc b9a5 82bc 5903 013c ac0a e4bc
00000060: 0e04 3fbc b114 153d 6e6b 7fbc f3e3 123d
00000070: c70f d4bb dbf8 cc3b 32f7 143d 98c4 69ba
00000080: 563e 03bd b312 bf3c f4a2 a03c dc7a b23a
00000090: fb69 63bb b659 04bd 611b cbbc fd82 f33c
000000a0: 58bf 0b3d 94ab 563c e345 f239 3354 9cbc
000000b0: 0958 84bc bd0a 35bd 4f4c df3b 429b fdbc
000000c0: 87f3 7a3b f2f6 4fbc 3832 bf3c 06d2 2ebd
000000d0: 208a 213d 960b 8c3b f795 1f3d 2085 8f3c
000000e0: aa97 043b 3b60 913b 4c88 58b9 b38b 7e3c
000000f0: 87ec f13c 1c40 473c a298 d1bb 0097 fdbc
00000100: 2a2c 08bc eb0f 843c c627 8a3c d2d4 7dbc
00000110: f523 64bc 4f11 763c 1a93 133b bd0c 44bd
00000120: a409 92bc ab37 50bb 22b3 683b d3de 743c
00000130: 0a91 a6bc 8da5 0b3c a9d4 a33b 4950 ac3b
00000140: c353 15bc 063e 663c 5483 183c ef81 ef3b
00000150: c3e8 84bb f117 9c3c 8143 283c d394 7cbc
00000160: 519c 08bc e1ba 423d f16d 05bc b704 4cbc
00000170: 632c f93c 3484 81bc 4453 9a3b 3837 f6bc
00000180: 4bc1 2dbd 8081 b1bc 6f8f af3c 38a2 74bb
00000190: 9148 163c cc85 88bb bcf0 b83c 1e98 a6bb
000001a0: c0b6 62bc 1844 9dbb d526 333c e55e e33a
000001b0: e971 f5bb 2f5d b7bc 2a7e e83b b993 d2bc
000001c0: c972 9a3c 673d 163d f26b c33c 7e22 6abc
000001d0: 4ee6 c6bc cc57 d8b9 0690 e33c fd33 0fbc
000001e0: 38fc 11bc 2fac 89ba 1623 acbb a753 8fbc
000001f0: 796d cebb 5308 42bc 2197 703d ca8d 02bd
00000200: cc4f dc3b 86b4 27bd 5333 6abb 448d 433c
00000210: 60d3 5dbb 3472 40bc a992 6fbc 68cd 853c
00000220: d3cc 1ebb 6c3e 893c 5481 9d3c 1ca9 263c
00000230: 78fc 023d 6c83 953c 6bfd 813c a698 433c
00000240: 1630 893c f28f 8b3c f8ae df3c 1e0c 80bc
00000250: b761 453c a664 1bbc 4b50 a4bc 0741 34bc
00000260: ea23 e63b f2d5 8d3c 957c 62bc 54c6 b53b
00000270: 7bfb 9a3c d22d c1bc ac1e f53b 846d 563b
00000280: 023b c53c a90f 9b3b 7f55 883b 2ec9 c2bc
00000290: 81b1 6c3c 2ed2 e5bc ca4b 003c bdb0 0c3b
000002a0: 9c90 9abc 2400 adbb b9ba 5abc 85c9 9cbc
000002b0: 06cb 043d d487 dcbc f0b9 933c ce49 3dbc
000002c0: b453 83ba 3e4c 96bc 5b42 5a3c d2b6 8fbb
000002d0: 103c bb3c 4bb9 6c3b c410 babc f725 033d
000002e0: 727b 983c 6666 1ebc 6e75 393c 5e1e 45bd
000002f0: 4472 0cbc 9363 7f3c 0c2a dabc 2c1b 093d
00000300: 1c57 9ebc b762 fabb 4435 293c 6f89 2dbc
00000310: e177 99bb 634a f13c 2944 f4bc bc32 343c
00000320: f4a3 343c 66de c7bc ac1d f1bb 4f82 8ebc
00000330: b367 c23c a25e b9bc 0d95 adbc b70a 68bc
00000340: 435f 843c 8b24 ce3c b799 193b c2d9 d9bc
00000350: be35 25bd e923 4c3c c15e 40bc a956 37bc
00000360: 2c9c f23c 4935 e53c 9c9a 763c f25c a9bc
00000370: 40c8 873c 6b9a acb9 aeca a5bc 4456 1bbb
00000380: 73ac 4fbc 0b41 383c 1e8f 1b3c 22c8 44bc
00000390: 6f26 513c 56df 8bbb f1b2 12bc 14b1 15bd
000003a0: dd14 6a3c 96e2 043c d45b 11bd 0b06 b5bc
000003b0: 2c23 cd3c 57b2 11bb 1286 00bd 9b69 acbc
000003c0: 1f4e 11bc 1e99 f7bc 8b60 fabc d675 1ebd
000003d0: b803 ed3c cba9 77bc 04f4 84bc 6278 72bd
000003e0: 470b edbb 0206 233c 5fae 08bd 412a 253d
000003f0: c09c 0a3c c7ff 26bb 497b efbc f958 a03c
0.0043239547 0.047217168 0.006563183 0.01567852 0.014607252 0.024023278 0.03951916 0.023762383
0.013473334 0.032908697 0.0025495072 -0.029779086 -0.0042577903 -0.014701481 0.01426547 -0.015737329
-0.025680723 -0.018752512 0.011500615 -0.008692405 -0.029600527 -0.015948163 0.007874333 -0.02783712
-0.011658682 0.036396686 -0.015589578 0.03586192 -0.0064716074 0.006255252 0.036368556 -0.00089175394
-0.03204187 0.023324346 0.019608952 0.0013616937 -0.003470062 -0.032312118 -0.024793329 0.029725546
0.034118026 0.013102431 0.00046209907 -0.019083118 -0.01615526 -0.044199694 0.0068145166 -0.030957822
0.0038292126 -0.012693154 0.023339376 -0.042680763 0.039438367 0.004273842 0.038961377 0.017519534
0.0020232 0.0044365204 -0.0002065014 0.015536237 0.02953173 0.012161281 -0.006396369 -0.030955791
-0.008311311 0.016120872 0.016864669 -0.015492635 -0.013924588 0.015018775 0.00225181 -0.04786371
-0.017826863 -0.0031771462 0.0035507162 0.014945704 -0.020332832 0.008523357 0.0049997163 0.005258594
-0.009114209 0.0140528735 0.009308655 0.0073091905 -0.0040560677 0.019054385 0.01027 -0.015416342
-0.00833805 0.047541503 -0.008143888 -0.012452296 0.030416673 -0.01581011 0.004709633 -0.030055627
-0.042420667 -0.021668196 0.0214307 -0.0037328135 0.009172575 -0.0041663405 0.022575729 -0.0050840518
-0.013837516 -0.004799377 0.010934551 0.0017347006 -0.007490386 -0.0223833 0.007095118 -0.025705205
0.018853562 0.03667965 0.023855183 -0.01429045 -0.02427974 -0.00041264144 0.027778637 -0.008740422
-0.008910231 -0.0010503585 -0.005253206 -0.017495943 -0.0062996713 -0.011842805 0.058737878 -0.0318735
0.0067233797 -0.040943645 -0.0035736158 0.011935536 -0.0033847913 -0.011745978 -0.014622369 0.016333297
-0.0024230971 0.016753398 0.019226708 0.010172155 0.031979054 0.018251143 0.01586791 0.01193825
0.016746562 0.017036412 0.027305111 -0.015630778 0.012047223 -0.009484446 -0.020057818 -0.011001832
0.0070233243 0.017313931 -0.013823648 0.005547324 0.018918743 -0.02358142 0.007480463 0.0032719085
0.024075989 0.0047320914 0.0041605826 -0.02377757 0.014446617 -0.028054323 0.0078305695 0.002146765
-0.018867783 -0.005279558 -0.013350182 -0.01913906 0.03242018 -0.026920237 0.018032998 -0.011553241
-0.0010019452 -0.018346902 0.013321484 -0.0043858076 0.022855788 0.0036121185 -0.022713073 0.032018628
0.01861355 -0.009667968 0.011319501 -0.048124664 -0.008572165 0.015587705 -0.026631378 0.03347318
-0.019328646 -0.0076411623 0.010327641 -0.010591849 -0.00468348 0.029454416 -0.029817658 0.010998424
0.011025418 -0.02439804 -0.0073582735 -0.01739612 0.023731088 -0.022628132 -0.021189237 -0.014162711
0.016158706 0.02516391 0.0023437568 -0.026593093 -0.040334456 0.0124597335 -0.011741341 -0.011190095
0.029615484 0.02797951 0.01505151 -0.020674203 0.016574979 -0.00032921447 -0.020238247 -0.0023702541
-0.012675392 0.011245976 0.009494571 -0.012010606 0.012765511 -0.004268567 -0.008953796 -0.036545828
0.014287201 0.008110663 -0.035487965 -0.022097608 0.025041185 -0.0022231543 -0.03137786 -0.02104645
-0.008868723 -0.03022438 -0.030563613 -0.038686596 0.028932437 -0.015116165 -0.016229637 -0.059196837
-0.0072340104 0.009950163 -0.03336942 0.0403235 0.008460224 -0.0025482045 -0.029233592 0.019573675

bias f4 [16]
00000000: 0000 0000 0000 0000 0000 0000 0000 0000
00000010: 0000 0000 0000 0000 0000 0000 0000 0000
00000020: 0000 0000 0000 0000 0000 0000 0000 0000
00000030: 0000 0000 0000 0000 0000 0000 0000 0000
0.0 0.0 0.0 0.0 0.0 0.0 0.0 0.0
0.0 0.0 0.0 0.0 0.0 0.0 0.0 0.0

weight f4 [16, 16]
00000000: 35e2 593b 8ead c03c 2b1e 7ebc f2e1 743c
00000010: 2188 a43c 99ec 6e3c 890c c53b 2481 0dbc
00000020: 4796 3fbc 4e88 b9bc b82c c03b e209 8b3c
00000030: 74c6 d03b 6a16 ea3c 106e aebc 3914 143c
00000040: 9736 00bd 2d51 443b fb28 babc f094 e43b
00000050: 4647 03bd 0faa 54bc a63a 21bc 352e 1a3d
00000060: 9e51 7dbc 779f 273c 6ba1 bf3c 9d1d 07bd
00000070: d2a2 393b 8f82 0bbd 3909 6c3b 09d8 313b
00000080: 25e1 afbc e661 b43c 0b50 623c d20f babc
00000090: 0a29 d43c 58d9 08bc d198 16ba 5053 033c
000000a0: c039 b03c 0b9d 073c d030 083d dc4d 5fbb
000000b0: cac6 ba3c 09ae 9e3b 7824 9c39 3477 d0bb
000000c0: 3584 60bc 1404 f53b ad52 3b3d 7f5e 0f3c
000000d0: e65a 343c 3dab 883c 071b 87bc 8f7a 333d
000000e0: 976e 923b 4996 863c 050a d6bc 10bd c53c
000000f0: 8dcc 833b 2246 4d39 5a05 1cbc 0136 cc3b
00000100: 100c cfba f67b 8dbc 080e 833c bf80 803b
00000110: 9296 d13c 74bd 8f3c 8452 c63c 45f2 de39
00000120: 474e 00bd 8cb8 0cbd e210 8c3c b6a4 9bbc
00000130: 387b b9bb 9ded b9bb 09fd eebb 5e47 be3c
00000140: 02b2 22bc 1077 013c 47de 353c 7354 cb3a
00000150: 219f 37bd 8a65 28ba b225 793c 92d5 763c
00000160: cd1f 3ebc 3314 603c 5e2c 64bc 8b2a 2d3d
00000170: 30fe 6639 5bab f6ba 1d32 5bbc 32d3 abbc
00000180: 1d6a a6bc e574 efbc 3e7f 6c3c 3ead 923c
00000190: d502 e93c c741 dbbb e5f4 2f3d 207a f9bb
000001a0: dd12 e5bc 56c7 90bc ef5d d53b fea0 c439
000001b0: abce b6bc 3030 ecbc 265b 3b3c 2cfc edbc
000001c0: 4b66 5cbc 8cd2 523c 4e57 9e3c 7914 c2bb
000001d0: 1ce1 533c 522e 9dbc 343c 083d 4ab4 1fbc
000001e0: 4dea 21ba c6a5 0d3d 56ad 96bc 5cac ec3b
000001f0: a4f2 0bbc 8c0b 7ebb 8b65 15bd 69eb 313a
00000200: cf30 81bb 7332 22bb d9a3 473c 8240 b5bc
00000210: 6641 9a3c 9a3a 80bb 9e0c ee3c 9e75 193c
00000220: de07 283c 7d69 ddbb 1f68 9e38 8adb efbb
00000230: 9421 693c 2011 6abc 1475 283c 4271 cbbb
00000240: 0e1a 23bb e2e3 b1bc 9b61 b83b 1c96 cfbb
00000250: bb39 4f3c 2f92 a43c cdfa 113d 5ee4 d43b
00000260: ce1f 5cbc 910a 123d 3b97 823b 2376 903b
00000270: 9d0d 5b3b 4934 d53c 6256 16bc 04f7 0d3b
00000280: 2f13 7d3c 406e 943b bbf8 2abc 4c81 8abc
00000290: c0a9 28bc b256 123c 89fa 56bc b4f7 7c3c
000002a0: 62a3 5ebc 9090 aabc d0e8 07ba 2b6e 8bb9
000002b0: c1d7 d53c 47a4 e53b a099 03bb e006 0ebd
000002c0: d73a 5dbc 90ea 95bc 4953 ce3b 0a6b bdbc
000002d0: 80c5 b93c a52f 3dbd 3b21 343d 61af 9f3a
000002e0: 1334 3ebc 13d4 123b 4e30 e6ba 6fc9 69bc
000002f0: ee7a 713c 70fd e6bb 221f fc3a 6c1b 16bd
00000300: 36d4 263b c6bf 143c 1e10 2dba 755c 0abc
00000310: ac46 61bc 60e9 3ebc fc16 3a3c d923 ebbb
00000320: 1ffd 97ba fe85 fb3b a2ac 933c 20b5 9a3a
00000330: d062 3abd 8deb c6bc 6a9c 30bb f0cc 0a3d
00000340: 1010 8fbb b627 95bc 39d4 9b3c ddff 0f3b
00000350: 9b49 903b bc21 a8bb a2e6 2b3d 95d2 47bc
00000360: e979 1dbc 1cbc 7abc dc77 7c39 398b 533d
00000370: a904 80bb a4b5 07bc 4183 943c 873f fb3b
00000380: f7cd 2dbd e419 dbbb 4219 99bb 52ce 5bbc
00000390: 27ed 433c 7993 febb 4cae ddbb 0e10 20bc
000003a0: a59d 593d edef a73c ddbb cb3b 3986 e23c
000003b0: 9d1d e3bc 7e42 d43c 1e7e 3dbc 206c ad3c
000003c0: 53a0 55bc e0d4 763c a0bc eb3a 73c5 30bb
000003d0: b394 623c 1bc5 95bc 9ed4 f1ba d159 9f3c
000003e0: c3ff ff3c 0bd4 06bd 82a0 46bc 2b45 92bb
000003f0: 0f02 f43c f430 c73c 46d2 083c d342 6bbc
0.0033246402 0.023520257 -0.015510122 0.014946448 0.020084443 0.014582776 0.006013457 -0.008636747
-0.011693544 -0.022648003 0.005864706 0.016972486 0.0063713137 0.028575141 -0.021292716 0.009038025
-0.03130206 0.002995561 -0.02272462 0.0069757625 -0.032050394 -0.012979998 -0.009840643 0.037641723
-0.015461354 0.0102308905 0.0233924 -0.032987226 0.0028325808 -0.034060057 0.003601624 0.0027136824
-0.021469662 0.022019338 0.013813029 -0.022712622 0.025898475 -0.0083526 -0.00057448173 0.008015469
0.021511912 0.008277188 0.033249676 -0.0034073507 0.022799868 0.004842524 0.0002978181 -0.0063618664
-0.013703396 0.007477293 0.045733143 0.008750557 0.011008 0.016683215 -0.01649238 0.043818053
0.0044687497 0.016429083 -0.026127825 0.024138004 0.004022187 0.0001957645 -0.00952276 0.0062320237
-0.0015796442 -0.017271023 0.015997902 0.0039215977 0.025584493 0.017546393 0.024209268 0.00042523645
-0.03132465 -0.034355685 0.017097894 -0.018999439 -0.005660441 -0.0056740777 -0.0072933477 0.02322739
-0.009930136 0.007901922 0.011100358 0.0015512839 -0.04482949 -0.0006423822 0.015206741 0.015065568
-0.011604262 0.013676691 -0.013926594 0.0422769 0.00022029202 -0.0018819378 -0.013378647 -0.02097473
-0.02031427 -0.029230544 0.014434634 0.017904874 0.028443733 -0.006691191 0.04295816 -0.0076134354
-0.027963096 -0.017673176 0.006511442 0.00037503982 -0.022315344 -0.028831571 0.011435306 -0.029050909
-0.013452123 0.012867581 0.01932874 -0.0059228507 0.012932088 -0.019187126 0.03326054 -0.009747574
-0.0006176576 0.034581922 -0.0183932 0.0072226953 -0.008541737 -0.0038764207 -0.036473792 0.0006787093
-0.003942586 -0.0024749308 0.01218506 -0.022125486 0.018830013 -0.003913236 0.02905875 0.009366421
0.010255782 -0.00675696 7.553421e-05 -0.0073198723 0.014229197 -0.0142863095 0.01028182 -0.0062085697
-0.0024887356 -0.021715108 0.00562687 -0.006335033 0.012648041 0.020089237 0.035639573 0.00649695
-0.013435317 0.03565461 0.0039853132 0.0044086142 0.0033424862 0.026025908 -0.009175869 0.0021662125
0.015446468 0.0045297444 -0.0104352785 -0.016907357 -0.010294378 0.008931803 -0.013121256 0.015439916
-0.013588758 -0.020820886 -0.0005184533 -0.00026594228 0.026103856 0.007008109 -0.0020080581 -0.034674525
-0.013502798 -0.018300325 0.0062965495 -0.02312233 0.022677183 -0.046188015 0.043977004 0.0012183004
-0.011609095 0.0022404238 -0.0017562003 -0.014269217 0.014738781 -0.007049255 0.0019235353 -0.036647245
0.0025456077 0.0090789255 -0.0006601828 -0.008444895 -0.01374976 -0.011652321 0.011358019 -0.0071759042
-0.0011595822 0.007675885 0.018026654 0.0011803247 -0.04550439 -0.024282241 -0.0026948699 0.03388685
-0.0043659285 -0.018207412 0.019022094 0.0021972575 0.0044033057 -0.0051309746 0.041967995 -0.012196203
-0.009611585 -0.015303638 0.00024077244 0.051646445 -0.0039068055 -0.008283053 0.018128993 0.007667485
-0.04243275 -0.006686436 -0.0046722004 -0.01341589 0.011958397 -0.007769045 -0.0067651626 -0.009769453
0.053128857 0.020500148 0.0062174634 0.027651893 -0.027724082 0.025910612 -0.011565713 0.021169722
-0.013038713 0.015065402 0.0017985292 -0.0026973158 0.013829398 -0.018282464 -0.0018450206 0.019452007
0.031249886 -0.032917064 -0.012123229 -0.004463812 0.029786138 0.024315335 0.008350914 -0.014359194

bias f4 [16]
00000000: 0000 0000 0000 0000 0000 0000 0000 0000
00000010: 0000 0000 0000 0000 0000 0000 0000 0000
00000020: 0000 0000 0000 0000 0000 0000 0000 0000
00000030: 0000 0000 0000 0000 0000 0000 0000 0000
0.0 0.0 0.0 0.0 0.0 0.0 0.0 0.0
0.0 0.0 0.0 0.0 0.0 0.0 0.0 0.0

weight f4 [16, 16]
00000000: 9e27 aa3b 0414 3e3d 97bf d33c 5e5d 9bbc
00000010: e93c 03bd 7eb7 193c c7a2 2abc 326a 593c
00000020: 851b 753c 17ee 87bc 3ced d5bb d5a4 02bd
00000030: 0942 353c 6020 7dbb 46de 75bb 6e0d 57bc
00000040: f9ff 29bc 5ff1 143d 5694 823b eb30 3c3b
00000050: d8f1 2537 0523 e13c 5d84 01bd 6eed 5ebc
00000060: 49d4 95bc a010 75bc 6f4c c83c 740c c5bc
00000070: c0da 1e3c e130 e7bb c90a 0b3c d349 e33c
00000080: d405 a43b bdf1 883a 8230 0d3d 427e 46bc
00000090: ec1f 7cbc 9c2c 36ba 87ba 693c 2b5d 97bb
000000a0: 9b17 f03b c9d5 bc3c 1267 4bbc 5716 a23b
000000b0: b529 4a3c 1eda 0d3c cde5 253d 8bcb 80bc
000000c0: bc9d a7bb 122a 8c3c 8cc1 7aba a535 273b
000000d0: 202a 9b3c d79c 07bc b414 68bd 6417 b6bc
000000e0: db6f c93b 391b 073c 9be7 63bb 6e2e ab3c
000000f0: dee2 533d f394 cb3c 78dd a0ba 1465 383c
00000100: 4bca 8b3c f38d b03c 723c 9fbc 27ce ad3c
00000110: 16bb 15bd 9d58 0dbc d341 3d3c 2fb7 833c
00000120: cd1b 303c 1a66 a0bc 1e8c c03c eb68 a8bb
00000130: 7c18 d83a 5b8f 2cbb 41b5 fe3c 930d 48bc
00000140: 3429 05bd af0e 8ebb 53a4 48bc 24d2 983c
00000150: 98f5 bbbb 5b08 a93c e1e7 56bc b245 08bc
00000160: cac8 0e3d 0587 e2bb 907d dabc a401 ccbc
00000170: 2f06 743a 5b82 43bc b869 a43c a4c6 dc3c
00000180: 63b6 78bb 8689 f2bc ae9a 27bc ef85 6cbb
00000190: 7375 ba3b 59b1 04bc c028 44bc b025 a03c
000001a0: 80ce a1bb 07b0 5b3b d63b a23c 8d86 323d
000001b0: 1531 cf38 eb11 59bc 8021 5ebc 8464 1d3c
000001c0: 95c9 6fbb 5ee4 7ebb 03e0 16bc b859 cb3b
000001d0: 251b c0bc 3894 513d 7d27 3fbd 2b53 1f3c
000001e0: 0b52 b7bc 9856 7abc 5e54 99bc 1eb4 733b
000001f0: 6594 debb 6d41 05bc 6fec 443b c0f6 7a3c
00000200: 107c 433c b835 c53c 0790 a43b 9449 2a3d
00000210: a455 21bb 2c36 fdba fa9f 1e3c 6f0a 1dbd
00000220: 80f4 49bc 1579 cbbc aa44 d9bc 97e9 56bc
00000230: c1b6 4c3c 8f03 623c 9961 80bc add8 083b
00000240: fd34 1a3d 7caf b53a adbf 923b 6b55 e13b
00000250: f2ac 1f3c 2247 f3ba 41b5 0bbd 75b8 35bc
00000260: 9ed9 d93c dca6 8fbc 13d1 c3ba f671 2fbb
00000270: fcaf e33a 48e8 213b b947 1cb6 ffe8 083c
00000280: 6247 003c e132 0dbd 60fa c73c e6d3 32bd
00000290: deb7 c5bb 0698 3fbc 0f0c 1c3c c0bd ca3a
000002a0: fed0 51bb 9b2a 6cba a110 f13c 29db 963c
000002b0: fdc6 073b c02b 823c 0ddd 833c 3341 21bb
000002c0: 2115 2fbc b057 81bc 8d3e b1bc edfa bfbc
000002d0: 5e60 843c e0c1 463c fb9e bfbc 8e23 4ebd
000002e0: 175f 64bc 2270 003a d0f6 313c 8cc6 7839
000002f0: 869a 79bb 44d8 e1bc 0214 b4bc 8763 07bc
00000300: fb3d 9dba e207 00bd b8e5 8a3c 97a9 23bd
00000310: 189c e8bc 4d38 a13a bc45 263d 091c 263d
00000320: 1054 4a3c 2a8d 673c d44e 883c 95b8 e93b
00000330: a71e 9cbc 76be a7bc 5940 c1bc f3c6 f5bb
00000340: 2a91 733c a216 bb38 bb03 eaba 7de4 17bc
00000350: 42d0 42bb e7e5 9c3c 5ee5 f63c 79a6 0bbd
00000360: 1b2b f93c df06 0a3d c03a 67bb f4c9 003b
00000370: cf18 ccbc 2dde a6bb 992c 663c f437 04bd
00000380: 4e5a d13b cf0a dc3c 2dfc 943a 4655 d53c
00000390: 926a bb3a 82dd b0bc 64d2 4ebb b14b 8f3c
000003a0: b51e 75bb 02a3 0bbd 4e4d 44bb fba9 04bc
000003b0: 32e4 fabb bec3 e83c 5389 58bc 403f 1c3c
000003c0: 5b32 f6bc 7abb 09ba 534a 25bd 5a38 12bc
000003d0: d912 593c 17ab a939 de43 a93a c1a5 bfbb
000003e0: b7ad 31bd c71c 803c 6594 ad3c 6d9a c938
000003f0: d96f 51bc 876f 163b 5c1b 3fbd a2c3 36bc
0.005192711 0.046405807 0.025848193 -0.01896542 -0.03204051 0.009382127 -0.010414786 0.013269948
0.014960174 -0.016593022 -0.0065285247 -0.031895477 0.011063107 -0.0038624033 -0.0037516518 -0.0131257605
-0.01037597 0.036363002 0.003984968 0.002871568 9.891075e-06 0.027482519 -0.031620372 -0.013606412
-0.018289702 -0.014957577 0.024450509 -0.02405379 0.009695709 -0.0070553874 0.008486458 0.027745163
0.0050055776 0.001044802 0.03447009 -0.012115063 -0.01538847 -0.00069493963 0.014265663 -0.004619261
0.0073270327 0.02305116 -0.012414711 0.004946511 0.012339045 0.00865796 0.04050236 -0.015722057
-0.005115239 0.017109904 -0.0009565584 0.0025514152 0.018940985 -0.00827714 -0.05666037 -0.02222795
0.0061473674 0.0082462365 -0.0034775499 0.020896163 0.05173003 0.024851298 -0.0012273034 0.011254568
0.017064234 0.021552062 -0.019438002 0.021216465 -0.036555372 -0.008627084 0.011551338 0.01607856
0.010748816 -0.019579936 0.023504313 -0.0051394603 0.0016486789 -0.0026330564 0.031092288 -0.012210268
-0.032509997 -0.0043352465 -0.012246209 0.01865489 -0.005736064 0.020633867 -0.013116808 -0.008317398
0.034859456 -0.0069130682 -0.026671201 -0.024903126 0.0009308783 -0.011932935 0.020069942 0.026950188
-0.0037950508 -0.029606592 -0.01022975 -0.0036090573 0.0056902706 -0.008098924 -0.011972606 0.01954922
-0.004937947 0.0033521669 0.019803923 0.04358535 9.8796714e-05 -0.013248901 -0.013557792 0.009606484
-0.0036588658 -0.0038893442 -0.009208682 0.0062057637 -0.023450444 0.051166743 -0.04666852 0.009724419
-0.022377988 -0.015279435 -0.018716987 0.0037186216 -0.0067925924 -0.0081332745 0.0030048152 0.015317619
0.011931434 0.024073467 0.005022052 0.041574076 -0.0024617696 -0.0019318513 0.009681696 -0.03834003
-0.01232636 -0.02483801 -0.026522 -0.013117216 0.012494744 0.013794794 -0.015671538 0.0020881102
0.03764819 0.0013861503 0.004478416 0.0068766377 0.009745823 -0.0018560628 -0.034108404 -0.011091341
0.026593026 -0.01753562 -0.0014939628 -0.0026770807 0.0017371173 0.00247051 -2.328756e-06 0.008356332
0.007829519 -0.03447235 0.02441138 -0.043659113 -0.0060338816 -0.01169396 0.009524359 0.0015467927
-0.0032015438 -0.0009009034 0.029426875 0.01841505 0.0020717971 0.015890002 0.016096616 -0.0024605512
-0.01068619 -0.015788883 -0.021636272 -0.02343508 0.016159233 0.012131184 -0.023391237 -0.050326876
-0.013938687 0.00048995216 0.010862067 0.00023725088 -0.0038086488 -0.027568944 -0.021982197 -0.008263475
-0.0011996621 -0.031257518 0.016955242 -0.039956655 -0.028394744 0.0012300104 0.040593848 0.04055408
0.012349144 0.014132777 0.01663915 0.0071325996 -0.019057585 -0.020476561 -0.023590254 -0.0075005232
0.014866153 8.9210705e-05 -0.0017853895 -0.009270784 -0.0029726182 0.019152595 0.030138668 -0.034094308
0.030416062 0.03369796 -0.003528282 0.0019651623 -0.024914173 -0.0050924034 0.014048719 -0.032279924
0.006388939 0.026860623 0.0011366658 0.026041638 0.0014298728 -0.021589998 -0.0031558508 0.017492147
-0.0037402336 -0.034091003 -0.0029953304 -0.008097167 -0.0076565975 0.02841365 -0.013216334 0.009536564
-0.030053308 -0.00052540714 -0.040354084 -0.008924568 0.013249123 0.00032361664 0.0012913903 -0.005848617
-0.043378558 0.015638722 0.021188924 9.613191e-05 -0.012783014 0.002295466 -0.04665695 -0.011155041

bias f4 [16]
00000000: 0000 0000 0000 0000 0000 0000 0000 0000
00000010: 0000 0000 0000 0000 0000 0000 0000 0000
00000020: 0000 0000 0000 0000 0000 0000 0000 0000
00000030: 0000 0000 0000 0000 0000 0000 0000 0000
0.0 0.0 0.0 0.0 0.0 0.0 0.0 0.0
0.0 0.0 0.0 0.0 0.0 0.0 0.0 0.0

weight f4 [16, 16]
00000000: dbb0 82bb 9990 67bc d0ee fb3b e30c 7dbc
00000010: 1d2f b03b 8b1e 193c 9be7 fcbc 4445 b03c
00000020: a696 dbbc 348f 01bb 16a6 063d c938 dfbc
00000030: 1e34 85bc deee 53bb 87cb 883c e55b 24bc
00000040: b9d9 c8bc 5bd9 323b b3fb dbbb cb2a c0bc
00000050: e189 abbc 5bea c83c 67bf a73c c745 7f3b
00000060: 032e 6dbc a29e c7bc e444 033d a550 203c
00000070: 87cd 03bb e6b5 e9bb 1c26 64bc b932 d0bc
00000080: 112a a1bc a0c7 233d f848 343b e15b 9e3c
00000090: bd07 153d 292d 86bc 1902 85bc fed4 f4bb
000000a0: 1699 0cbd 06f8 513b d58e a03c 7b74 ffbb
000000b0: 3dad cf3b 24b0 4a3c a731 8ebc 2a35 063b
000000c0: dbb3 c9bc 8f7c 0b3d 5da1 3cbc 1705 823c
000000d0: c920 2dbc adc9 15bb 6638 c4bc a982 39bb
000000e0: 5bae 923c 2224 563a adf9 383c 5d2f e93c
000000f0: 073f e03c 1ec3 8cba 1407 29bc 550d 553c
00000100: 19bd a83a 787e c2bb 200b 59bc 6346 073d
00000110: 43cb 1f3c 24ba b93c a22d d03a 1cc0 d7bc
00000120: 7283 96ba 3244 1dbc 74ca 43bc 584b 2b3c
00000130: d4ed 9cbb 42a4 683c 7d8c 8c3c 1cb6 46bc
00000140: 5239 eebb eff9 633c ab41 bebc eb8a 503d
00000150: 4e1c 543c 90a5 2cbc 36bb 01bc b3cc 243d
00000160: 1512 693c d8a2 fd3b 3753 41bb a784 88bc
00000170: 434f 7ebc be36 9b3c ac3a dfbc 47bf 00bd
00000180: 58a2 4cbc b79a 14bc d51e 7c3c acd6 60bc
00000190: efad c5b9 67a3 e1bc 126f ecba 79be 03bd
000001a0: d3eb ce3c 1b45 b63c 26be 873c 7db6 aebb
000001b0: 40c9 bebc 24c3 60bc 4b54 233b 59ae 433c
000001c0: 3d3a c23c bc14 8c3c 149f 0f3a 3a8a 8cbc
000001d0: 443d dbbb fa73 18bd 9c4a 15bd d730 3b3c
000001e0: a6f2 87bb 2b5b 19bc 9bea 9c3b 9d51 3ebd
000001f0: 7d2b a33c 1d1c eeba 5406 dabb 6c28 50bc
00000200: 61d1 2d3d b5d5 c73c 8cf9 a03c e261 26bd
00000210: c9d9 0b3d ab85 b83c 8f8b dc3b a717 61ba
00000220: bc14 923c ed00 b9bc f81d c83b 34e5 a6bc
00000230: 12f2 97bc 6b3f 15bc 2327 f63b e45a 91bb
00000240: 3bc0 32bc 8b3b e73c 3540 03bd 9082 443d
00000250: 94d7 d6bb 59f7 473b 7ef1 733a 5795 33bd
00000260: 41c8 123c 8adf 5fbc e2af 183c d6f3 27bd
00000270: dc67 66bc 7de2 1bbd 01bf 62bc 9629 963c
00000280: 3de4 0d3d 86f6 ef3c 8c64 893c 5d5c eebc
00000290: 51dd 15bc 65c0 e53a 29c0 e33c bdd5 92bc
000002a0: ed10 85bc 3967 143b e972 04bc eb46 01bc
000002b0: c1c1 2dbb ee04 9fbc ee21 a0bc 0956 523c
000002c0: 47c6 603c 1d9e d2bc a1d8 7dbc 8ac5 e9bc
000002d0: 0af5 cc38 6d29 a33c 2665 3ebd bd1f 4b3d
000002e0: 4d50 0f3c 75d4 533c 5d51 5d3c 4941 2abb
000002f0: 4f60 543d 44d6 0c3b 53fd 98bc b35d eebc
00000300: 1c39 57bc 9eb4 9e3c 8180 dc3c e716 74bc
00000310: 37da 32bc 3b4b 16bb 5461 bf3b c052 6abc
00000320: 6be2 a23b 26bf feb9 cbae 14bd a487 893c
00000330: e2dc 51bc 26b5 d33c 9b0e bb3c 2c51 65bc
00000340: 93e9 51bd bd4c f1bc 357d 0e3c 6f73 90bc
00000350: a091 893c 3097 17bc 60b7 953c bbdf 853c
00000360: d8ae d7bc 7b31 663c 40fa 3fbc d46c 19bd
00000370: 70b4 f13c 71d0 0b39 0683 863d ebb8 5cbd
00000380: 4b52 5dbc bb62 92bc ab77 2bbd 180d 4f3c
00000390: 73ac b33c de06 aebc bc06 31bd 4998 38bc
000003a0: af28 f43a dbbe c3bc 1d99 2fbc ee0b 063d
000003b0: b426 3e3c 11a7 0abc ef62 0abd 9624 16bc
000003c0: 58a9 f2bb f91e 20bc fec0 553d ed8f 9b3c
000003d0: 65e8 bebc 870d f5ba 21e4 543c e205 8639
000003e0: 4215 963c 262a 92ba 4979 ec3c b046 b939
000003f0: 4381 0cbd 9563 ee3b a72d a5bc cc6c 853c
-0.003988368 -0.014133596 0.007688381 -0.015444967 0.00537671 0.009345661 -0.030872157 0.021517403
-0.026805233 -0.0019769194 0.032873236 -0.027248757 -0.016260203 -0.003233842 0.016698612 -0.010031675
-0.02451788 0.0027290198 -0.0067133545 -0.023457905 -0.02093977 0.024525812 0.02047701 0.0038951503
-0.014476302 -0.024367634 0.03204812 0.009784852 -0.0020111518 -0.0071322797 -0.013925102 -0.025414811
-0.01967338 0.0399853 0.0027509313 0.01933092 0.036384333 -0.016378956 -0.016236352 -0.0074716797
-0.03432568 0.0032038703 0.019599358 -0.007795868 0.0063377903 0.012371097 -0.01735766 0.0020478466
-0.024621895 0.034054335 -0.011513081 0.015871568 -0.010566899 -0.0022855804 -0.023952674 -0.002830664
0.017905405 0.00081688364 0.011289996 0.028464967 0.027373804 -0.0010739302 -0.010316629 0.013003667
0.0012873738 -0.0059354864 -0.013247281 0.03302611 0.009753051 0.022671767 0.001588274 -0.026336722
-0.0011483266 -0.009598779 -0.011950124 0.010454975 -0.0047890935 0.014199318 0.017156834 -0.012128379
-0.0072700167 0.013914569 -0.023224672 0.050913732 0.0129462015 -0.01053752 -0.00791817 0.04023428
0.0142255025 0.0077403598 -0.0029499063 -0.016664816 -0.015521827 0.018947002 -0.027249657 -0.031432416
-0.012489878 -0.00907009 0.01538821 -0.013723057 -0.0003770436 -0.027543737 -0.0018038473 -0.03216407
0.025258934 0.022249749 0.016570162 -0.005331813 -0.023289323 -0.0137184 0.0024922069 0.011943423
0.02370941 0.01709973 0.00054787216 -0.017155755 -0.006690653 -0.03721998 -0.036448106 0.011425219
-0.004148799 -0.009360115 0.0047887093 -0.04646455 0.019918198 -0.0018166337 -0.0066535864 -0.01270495
0.042436007 0.024393896 0.019650243 -0.040620692 0.034143243 0.022524675 0.006730504 -0.00085865933
0.017832153 -0.02258345 0.006107088 -0.020372964 -0.018548045 -0.009109358 0.0075119897 -0.004435884
-0.010910089 0.028226634 -0.032043654 0.047976077 -0.0065564606 0.003051242 0.00093056995 -0.043843593
0.008958877 -0.013664136 0.0093192775 -0.041004024 -0.014062848 -0.038057793 -0.013839484 0.018330377
0.034641493 0.029292356 0.016771577 -0.029096777 -0.009147004 0.0017528652 0.02780159 -0.017924184
-0.016243422 0.0022644533 -0.008084037 -0.007890443 -0.0026513191 -0.01941153 -0.019547429 0.012837895
0.013719148 -0.02571016 -0.015493543 -0.028536577 9.77312e-05 0.019917214 -0.04648318 0.049590815
0.008747173 0.012929072 0.013508168 -0.0025978854 0.05184966 0.0021490017 -0.018675482 -0.029097414
-0.0131361745 0.019373234 0.026916744 -0.0148980385 -0.010916284 -0.0022933024 0.00584046 -0.014301956
0.004970839 -0.00048589072 -0.036299508 0.016788311 -0.01280901 0.025843214 0.022834113 -0.013996404
-0.051248144 -0.029455537 0.008696844 -0.017633168 0.016793072 -0.0092523545 0.018275917 0.016342035
-0.02632849 0.014049883 -0.011717379 -0.037457302 0.029504985 0.00013333723 0.065679595 -0.05388729
-0.01350839 -0.017869344 -0.04186217 0.012637399 0.021932816 -0.021243509 -0.043219313 -0.011266776
0.0018627847 -0.023894718 -0.010717657 0.03272622 0.011605907 -0.008462683 -0.033785757 -0.009163996
-0.0074054413 -0.009773009 0.052186005 0.018989528 -0.023304174 -0.0018696048 0.012993843 0.00025562855
0.018320683 -0.0011151477 0.028866427 0.00035338616 -0.03430296 0.0072750547 -0.02016337 0.01628723

bias f4 [16]
00000000: 0000 0000 0000 0000 0000 0000 0000 0000
00000010: 0000 0000 0000 0000 0000 0000 0000 0000
00000020: 0000 0000 0000 0000 0000 0000 0000 0000
00000030: 0000 0000 0000 0000 0000 0000 0000 0000
0.0 0.0 0.0 0.0 0.0 0.0 0.0 0.0
0.0 0.0 0.0 0.0 0.0 0.0 0.0 0.0

weight f4 [16]
00000000: 0000 803f 0000 803f 0000 803f 0000 803f
00000010: 0000 803f 0000 803f 0000 803f 0000 803f
00000020: 0000 803f 0000 803f 0000 803f 0000 803f
00000030: 0000 803f 0000 803f 0000 803f 0000 803f
1.0 1.0 1.0 1.0 1.0 1.0 1.0 1.0
1.0 1.0 1.0 1.0 1.0 1.0 1.0 1.0

bias f4 [16]
00000000: 0000 0000 0000 0000 0000 0000 0000 0000
00000010: 0000 0000 0000 0000 0000 0000 0000 0000
00000020: 0000 0000 0000 0000 0000 0000 0000 0000
00000030: 0000 0000 0000 0000 0000 0000 0000 0000
0.0 0.0 0.0 0.0 0.0 0.0 0.0 0.0
0.0 0.0 0.0 0.0 0.0 0.0 0.0 0.0

weight f4 [256, 16]
00000000: 1aaa 813c 7e1c ee3c b23f 2cb9 7770 8abc
00000010: 3b85 debb 32a1 2cbc 6e4a b03c d930 143d
00000020: 7656 9a3c 63a7 6abb b5a9 e5bc 333a 28bc
00000030: 95b4 9f39 60c3 82bb d466 45bc 1bdb 623c
00000040: 8145 b6bb 9ea5 383c 08b3 823c f4ab 753b
00000050: 1269 c9bc 01cc e8bc 974e 23bb abac 5cbc
00000060: a5a6 4cbb 7b3c 9cba ec95 f4bb df19 193c
00000070: c67d 02bd d9f1 d63c 8933 36bb 11d7 8ebc
00000080: 3ce5 bd3b e1bf 7b3c 5931 573b 249e dc3c
00000090: 42dd 10bc 6f27 dfbc c9db 1bbc 0b6d c43c
000000a0: d3eb 85bc 3d3f f5bb 0b90 9bbc 4a59 dabc
000000b0: 5b0c 433d bd19 693c a6c8 bebc 58cb 35bc
000000c0: c578 0d3c c58a 47bb e673 12bb 49a2 e53c
000000d0: 0400 633c dbe0 2d3c 4fbf 5a3c 8081 743c
000000e0: 19b9 133c 59b5 7fbb 2465 13bd b265 12bc
000000f0: eb56 2c3d fdf3 70bc e420 21bc 8f4e e53c
00000100: 7b3e 88bc 1829 69bc ad68 233c 6a8f 8d3c
00000110: 2e27 3f3a f73f c8bc 0489 c6bc b38c 093c
00000120: af86 4f3c 37a4 81bc fd0b 893c 5646 813c
00000130: c673 63bc b260 5d3c d30a 18bc 3703 0a3c
00000140: 62b1 66bc 09b9 70bc cd39 c93c 30d8 87bb
00000150: 4b96 80bc 9c3e 973a 74ae 8abb b593 f8bb
00000160: 93a6 28bc 7032 0c3b 12d9 4ebc 1d54 883b
00000170: 46ff f43c c9a5 ae3b 33c7 aa3c 47c4 b439
00000180: 66a4 fcbb 8bcc f6bc 95ee 943b 6cb3 febc
00000190: 3787 c6bc 357f bdbc 60f3 cc3b b7ae b5b9
000001a0: 15b3 8bbb 60c7 8fbc fc2b 1cbc 784a a03c
000001b0: 9fe5 0dbc e0bb 143d 052e 3d3c ebf3 23bc
000001c0: 6cbe 0e3c 8f28 803c c202 3ebb d7d9 203c
000001d0: 05aa 733c 1c25 9a3c f45f c8bb 6f5b ce3c
000001e0: 75a6 713c 9b29 1ebd 70b2 cc3c ca98 823c
000001f0: 0fcb 07bc cebd 623c 123b 4e3d ab99 60bc
00000200: 8528 c7ba 4e36 823b 371e ccba c260 f0bc
00000210: 0596 efbc e830 9dbc 73d9 4d3c f0b5 d73c
00000220: fa4f 1c3d 5021 893c 9bb6 a93c b5e5 edbc
00000230: 4f66 33bc 138f b6ba 60d7 1ebd 863c 72bb
00000240: fea2 bd3b 6dbc 943c a7df ba3c 4112 efba
00000250: d419 0fba c1a2 e8bc eae3 99bc 4468 be3c
00000260: 599d 113d 69cc 0dbb c5aa fb3c 1eed cb38
00000270: 17dc 0abc 46b1 06ba 881f 8fbc 8f78 1bbd
00000280: 6998 ddbc d6a9 0ebc 62d1 1abd 0b7f 52bc
00000290: d753 103c 7793 3e3b 59c4 a3bc 32a8 653c
000002a0: 0c78 8abb 3e7e 073d 0df6 913d 8fe8 a5bc
000002b0: f44b 6fbb a1c8 b03c 9326 723b 6f1c 8f3b
000002c0: b51f 4cbc 461c 7c3c 7674 b1bc c581 90bc
000002d0: b440 303b 3bf6 e6bc e5a1 39bb 6a1e 3a3c
000002e0: 75ad 37bc f2f8 aabc 96aa a73c 7729 92bb
000002f0: d736 aebc c4e8 843c 4974 9d3c 7547 53bc
00000300: 5e72 e43b 77a8 113c af95 a3bc c0a2 233c
00000310: 7fdf 0c3d e5a5 dabc 0677 adbc 7382 15bd
00000320: e7b0 18bb 7bab b53c a1db ecbc 0b8c 7cbc
00000330: 9df8 ce3b 793a 9a3a 19ba d1bb 198e 283d
00000340: d8e8 6c3b 0774 e33c b340 483b 2734 9d3c
00000350: a47e 373c dcaf 11b7 1817 13ba 5b73 0b3d
00000360: 9d7f 483c 603f c3bb 42bd 393c 5e0a 33bc
00000370: 646f 163c 5e07 b0bb 39f0 003d ee99 9a3c
00000380: 6964 abbc 7dec eb3b 1d73 00bc 5439 ff3c
00000390: 1dd5 2b3c 1608 99bc aa77 63b9 6b98 59bb
000003a0: 4d4b 04bc 13d2 f23c 9e2b b43c 3b17 993c
000003b0: 603e dabc 0c9e 57b9 082f 053d cb8e 6fbb
000003c0: e755 b63b 1469 353d 5944 5c3c da98 a23c
000003d0: 668b 9c3c f465 2f3d bcc4 88bb c130 883c
000003e0: 7249 98bc 8225 bebb 853b 39bc f6ef 8f3c
000003f0: 9e36 34bc a3a4 0bbc c597 4fbc 00bf 033b
0.015828181 0.02906632 -0.00016426927 -0.01689933 -0.0067907847 -0.010536479 0.021519866 0.036179397
0.018840056 -0.0035805337 -0.028035024 -0.010267782 0.00030461387 -0.0039905757 -0.012048442 0.013846184
-0.0055624847 0.011269955 0.01595451 0.0037486525 -0.024586234 -0.02841759 -0.002491867 -0.013468902
-0.0031227258 -0.001191988 -0.007464161 0.009344547 -0.03185823 0.026238369 -0.0027801713 -0.017436536
0.005795149 0.015365572 0.003283581 0.026930876 -0.0088418145 -0.027240483 -0.00951285 0.023977777
-0.016347801 -0.007484345 -0.018989583 -0.026653904 0.047619205 0.014227328 -0.023289036 -0.011095844
0.008634751 -0.0030447703 -0.0022346913 0.028031485 0.013854984 0.010612692 0.013351276 0.014923453
0.009016299 -0.0039018004 -0.035985127 -0.008935379 0.04207508 -0.014706609 -0.009834502 0.027991561
-0.016631356 -0.014230989 0.009973687 0.0172803 0.000729191 -0.024444563 -0.024235256 0.008395362
0.012666388 -0.015825374 0.01672935 0.01578061 -0.013882583 0.0135118235 -0.009279924 0.008423618
-0.014080377 -0.014692553 0.024563694 -0.0041456446 -0.015696665 0.0011539045 -0.004232222 -0.0075859674
-0.010293621 0.0021392368 -0.012624996 0.0041604177 0.02990688 0.0053298217 0.020846939 0.00034478513
-0.0077100275 -0.03012683 0.0045450428 -0.031091414 -0.024234397 -0.023131946 0.0062545985 -0.00034653183
-0.0042632916 -0.017551124 -0.009531971 0.01956676 -0.008660703 0.036311984 0.011546616 -0.010006885
0.008712392 0.01564434 -0.0028993343 0.009817562 0.014872079 0.018816523 -0.006114954 0.025190083
0.014749159 -0.038613897 0.02498743 0.015941996 -0.008288159 0.013839198 0.050349303 -0.013708512
-0.0015194571 0.003973759 -0.001557297 -0.029343013 -0.02924634 -0.01918836 0.012564051 0.026331872
0.03816221 0.016739517 0.020716956 -0.029040197 -0.010949685 -0.0013928137 -0.038779616 -0.0036962344
0.0057872524 0.018156255 0.022811724 -0.0018239693 -0.0005458866 -0.02839792 -0.018785436 0.023243077
0.03555045 -0.002163673 0.030721078 9.723961e-05 -0.008475325 -0.000513811 -0.01747109 -0.03795677
-0.027050214 -0.008707484 -0.03779734 -0.012847672 0.0088090515 0.0029079595 -0.019991087 0.014017152
-0.0042257365 0.03307938 0.071270086 -0.020252494 -0.0036513777 0.021580042 0.0036949262 0.004367403
-0.012458731 0.0153876 -0.021661978 -0.017640004 0.0026894035 -0.028193584 -0.0028325256 0.01135979
-0.011210789 -0.02087066 0.020467084 -0.0044605094 -0.021266384 0.016224273 0.019220488 -0.012895455
0.0069716414 0.008890263 -0.019968836 0.009987533 0.03439283 -0.026690433 -0.021174919 -0.03650136
-0.0023298801 0.022176495 -0.028913321 -0.015414248 0.006316258 0.0011766694 -0.0064003584 0.04115114
0.0036149528 0.027765287 0.0030556142 0.019189907 0.011199627 -8.683619e-06 -0.0005611046 0.03404556
0.012237457 -0.0059584826 0.0113366265 -0.010927765 0.009181831 -0.005371972 0.031479094 0.018872228
-0.020921903 0.0071998225 -0.007839945 0.031155266 0.010487822 -0.018680613 -0.00021692985 -0.003320242
-0.008074594 0.029641187 0.021993455 0.018687835 -0.02664107 -0.00020562875 0.032515556 -0.0036553617
0.0055644396 0.044289663 0.01344403 0.019848276 0.01910944 0.04282184 -0.004173843 0.01662481
-0.018589709 -0.005802811 -0.0113056945 0.017570477 -0.01099935 -0.008523139 -0.012670462 0.0020102859
