rust/model_store/sasrec_bolcom_c10000_t50_eager.pth (torch, 741091 bytes, 36 tensors)

weight f4 [10000, 16]
-0.032360848 0.036246564 0.02546639 -0.021181544 -0.03248759 -0.0032050242 0.017086629 -0.029259996
0.039129283 -0.014677044 -0.01286489 0.013464413 -0.0061753923 0.013722463 -0.00621758 -0.0013069202
0.0031772035 -0.029987672 0.00424057 0.027520379 0.027535506 0.011471016 -0.011564692 0.0037255448
-0.031761065 -0.015279566 -0.01700844 -0.010692901 0.0122111775 0.025261693 -0.015139818 0.012091617
0.01610171 0.035674892 0.030915104 0.0014040683 0.01554476 -0.009776146 0.035162974 0.0068416875
0.018268356 0.017048845 0.0129626505 0.018825844 0.0064144605 0.00863503 0.043908074 0.00028859946
0.046326168 0.017354067 0.002294511 0.033503365 -0.02509883 0.020900577 -0.020133676 -0.0036746108
-0.011961406 0.010657805 0.01105125 0.019385235 -0.010743853 0.0160251 -0.012670849 0.004908075
-0.011491654 -0.013572227 -0.024637366 -0.012625351 -0.03077957 -0.0076316427 0.0017656139 -0.03387695
0.0013553231 0.017771281 -0.03227466 -0.001622406 0.004430044 0.020642072 -0.0029810101 0.0062465738
0.014463715 -0.011726145 0.011512445 -0.005159082 -0.0046082297 0.0056812754 -0.018074943 0.003554251
-0.0052190167 0.0018863153 -0.01719197 -0.015984278 0.014260952 0.007681534 0.011312339 0.004893354
0.032794222 -0.013711535 0.012413942 -0.023397481 0.04289914 -0.0026459908 -0.0052568004 0.028005714
0.026720341 -0.0040507326 -0.02824963 0.014827463 -0.035080846 0.018727701 -0.008545856 0.026973533
0.0013247381 0.049631722 0.0084016 -0.00845851 -0.011133624 -0.004532688 -0.030588202 -0.014292655
-0.016665952 0.0068507004 0.00030188772 -0.00729668 0.02971813 0.012892383 -0.032113396 0.023753056
0.006786008 0.000861843 0.019212041 -0.028402643 -0.015284964 0.01609005 0.01687174 -0.030950023
0.0035155255 0.0052750916 -0.0010609477 -0.017207013 0.008297746 0.004291194 -0.0068402765 -0.0065265
0.008062092 0.0022767244 0.009023611 -0.034697074 -0.029645532 -0.0072995923 -0.0037918754 0.009730875
0.026904983 0.044900194 0.011693663 0.009842758 -0.015377488 -0.010047586 -0.023998791 -0.006578026
-0.014973519 -0.020928351 0.047323827 -0.0035329226 0.016194824 -0.022492778 -0.023219168 -0.03645591
0.00603179 0.030902505 -0.036949836 0.0136532225 -0.018349983 0.015886009 0.0029873326 0.009601837
0.015766928 0.014405647 -0.0021460685 -0.0048989807 0.035821863 0.009626632 0.009016975 -0.015016541
0.01072049 -0.015953839 -0.017496083 -0.017051548 -0.024791703 -0.018330533 -0.049762957 -0.0065397453
-0.015118433 -0.031167256 -0.0045461655 -0.013745709 0.023950808 0.024560444 -0.008883043 -0.016944371
-0.02534415 -0.006139488 0.02302679 0.0003934921 0.0046237176 0.027296225 0.00395766 0.009194457
-0.017458143 0.021169154 0.012578528 0.02895488 -0.00034968436 0.021468166 -0.0046476615 -0.024856372
-0.0065444824 -0.021848133 0.01083317 -0.005012425 0.00022086332 -0.010789883 -0.00057851203 0.03457456
0.007230044 -0.002490775 0.006264072 0.009753918 0.008194746 -0.00800664 -0.009396631 -0.01600764
0.026554305 -0.023159547 0.030226026 0.004874484 0.00684668 0.030035269 0.04231775 0.023872085
-0.0042484943 0.012543608 -0.022729894 -0.019525787 0.008448592 0.006679908 -0.0026958492 -0.009428877
-0.018435966 -0.016462898 0.018948145 0.01806715 -0.025771074 -0.028219968 0.018811472 0.0071033933
00000000: cf8c 04bd 4777 143d e49e d03c eb84 adbc
00000010: b511 05bd 620b 52bb 42f9 8b3c a9b2 efbc
00000020: 0746 203d fc77 70bc 42c7 52bc d799 5c3c
00000030: f25a cabb 2ed4 603c d7bc cbbb f74c abba
00000040: a138 503b b5a8 f5bc 7bf4 8a3b 6b72 e13c
00000050: 2492 e13c eef0 3b3c d579 3dbc 4528 743b
00000060: e417 02bd 2557 7abc 4955 8bbc 4731 2fbc
00000070: 6411 483c 9cf1 ce3c 000d 78bc eb1b 463c
00000080: bce7 833c d61f 123d ac41 fd3c b708 b83a
00000090: 73af 7e3c 212c 20bc 0d07 103d 3c30 e03b
000000a0: 85a7 953c 05aa 8b3c 4c61 543c a838 9a3c
000000b0: 6530 d23b f179 0d3c f4d8 333d 2a4f 9739
000000c0: 82c0 3d3d 1e2a 8e3c 825f 163b d33a 093d
000000d0: 109c cdbc b037 ab3c 61ef a4bc bdd1 70bb
000000e0: c6f9 43bc 139e 2e3c 4d10 353c c9cd 9e3c
000000f0: fc06 30bc 1247 833c 6599 4fbc ebd3 a03b
00000100: 7e47 3cbc 0c5e 5ebc 4dd4 c9bc 8fda 4ebc
00000110: 7025 fcbc dc12 fabb 2c6c e73a 8fc2 0abd
00000120: 19a5 b13a 1495 913c 6f32 04bd e9a6 d4ba
00000130: e729 913b 9019 a93c 0d5d 43bb 0fb0 cc3b
00000140: 38f9 6c3c 041f 40bc b29e 3c3c 840d a9bb
00000150: a200 97bb fe29 ba3b e711 94bc 70ee 683b
00000160: 4904 abbb 3d3e f73a 2dd6 8cbc 76f1 82bc
00000170: c5a6 693c 61b5 fb3b 6457 393c 6e58 a03b
00000180: 3c53 063d 59a6 60bc d963 4b3c 13ac bfbc
00000190: 02b7 2f3d 5c68 2dbb 3d41 acbb 3d6c e53c
000001a0: 9ee4 da3c 02bc 84bb c56b e7bc e3ee 723c
000001b0: efb0 0fbd d66a 993c eb03 0cbc 99f7 dc3c
000001c0: d6a2 ad3a a24a 4b3d dda6 093c 9095 0abc
000001d0: ce69 36bc f186 94bb 1c94 fabc bd2b 6abc
000001e0: 0987 88bc d77b e03b af46 9e39 fd18 efbb
000001f0: 7073 f33c 933a 533c 5689 03bd c595 c23c
00000200: 295d de3b 4eed 613a 9262 9d3c a9ac e8bc
00000210: c96d 7abc 48cf 833c 9a36 8a3c e78a fdbc
00000220: bb64 663b adda ac3b 7f0f 8bba b9f5 8cbc
00000230: 45f3 073c 259d 8c3b 6624 e0bb 40dc d5bb
00000240: dd16 043c 1935 153b c5d7 133c 851e 0ebd
00000250: 30db f2bc 6b31 efbb 1d81 78bb 3f6e 1f3c
00000260: d767 dc3c 44e9 373d c796 3f3c 8543 213c
00000270: dcf1 7bbc a19e 24bc 1d99 c4bc 7b8c d7bb
00000280: 7e53 75bc ef71 abbc a1d6 413d 9b88 67bb
00000290: 02ab 843c c642 b8bc 2036 bebc cb52 15bd
000002a0: 52a6 c53b 4027 fd3c b658 17bd c4b1 5f3c
000002b0: b452 96bc 6023 823c 20c7 433b 0651 1d3c
000002c0: a529 813c aa05 6c3c 0ea5 0cbb a187 a0bb
000002d0: f2b9 123d 05b9 1d3c efbb 133c f007 76bc
000002e0: fea4 2f3c a0b1 82bc f253 8fbc b0af 8bbc
000002f0: f817 cbbc ea29 96bc 3ed4 4bbd 5c4b d6bb
00000300: 4eb3 77bc 7952 ffbc 00f8 94bb af35 61bc
00000310: 7c34 c43c fc32 c93c 2f8a 11bc ecce 8abc
00000320: 899e cfbc c22d c9bb aea2 bc3c 9e4d ce39
00000330: 8e82 973b 559c df3c 42af 813b 59a4 163c
00000340: 6104 8fbc ef6a ad3c 2c16 4e3c c932 ed3c
00000350: d755 b7b9 02de af3c 694b 98bb 979f cbbc
00000360: 1973 d6bb dbfa b2bc 9c7d 313c 453f a4bb
00000370: 8c97 6739 0dc8 30bc 49a7 17ba 0e9e 0d3d
00000380: 01ea ec3b 453c 23bb d842 cd3b e6ce 1f3c
00000390: 4243 063c 482e 03bc 54f4 19bc 7422 83bc
000003a0: 6a88 d93c 17b9 bdbc 929c f73c 23ba 9f3b
000003b0: 1d5a e03b 860c f63c 6155 2d3d 648f c33c
000003c0: f436 8bbb b583 4d3c 0b34 babc 8bf4 9fbc
000003d0: f76b 0a3c 21e3 da3b d8ac 30bb 947b 1abc
000003e0: 0607 97bc 33dd 86bc 2439 9b3c 8f01 943c
000003f0: dc1d d3bc 902d e7bc 841a 9a3c 95c3 e83b

weight f4 [50, 16]
-0.026860664 -0.010939711 0.018555695 -0.01705531 0.05876175 0.012048479 0.011800637 -0.011872792
-0.023320463 -0.0154044805 -0.024103453 -0.014068951 0.038794883 0.029566517 -0.024950268 -0.0105632935
0.016138913 -0.0055656573 -0.012309787 -0.0052183867 0.017015751 -0.0063816532 0.03786979 -0.006358914
-0.012032276 0.0012845157 -0.020535413 -0.009247457 -0.04499685 -0.0071248715 -0.027808798 0.011595609
-0.030673591 0.016444156 0.022484204 0.027753416 0.015132308 -0.016672896 -0.027905772 -0.01384393
0.028970161 0.0168974 0.0089031 0.03778225 -0.00042704606 0.027973674 0.00927676 -0.009022405
0.014249225 0.03140549 -0.0106091425 -0.025896866 -0.029764771 -0.017503208 0.030704265 0.010806213
-0.0015973195 -0.011958533 0.0260976 -0.020042853 0.0050172787 -0.00934239 0.041080154 -0.00057520176
0.010205675 0.00342415 0.010566035 0.012167481 -0.009222147 -0.023894357 -0.03288442 0.038613647
0.0016007622 -0.008909425 -0.0044916463 -0.039191306 -0.016253728 -0.0047558607 0.013026613 0.026584387
0.04625145 0.02336098 -0.021575019 -0.02283304 0.0026725875 -0.01207812 -0.016382849 0.0151001355
-0.016302329 0.002277652 -0.023960883 -0.026610054 0.042986955 0.005949912 -0.0276399 0.012770836
-0.006211217 0.040622182 -0.022298276 -0.008576157 0.0031359866 -0.035140105 0.0013010129 -0.006815065
-0.0006670042 0.001961542 0.0070290784 -0.007988182 -0.011544906 -0.015302166 -0.024222462 0.026775582
0.009033463 -0.0013162687 -0.0067311716 -0.004246433 0.013832148 0.007328683 0.018022636 -0.002300993
0.03857685 0.025164984 0.0060538533 -0.031869326 0.007328898 -0.019478533 -0.0075906375 -0.019948017
0.0044133672 0.017017925 0.015495211 -0.0006934928 -0.024337921 0.0067048627 0.020519044 0.0019220997
-0.016236257 0.0061799143 0.015854266 -0.04275648 -0.032150056 0.0016270512 -0.0052664746 0.06405728
0.0041284272 -0.006707462 0.011414771 0.015041958 -0.005489459 -0.030424546 0.023481857 0.009982266
-0.04355646 -0.037550133 -0.01248881 -0.004769173 0.058510527 -0.011524505 0.006274768 0.018815227
-0.0003968331 -0.013206545 0.007746915 -0.0074796802 0.004486023 -0.019895459 -0.015707914 0.0066644866
0.010890944 -0.02213364 0.019195443 0.006685983 0.026801571 -0.0030087763 -0.013025275 -0.011817132
-0.010207397 0.004139156 -0.03112192 0.02425849 0.012701682 -0.00689732 -0.0018632892 -0.010979316
0.026124632 0.0052868677 0.016515207 0.04849628 0.030868603 -0.00047984003 -0.01103432 0.0097967405
-0.0019347286 0.05921986 0.056919973 0.013917123 -0.020881116 -0.05639603 0.022648856 -0.0111214025
-0.01848404 -0.009566845 0.0029062713 0.012338609 0.012076438 0.011127695 0.00075160817 -0.027345829
0.021352122 0.0023479755 -0.012418863 0.014055177 0.0002606021 -0.013264204 -0.022079963 -0.0025962647
-5.6809084e-05 -0.001061164 0.0017064252 0.031018436 -0.01177733 0.010380498 -0.0060002273 -0.011568445
-0.0077203196 -0.023140589 0.048062757 -0.03117938 -0.028909821 0.0010816484 0.010297438 0.009636339
-0.03577089 -0.026034288 0.012181782 0.015548989 -0.022598948 0.019848356 -0.0013712172 -0.012384228
-0.02294846 -0.016055813 -0.036563084 0.018456357 -0.027274294 0.017320218 0.022352425 -0.028603738
0.007426688 0.024221413 0.037554614 -0.0133376075 -0.012453613 -0.0276458 0.007112454 -0.016110627
00000000: e50a dcbc 793c 33bc 1d02 983c 94b7 8bbc
00000010: 29b0 703d fc66 453c 7557 413c 1986 42bc
00000020: 8e0a bfbc 1363 7cbc 9b74 c5bc 7581 66bc
00000030: 62e7 1e3d 7b35 f23c 8164 ccbc aa11 2dbc
00000040: c135 843c 1e60 b6bb fdae 49bc 00ff aabb
00000050: 9e64 8b3c 301d d1bb 5a1d 1b3d 705e d0bb
00000060: 0623 45bc 325d a83a e239 a8bc a582 17bc
00000070: 9e4e 38bd c177 e9bb 47cf e3bc 82fb 3d3c
00000080: 2f47 fbbc e5b5 863c cb30 b83c 225b e33c
00000090: 80ed 773c 9995 88bc a59a e4bc a7d1 62bc
000000a0: d552 ed3c 6b6c 8a3c 4fde 113c 90c1 1a3d
000000b0: 27e5 dfb9 0c29 e53c 8dfd 173c b6d2 13bc
000000c0: 9575 693c 0ba3 003d f8d1 2dbc aa25 d4bc
000000d0: 40d5 f3bc e362 8fbc 8387 fb3c 8b0c 313c
000000e0: 265d d1ba b9ed 43bc a2ca d53c e930 a4bc
000000f0: fc67 a43b d310 19bc aa43 283d 23c9 16ba
00000100: b435 273c b467 603b 2a1d 2d3c 1d5a 473c
00000110: 7d18 17bc 19be c3bc d0b1 06bd 5829 1e3d
00000120: abd0 d13a d6f8 11bc a92e 93bb 1087 20bd
00000130: 8a26 85bc 0dd7 9bbb 936d 553c 80c7 d93c
00000140: 2972 3d3d 875f bf3c 18be b0bc 5b0c bbbc
00000150: 9426 2f3b 4fe3 45bc 5335 86bc 8f66 773c
00000160: 768c 85bc a944 153b 9d49 c4bc 54fd d9bc
00000170: 1713 303d 7bf7 c23b 126d e2bc c53c 513c
00000180: 7787 cbbb 7263 263d e0aa b6bc 0283 0cbc
00000190: 2085 4d3b 12ef 0fbd c086 aa3a e950 dfbb
000001a0: e5d9 2eba 378d 003b 2f54 e63b dde0 02bc
000001b0: d826 3dbc f0b5 7abc 2f6e c6bc 7758 db3c
000001c0: 1701 143c a686 acba 2991 dcbb a925 8bbb
000001d0: 3ca0 623c 7325 f03b 35a4 933c 42cc 16bb
000001e0: c202 1e3d cc26 ce3c 675f c63b 6989 02bd
000001f0: 4127 f03b 7291 9fbc e2ba f8bb 066a a3bc
00000200: 029e 903b 2d69 8b3c a0df 7d3c 84cb 35ba
00000210: 5260 c7bc 77b4 db3b 8e17 a83c f7ee fb3a
00000220: e601 85bc e180 ca3b cee0 813c 6b21 2fbd
00000230: c7af 03bd c742 d53a 6492 acbb 7730 833d
00000240: c247 873b 45ca dbbb 0505 3b3c 8b72 763c
00000250: ebe0 b3bb e63c f9bc 065d c03c a98c 233c
00000260: 4268 32bd 2bce 19bd de9d 4cbc b946 9cbb
00000270: bca8 6f3d 47d1 3cbc 929c cd3b 6422 9a3c
00000280: 090e d0b9 4460 58bc d5d9 fd3b 1b18 f5bb
00000290: 7dff 923b cdfb a2bc e2ad 80bc c461 da3b
000002a0: ee6f 323c 9b51 b5bc c33f 9d3c 1716 db3b
000002b0: f88e db3c e42e 45bb f767 55bc a59c 41bc
000002c0: ed3c 27bc c2a1 873b 66f3 febc beb9 c63c
000002d0: b71a 503c ea02 e2bb 9c39 f4ba 97e2 33bc
000002e0: 5303 d63c 763d ad3b e64a 873c 09a4 463d
000002f0: 27e0 fc3c 0a93 fbb9 4bc9 34bc 8282 203c
00000300: b896 fdba 8690 723d eb24 693d a504 643c
00000310: e00e abbc 86ff 66bd 188a b93c 8b36 36bc
00000320: d76b 97bc 42be 1cbc 2477 3e3b e127 4a3c
00000330: 41dc 453c f050 363c 9207 453a 5c04 e0bc
00000340: a5ea ae3c 7ee0 193b 7d78 4bbc af47 663c
00000350: 6ca1 8839 1b52 59bc 0ae1 b4bc 1826 2abb
00000360: 4a46 6eb8 c116 8bba 21aa df3a 601a fe3c
00000370: b4f5 40bc f712 2a3c 8e9d c4bb 9389 3dbc
00000380: bcfa fcbb 5591 bdbc 74dd 443d e66b ffbc
00000390: 4ad4 ecbc 19c6 8d3a 96b6 283c bce1 1d3c
000003a0: 7f84 12bd dc45 d5bc 1996 473c 30c1 7e3c
000003b0: 6e21 b9bc 0599 a23c 6aba b3ba 38e7 4abc
000003c0: 69fe bbbc 7b87 83bc 2cc3 15bd c931 973c
000003d0: 576e dfbc 21e3 8d3c 6f1c b73c 6352 eabc
000003e0: 935b f33b fc6b c63c ded2 193d fb85 5abc
000003f0: 3d0a 4cbc 7279 e2bc 970f e93b 6ffa 83bc

weight f4 [16, 16]
-0.01654567 0.00068101275 -0.03488149 -0.02177999 0.009551732 0.027685182 0.00400121 -0.03095089
-0.02436314 -0.002434973 0.034755375 -0.0061415886 0.014694764 -0.03415957 -0.015705023 -0.010875462
-0.049063105 0.009784517 0.007151728 -0.039304957 0.02939381 0.017167987 0.002058794 0.008090428
0.0033111712 -0.0021152662 0.0021802767 -0.01982539 -0.004759627 -0.007949269 -0.0112376725 -0.014788521
0.015086967 0.024336189 0.00124012 -0.02110667 0.011724549 0.01681911 -0.018050443 0.002499399
0.055124223 0.017854217 -0.013751457 0.04376679 -0.011413817 0.03629085 -0.003711773 -0.004931505
-0.017275274 -0.022722356 0.007686349 0.0075266534 -0.020555543 0.0008488059 0.012704543 0.019175826
0.039940298 0.029894322 0.0066132643 0.015621438 0.0009003694 0.03554167 0.0051693097 0.0029852202
0.017891735 0.029749855 -0.02071037 -0.0036969315 0.007185509 0.0006759011 0.009814377 -0.024464522
0.0009685082 -0.038587563 -0.00079672795 -0.0028869014 -0.029447654 0.010640316 0.022285488 0.00077563454
-0.018094355 -0.02863615 -0.024187595 0.0069125975 -0.002594355 -0.0011008965 -0.0021021594 -0.031710137
0.013496068 -0.009687277 -0.0077305594 0.029077353 0.020244926 -0.01822652 -0.02199092 -0.027859041
0.0028896388 0.0014598467 0.014261666 0.020597726 -0.0056634615 0.005367549 -0.036508743 -0.017811174
-0.009958496 0.0017580173 -0.0017870894 0.02931578 -0.024155729 -0.010751312 0.01200011 0.0017927672
0.0071612373 -0.008211393 0.007253569 -0.014661637 -0.0087739825 -0.03161311 -0.03546346 -0.019320548
-0.02725885 -0.02362591 -0.028676711 -0.02971453 -0.012557383 0.0024332486 -0.00713223 -0.011894685
0.027907649 -0.0061682886 0.009395263 -0.020802012 0.0031133017 0.03139051 0.0059862714 -0.0016674347
0.006572485 0.017271565 -0.02684588 0.023842063 0.011602896 0.009273557 0.001546316 0.00028707949
-0.02989031 -0.0032901624 -0.014887973 -0.0053521534 -0.015533643 0.0349763 0.032990992 0.038179148
0.021294015 0.0038362662 -0.025901696 -0.0058773127 -0.05373529 0.028743787 0.015877798 -0.0017299269
-0.009827748 0.026797958 -0.010680831 0.022808837 0.02656356 0.007109502 -0.0045405393 0.012183853
0.023916392 0.021944908 0.010548974 -0.016566094 -0.01919527 0.014934029 -0.0026413777 -0.003902852
-0.02705271 0.034853794 -0.0133943 0.009686593 0.018917475 -0.028241327 -0.02869929 -0.017828919
0.005383311 -0.0019667617 -0.007147591 -0.0032722577 -0.015726203 0.0139972875 0.0069243805 0.032598797
0.021797154 0.02661673 -0.028674401 -0.014434211 0.020567486 0.030122403 0.0021284458 -0.008009501
-0.03712736 -0.017829966 -0.0076946574 0.017819477 -0.002637572 0.017178986 -0.007969319 -0.022914711
0.004998174 0.02272043 0.02170524 -0.023576448 -0.01710506 -0.008698018 0.0022000652 0.0066647073
0.026296277 -0.015030157 0.0080552995 0.027742956 -0.023432044 -0.01988388 0.0035011263 -0.0020707238
-0.024584228 -0.0071312725 -0.009307969 -0.0156419 -0.017353684 0.005673152 -0.00040854426 0.032464795
-0.03840867 0.036577504 -0.0065754997 0.008588699 0.022162596 0.00442379 0.017234202 0.0049556387
0.02461852 0.006827909 0.039361697 0.013299611 -0.004174067 0.010661653 -0.022339262 0.006765811
0.00093885604 -0.0134312045 0.0026980557 0.02591342 0.032221112 -0.015826028 -0.016043996 0.020710241
00000000: c98a 87bc fe85 323a e5df 0ebd f36b b2bc
00000010: de7e 1c3c 09cc e23c 951c 833b b98c fdbc
00000020: 3595 c7bc 1194 1fbb a75b 0e3d 613f c9bb
00000030: 4fc2 703c e8ea 0bbd d2a7 80bc fe2e 32bc
00000040: 65f6 48bd 3d4f 203c 0b59 ea3b 3cfe 20bd
00000050: 4acb f03c e1a3 8c3c d5ec 063b b78d 043c
00000060: 3c00 593b 47a0 0abb f9e2 0e3b db68 a2bc
00000070: a5f6 9bbb a73d 02bc 371e 38bc 8e4b 72bc
00000080: 532f 773c b05c c73c 868b a23a e5e7 acbc
00000090: 5318 403c 3bc8 893c 86de 93bc f5cc 233b
000000a0: f0c9 613d 0243 923c cb4d 61bc ce44 333d
000000b0: 0501 3bbc b7a5 143d 3841 73bb 7698 a1bb
000000c0: e084 8dbc 3c24 babc c5dd fb3b 25a2 f63b
000000d0: 1964 a8bc 6682 5e3a b726 503c 9f16 9d3c
000000e0: 7098 233d f0e4 f43c 15b4 d83b 0ff1 7f3c
000000f0: c506 6c3a 2494 113d 5063 a93b afa3 433b
00000100: b091 923c f8b5 f33c cba8 a9bc 3848 72bb
00000110: 6b74 eb3b f42e 313a 7bcc 203c d269 c8bc
00000120: 7ce3 7d3a fe0d 1ebd 82db 50ba 2b32 3dbb
00000130: 353c f1bc b854 2e3c 0e90 b63c f453 4b3a
00000140: 9d3a 94bc 5c96 eabc 1025 c6bc 1283 e23b
00000150: 0e06 2abb f54b 90ba 62c4 09bb 7de2 01bd
00000160: 9d1e 5d3c 62b7 1ebc a250 fdbb a133 ee3c
00000170: b0d8 a53c c84f 95bc 4d26 b4bc a538 e4bc
00000180: 1860 3d3b 5458 bf3a c3a9 693c 90bc a83c
00000190: 8f94 b9bb 44e2 af3b 318a 15bd bde8 91bc
000001a0: f628 23bc 466d e63a c53c eaba a627 f03c
000001b0: 3ce2 c5bc 4526 30bc 1c9c 443c 49fb ea3a
000001c0: d0a8 ea3b 1489 06bc 59af ed3b 5d37 70bc
000001d0: c0c0 0fbc c07c 01bd 2242 11bd 2046 9ebc
000001e0: f44d dfbc 208b c1bc 6ceb eabc e36b f3bc
000001f0: 7bbd 4dbc 2377 1f3b 7bb5 e9bb ede1 42bc
00000200: 959e e43c 5b1f cabb 97ee 193c fb68 aabc
00000210: 8908 4c3b 5693 003d 7c28 c43b d38d daba
00000220: 005e d73b 197d 8d3c e4eb dbbc 6e50 c33c
00000230: 131a 3e3c 1ef0 173c c1ad ca3a 2883 9639
00000240: 86dc f4bc c49f 57bb afec 73bc 1e61 afbb
00000250: d280 7ebc 4f43 0f3d 9021 073d bd61 1c3d
00000260: c970 ae3c de69 7b3b cb2f d4bc 7996 c0bb
00000270: 8919 5cbd 1778 eb3c 2812 823c b7be e2ba
00000280: 9004 21bc 6487 db3c a7fe 2ebc 99d9 ba3c
00000290: d39b d93c d3f6 e83b cec8 94bb c99e 473c
000002a0: 4fec c33c cfc5 b33c 9bd5 2c3c 9eb5 87bc
000002b0: 663f 9dbc dcad 743c f71a 2dbb fec6 7fbb
000002c0: a59d ddbc dac2 0e3d c473 5bbc 84b4 1e3c
000002d0: d2f8 9a3c 5b5a e7bc c61a ebbc f40d 92bc
000002e0: 7c66 b03b c9e4 00bb 5736 eabb 6073 56bb
000002f0: 3dd4 80bc e154 653c eae5 e23b 5186 053d
00000300: f28f b23c 540b da3c 94e6 eabc 787d 6cbc
00000310: 257d a83c 42c3 f63c 657d 0b3b 483a 03bc
00000320: dc12 18bd 2610 92bc 7723 fcbb 27fa 913c
00000330: 1ddb 2cbb f2ba 8c3c bf91 02bc a2b7 bbbc
00000340: b9c7 a33b 3220 ba3c 30cf b13c 6523 c1bc
00000350: e91f 8cbc 2282 0ebc f82e 103b 9e63 da3b
00000360: 4a6b d73c 0c41 76bc 60fa 033c 3245 e33c
00000370: 8ff4 bfbc 85e3 a2bc 2773 653b fbb4 07bb
00000380: dd64 c9bc 73ad e9bb 7480 18bc 7123 80bc
00000390: 5029 8ebc d9e5 b93b e231 d6b9 cef9 043d
000003a0: 6952 1dbd 4bd2 153d 4a77 d7bb 9db7 0c3c
000003b0: 558e b53c 71f5 903b be2e 8d3c e962 a23b
000003c0: c7ac c93c a7bc df3b bb39 213d 9de6 593c
000003d0: 9dc6 88bb 37ae 2e3c d400 b7bc bcb3 dd3b
000003e0: 901d 763a 8e0e 5cbc ddd1 303b 6148 d43c
000003f0: 49fa 033d 96a5 81bc b36e 83bc 86a8 a93c

bias f4 [16]
0.0 0.0 0.0 0.0 0.0 0.0 0.0 0.0
0.0 0.0 0.0 0.0 0.0 0.0 0.0 0.0
00000000: 0000 0000 0000 0000 0000 0000 0000 0000
00000010: 0000 0000 0000 0000 0000 0000 0000 0000
00000020: 0000 0000 0000 0000 0000 0000 0000 0000
00000030: 0000 0000 0000 0000 0000 0000 0000 0000

weight f4 [16, 16]
0.021098051 0.01951724 0.026732653 0.0072971797 0.010550155 0.005713564 -0.012595046 -0.005020235
-0.023304934 0.0027526666 0.023796296 -0.036081646 0.036878493 0.018994419 -0.020133907 -0.032060817
0.017540382 0.035884507 -0.01888293 0.031419933 -0.009544673 -0.01821549 -0.0013400392 -0.061848965
0.0041849623 0.008554446 0.026972286 0.02880612 0.0037753775 -0.012294331 -0.012541864 -0.008923759
0.0017159573 0.0223508 0.013694964 -0.021859044 0.004238181 -0.00437312 0.0028481754 0.009218569
9.627354e-05 -0.01437131 -0.016016645 -0.0064003565 0.0010624154 -0.03977204 -0.032012347 0.00028303536
0.009671388 -0.009272605 -0.0036701448 0.028282678 0.033530306 -0.0074511115 0.017926168 0.053561907
-0.034032594 0.019600213 -0.004319984 0.0090634 -0.0022096608 0.030668957 -0.004461604 0.0011708678
0.023826174 0.05802326 0.037042625 0.012894602 -0.016033428 -0.024075946 -0.010158732 0.005769862
-0.00076366204 -0.00024758914 -0.012948154 -0.0035208953 0.022288129 0.018566169 0.013427246 0.008044928
0.013576733 0.02166215 -0.008668875 0.0066469256 -0.022068646 -0.019836236 -0.0005587334 -0.0098991
0.026503658 -0.000261103 0.004378371 0.022407243 0.03540251 -0.032421634 -0.002078493 -0.005005788
-0.0590555 -0.0040961965 -0.004982344 0.020949654 0.03433521 0.016509878 -0.016823722 0.015988622
-0.00037470527 -0.0026861844 -0.0033957437 0.039199796 0.008084899 -0.013633634 0.014940579 -0.006426237
-0.007204261 -0.009141105 -0.00087596034 -0.011710231 0.0014955323 -0.009315216 0.032904506 0.016530624
0.010016973 -0.011818461 0.000951461 -0.010550883 -0.0068191295 0.019889068 0.006552288 0.0082519045
0.0301981 0.0024611608 -0.00465733 -0.0009844407 -0.008364232 -0.0009894631 0.008221504 -0.010035477
-0.035107203 0.009469597 -0.022967309 -0.027140006 0.017227273 0.014129791 -0.008966786 0.016318657
0.012825121 -0.00111327 -0.023249825 0.013999198 0.013589384 -0.027547285 0.0065661436 0.011530176
0.002527087 0.0025588523 0.019313216 -0.005790541 -0.01197635 0.013136923 0.013520449 -0.0032755402
0.017347664 -0.019337552 0.022115545 0.0012137697 0.0053957403 -0.03978436 0.029798742 0.015044021
0.020107841 0.005909318 -0.02267362 -0.03306497 -0.0140759265 -0.0071646855 0.012004057 -0.026399616
0.0061809397 -0.0006988596 -0.015161847 -0.027555376 -0.000100987745 0.06352644 0.01468373 0.019243449
-0.0014970883 -0.014065726 0.017583735 0.018922575 -0.013379429 0.0072511076 -0.017638797 -0.025976088
-0.0037447475 -0.02560582 0.0028731236 -0.014620486 0.013112803 -0.008840292 -0.030751076 0.025024308
0.019851645 0.0015708081 -0.026008721 0.008443973 0.026900802 0.020155128 -0.0036783356 0.0058390563
-0.034032736 -0.013512322 0.00802067 -0.0040163174 0.026455693 0.008009112 -0.0015252739 0.023809716
0.018662393 0.008020717 0.0014689321 0.0068099597 0.0087436605 -0.009757708 0.013214993 -0.0130154705
-0.0031545314 -0.00050690136 0.04148395 -0.019024571 -0.035377383 0.022159504 0.017241834 0.032947958
0.07953471 0.015810216 -0.018460758 -0.00032721105 -0.016346438 0.03529322 -0.003503398 -0.036048964
0.048555158 0.036901478 -0.005919205 -0.0038965277 -0.055565856 0.01587722 -0.03621467 -0.045922644
-0.016371025 -0.020369949 0.03944832 0.028543238 -0.00040239136 0.01885133 0.031944405 -0.005599169
00000000: d2d5 ac3c 9ee2 9f3c 70fe da3c 2e1d ef3b
00000010: 8fda 2c3c d938 bb3b 745b 4ebc c980 a4bb
00000020: fde9 bebc 1566 343b 73f0 c23c 59ca 13bd
00000030: e70d 173d 2f9a 9b3c ddef a4bc 3452 03bd
00000040: d9b0 8f3c a2fb 123d 60b0 9abc 30b2 003d
00000050: 4361 1cbc a738 95bc 41a4 afba 5755 7dbd
00000060: 0222 893b f227 0c3c fcf4 dc3c d0fa eb3c
00000070: 536c 773b 296e 49bc 647c 4dbc f534 12bc
00000080: f9e9 e03a 0619 b73c d860 603c bd11 b3bc
00000090: 70e0 8a3b 644c 8fbb 74a8 3a3b 7b09 173c
000000a0: 77e6 c938 a575 6bbc 5735 83bc 15ba d1bb
000000b0: bf40 8b3a 02e8 22bd 611f 03bd 5d64 9439
000000c0: be74 1e3c 20ec 17bc d086 70bb 13b1 e73c
000000d0: 1357 093d 7428 f4bb e6d9 923c bb63 5b3d
000000e0: c365 0bbd a090 a03c a78e 8dbb a87e 143c
000000f0: f5cf 10bb 773d fb3c a632 92bb ce77 993a
00000100: 1c2f c33c cca9 6d3d 02ba 173d e143 533c
00000110: 8958 83bc eb3a c5bc cf70 26bc 1c11 bd3b
00000120: 7e30 48ba dace 81b9 7e24 54bc d2be 66bb
00000130: 9895 b63c 1418 983c f4fd 5b3c e0ce 033c
00000140: f270 5e3c d274 b13c e607 0ebc 74ce d93b
00000150: 4ec9 b4bc 9a7f a2bc f777 12ba d62f 22bc
00000160: 331e d93c a7e4 88b9 7078 8f3b 658f b73c
00000170: 3902 113d 8ccc 04bd 5337 08bb 9807 a4bb
00000180: 2ee4 71bd 6339 86bb ee42 a3bb 9c9e ab3c
00000190: 14a3 0c3d b93f 873c e7d1 89bc 92fa 823c
000001a0: 1774 c4b9 b20a 30bb 208b 5ebb f78f 203d
000001b0: 8676 043c 9b5f 5fbc 55c9 743c 2f93 d2bb
000001c0: b911 ecbb 93c4 15bc b4a0 65ba 45dc 3fbc
000001d0: bd05 c43a d99e 18bc e0c6 063d 3b6b 873c
000001e0: 3b1e 243c 38a2 41bc 786b 793a 9cdd 2cbc
000001f0: 0173 dfbb 66ee a23c 93b4 d63b ff32 073c
00000200: 0162 f73c 6d4b 213b 849c 98bb 5908 81ba
00000210: 220a 09bc dfb0 81ba 7db3 063c d76b 24bc
00000220: 92cc 0fbd 5e26 1b3c f025 bcbc b854 debc
00000230: 3620 8d3c a480 673c 6de9 12bc b4ae 853c
00000240: 7520 523c 24eb 91ba 6b76 bebc e45c 653c
00000250: 02a6 5e3c d8aa e1bc ce28 d73b 10e9 3c3c
00000260: 7c9d 253b 6bb2 273b c036 9e3c 94be bdbb
00000270: 7438 44bc 403c 573c e084 5d3c 72aa 56bb
00000280: b01c 8e3c c969 9ebc a92b b53c 5a17 9f3a
00000290: c0ce b03b edf4 22bd 7e1c f43c 337b 763c
000002a0: 33b9 a43c f4a2 c13b 07be b9bc 226f 07bd
000002b0: b79e 66bc bdc5 eabb aaac 443c 0244 d8bc
000002c0: 7b89 ca3b ad33 37ba 6569 78bc d0bb e1bc
000002d0: 62c9 d3b8 261a 823d 0794 703c 70a4 9d3c
000002e0: f339 c4ba ee73 66bc c40b 903c 8403 9b3c
000002f0: 6435 5bbc b39a ed3b 3d7f 90bc cecb d4bc
00000300: 706a 75bb 4cc3 d1bc 044b 3c3b c38a 6fbc
00000310: 15d7 563c dfd6 10bc aee9 fbbc c7ff cc3c
00000320: eb9f a23c 93e3 cd3a 3e10 d5bc 9758 0a3c
00000330: 125f dc3c 5e1c a53c 3b10 71bb 8e55 bf3b
00000340: e965 0bbd c962 5dbc 2169 033c 509b 83bb
00000350: 9cb9 d83c a738 033c b3eb c7ba 980c c33c
00000360: e0e1 983c 5369 033c 2f89 c03a 1526 df3b
00000370: 9241 0f3c cbde 1fbc b383 583c d73e 55bc
00000380: 41bc 4ebb 93e1 04ba 13eb 293d 6bd9 9bbc
00000390: e0e7 10bd d987 b53c bf3e 8d3c 70f4 063d
000003a0: 18e3 a23d 6d84 813c 043b 97bc 868d abb9
000003b0: f7e8 85bc a08f 103d 4499 65bb 14a8 13bd
000003c0: c6e1 463d 0126 173d e4f5 c1bb e35c 7fbb
000003d0: 0699 63bd f210 823c d555 14bd 6219 3cbd
000003e0: 871c 86bc e1de a6bc 9094 213d 82d3 e93c
000003f0: 0ef8 d2b9 1b6e 9a3c 23d8 023d 3c79 b7bb

bias f4 [16]
0.0 0.0 0.0 0.0 0.0 0.0 0.0 0.0
0.0 0.0 0.0 0.0 0.0 0.0 0.0 0.0
00000000: 0000 0000 0000 0000 0000 0000 0000 0000
00000010: 0000 0000 0000 0000 0000 0000 0000 0000
00000020: 0000 0000 0000 0000 0000 0000 0000 0000
00000030: 0000 0000 0000 0000 0000 0000 0000 0000

weight f4 [16, 16]
0.008260741 0.018331015 0.016449517 0.01625958 -0.02447815 -0.014213918 0.030406348 -0.011740591
-0.020443654 -0.041641515 0.014232925 0.017613273 0.026603304 -0.00033420464 0.0034128944 0.008441407
-0.01049209 -0.0009328006 0.04767003 -0.002151928 0.0109401345 -0.022547117 -0.001710702 0.024770465
-0.021019911 -0.015500743 0.027311467 0.0049684015 0.0020799516 -0.0013442193 0.0076364544 0.010146318
-0.020080548 -0.015865114 0.016141245 -0.028127458 0.014570684 0.0062428624 0.008557564 -0.02000228
-0.014046677 0.0211138 -0.010650524 0.014792494 0.0023662304 0.021818468 0.022582227 -0.012840386
-0.03160955 -0.012548622 0.009069555 0.03547172 0.00064853526 -0.026742846 0.00662895 -0.020404572
-0.013182777 -0.008070592 -0.0041333996 0.032342024 0.011266378 -0.0140846735 0.021573775 0.01858001
0.04119873 -0.020028599 0.03852582 -0.011964534 -0.009457584 -0.010335276 0.005083519 0.0071056066
-0.018724537 -0.012911169 -0.009797497 0.008300131 0.012421848 0.0058130138 0.012893465 0.0059544384
0.0054089427 0.023915043 -0.030726498 -0.023177821 -0.011641669 -0.012892303 -0.009001725 -0.030206978
0.012500937 -0.025669217 -0.012863591 -0.009625043 0.0018962789 0.021419782 0.033426177 0.020794136
-0.00072201167 0.017769225 0.018810755 -0.0023316047 0.002019076 -0.033721987 0.02591686 0.028722916
-0.0032263717 -0.01865162 0.0058907885 0.023020815 -0.0334587 -0.014636155 -0.043729756 -0.034838513
0.010492939 -0.0026009425 0.0005596053 -0.009136762 0.014255922 -0.02579691 -0.025203206 -0.031131145
0.0011782624 -0.02427655 0.010665374 -0.017783808 -0.0026985498 0.048469137 -0.0031427708 0.018517949
-0.006231645 -0.020692067 -0.010147855 0.025559988 0.007655446 -0.0055974554 -0.0068038814 0.036514673
-0.017605389 -0.017052574 -0.0021036942 0.01563351 -0.030575585 0.0002262426 -0.0014771627 -0.0033581078
-0.03255737 -0.008889159 0.016538411 0.019741828 0.010972813 0.011050885 -0.023781225 0.0059290086
0.013580009 0.030592054 -0.017377082 0.023575878 0.012163529 -0.008678423 -0.03460678 -0.060506828
-0.0076282527 -0.028254284 0.0043399185 -0.04637063 -0.03045063 -0.01324169 -0.016280707 -0.008067493
-0.007141065 0.019805647 -0.024335548 -0.013251358 0.034637995 0.013198943 0.0012933252 0.00974408
-0.006707832 0.008973543 -0.027213559 0.01348392 0.00958969 -0.0018476009 0.00603738 0.01959973
0.0048760716 0.002079364 0.021459425 -0.025188956 -0.011706976 -0.0240406 0.011705612 0.014536217
-0.020071976 -0.018268654 -0.012724218 0.006328685 -0.039612513 0.014080861 0.0041941637 0.0009963217
0.0054548047 0.014327819 0.0146798715 -0.0015399967 -0.028196292 -0.017769605 -0.008634995 0.009638278
-0.028747147 -0.021706114 0.002878115 -0.04747612 -0.037928447 -0.019115966 0.015619468 -0.01165275
-0.0032019361 -0.025471559 -0.008710242 0.01604657 0.030184178 0.030026874 -0.0201567 -0.017649198
-0.022068603 0.0058726105 0.023008756 0.029847337 0.009974493 0.025861036 -0.009598751 0.023581648
-0.0056329616 -0.017988736 -0.022179756 0.0007309103 -0.016273784 -0.00239311 0.027354354 -0.007334116
0.015601772 -0.011240168 -0.035937533 0.002618812 0.016405828 0.024193231 0.008923541 -0.0041416786
0.007915878 0.017379735 -0.013151072 -0.008402704 -0.017291833 -0.010950589 -0.0042353976 0.024484416
00000000: 0f58 073c ed2a 963c 23c1 863c d032 853c
00000010: 6786 c8bc 7ee1 68bc bc16 f93c 9c5b 40bc
00000020: 7379 a7bc 4b90 2abd 3731 693c b649 903c
00000030: 2cef d93c 3038 afb9 deaa 5f3b d44d 0a3c
00000040: 04e7 2bbc 3087 74ba a641 433d 5c07 0dbb
00000050: 403e 333c bbb4 b8bc a239 e0ba 6eeb ca3c
00000060: f331 acbc d4f6 7dbc 4cbc df3c f9cd a23b
00000070: cc4f 083b 8430 b0ba 393b fa3b be3c 263c
00000080: f67f a4bc 8ef7 81bc a53a 843c 8e6b e6bc
00000090: e1b9 6e3c ed90 cc3b 0635 0c3c d2db a3bc
000000a0: 0924 66bc d9f6 ac3c 897f 2ebc 375c 723c
000000b0: c212 1b3b a5bc b23c 5dfe b83c 7b60 52bc
000000c0: 0479 01bd bc98 4dbc 7998 143c cb4a 113d
000000d0: 7702 2a3a d013 dbbc aa37 d93b 7d27 a7bc
000000e0: 93fc 57bc 843a 04bc 7871 87bb 1279 043d
000000f0: 9d96 383c 67c3 66bc 7cbb b03c 1b35 983c
00000100: 00c0 283d 0413 a4bc 40cd 1d3d e506 44bc
00000110: fbf3 1abc 4a55 29bc a693 a63b 26d6 e83b
00000120: 3364 99bc 5e89 53bc ae85 20bc 46fd 073c
00000130: 0285 4b3c 187b be3b 1d3f 533c 731d c33b
00000140: 803d b13b 7be9 c33c 23b6 fbbc 6adf bdbc
00000150: b3bc 3ebc 3d3a 53bc f97b 13bc a074 f7bc
00000160: bbd0 4c3c 4048 d2bc d0c1 52bc 5bb2 1dbc
00000170: 908c f83a 8a78 af3c e3e9 083d 7758 aa3c
00000180: 6245 3dba c490 913c 0319 9a3c d6cd 18bb
00000190: 7952 043b 1120 0abd 984f d43c 524c eb3c
000001a0: 8971 53bb 48cb 98bc 8407 c13b 2696 bc3c
000001b0: fd0b 09bd 7ccc 6fbc f91d 33bd d4b2 0ebd
000001c0: 93ea 2b3c 9374 2abb 7ab2 123a 5bb2 15bc
000001d0: ac91 693c 0b54 d3bc f476 cebc be06 ffbc
000001e0: ed6f 9a3a 9edf c6bc d2bd 2e3c 59af 91bc
000001f0: 27da 30bb 9387 463d f2f6 4dbb f4b2 973c
00000200: d432 ccbb 6982 a9bc 3043 26bc 2e63 d13c
00000210: 89da fa3b dc6a b7bb 18f3 debb 6990 153d
00000220: 2d39 90bc d7b1 8bbc 22de 09bb d911 803c
00000230: a679 fabc 893b 6d39 5b9d c1ba b313 5cbb
00000240: e05a 05bd d6a3 11bc 907b 873c 9db9 a13c
00000250: 50c7 333c c50e 353c d8d0 c2bc 2148 c23b
00000260: b07e 5e3c 309c fa3c 625a 8ebc 3322 c13c
00000270: 8a49 473c f22f 0ebc d7bf 0dbd 02d6 77bd
00000280: 6cf6 f9bb 8775 e7bc e035 8e3b 21ef 3dbd
00000290: 9973 f9bc acf3 58bc 1e5f 85bc 852d 04bc
000002a0: 98ff e9bb 743f a23c 585b c7bc 391c 59bc
000002b0: 92e0 0d3d 6140 583c cb84 a93a a2a5 1f3c
000002c0: 60cd dbbb c405 133c f8ee debc a9eb 5c3c
000002d0: 131e 1d3c 332b f2ba 37d5 c53b 9d8f a03c
000002e0: 74c7 9f3b f045 083b adcb af3c 1259 cebc
000002f0: 9ece 3fbc cbf0 c4bc e5c8 3f3c 5029 6e3c
00000300: fc6d a4bc 25a8 95bc 3d79 50bc dc60 cf3b
00000310: bb40 22bd 69b3 663c 326f 893b 0297 823a
00000320: 38be b23b 3bbf 6a3c d883 703c b7d9 c9ba
00000330: e9fb e6bc 9091 91bc cb79 0dbc dee9 1d3c
00000340: 237f ebbc 05d1 b1bc c29e 3c3b 5276 42bd
00000350: dc5a 1bbd 1699 9cbc cce8 7f3c 2deb 3ebc
00000360: 93d7 51bb bba9 d0bc 67b5 0ebc 1974 833c
00000370: cf44 f73c ebfa f53c aa1f a5bc 0d95 90bc
00000380: 37c9 b4bc 076f c03b dc7c bc3c 6782 f43c
00000390: 0e6c 233c 86da d33c 1444 1dbc 4d2e c13c
000003a0: b594 b8bb 1d5d 93bc 52b2 b5bc 8f9a 3f3a
000003b0: 9950 85bc b9d5 1cbb 3d16 e03c 0653 f0bb
000003c0: 939e 7f3c ae28 38bc 3c33 13bd 60a0 2b3b
000003d0: 8465 863c e230 c63c 0b34 123c ebb6 87bb
000003e0: 99b1 013c f25f 8e3c 9877 57bc 7fab 09bc
000003f0: 9aa7 8dbc 196a 33bc 17c9 8abb 8b93 c83c

bias f4 [16]
0.0 0.0 0.0 0.0 0.0 0.0 0.0 0.0
0.0 0.0 0.0 0.0 0.0 0.0 0.0 0.0
00000000: 0000 0000 0000 0000 0000 0000 0000 0000
00000010: 0000 0000 0000 0000 0000 0000 0000 0000
00000020: 0000 0000 0000 0000 0000 0000 0000 0000
00000030: 0000 0000 0000 0000 0000 0000 0000 0000

weight f4 [16, 16]
-0.002075583 -0.027939271 -0.004676019 -0.0062073776 0.024445796 -0.014448483 -0.027528707 0.0037134353
-0.022548357 -0.021903608 -0.006994831 0.036530923 0.038385432 -0.020642495 -0.032296486 0.01205753
0.02066128 0.020972405 -0.015430494 0.031214377 0.056256235 -0.034728456 -0.0053342776 0.0025135197
0.011741612 -0.01638012 -0.020745661 -0.01566245 -0.01016935 -0.008615543 0.03181235 0.004056237
-0.018895928 0.0136035485 0.0006219662 -0.009216675 -0.0046846396 -0.016699536 0.0055863727 -0.04367273
-0.011379487 -0.05255315 0.037047233 -0.015258592 -0.03468858 -0.003923323 -0.0107912375 -0.010771217
0.0069029527 0.0030356937 0.027294122 0.018289432 -0.0015684204 -0.027153868 -0.0037084064 0.008673887
-0.013815876 0.006178889 -0.015933126 -0.00036811974 -0.0021488017 -0.0028915885 0.011387592 -0.027973052
-0.0038608646 0.0007734097 0.0005506775 0.0026801515 0.028311128 0.014113673 0.018013136 -0.01503847
-0.027563948 0.01484349 0.024053933 0.002776155 -0.017131472 0.003228788 0.0039603324 0.006226632
0.011736649 -0.025129184 0.0015448877 0.0093178665 -0.0052991 0.048936777 -0.03226122 0.008494827
-0.024935989 -0.02248949 0.026187362 -0.04268495 0.0002926634 -0.034648 0.02850903 -0.02311692
0.001988189 0.016247744 -0.009488496 -0.02355849 0.014807443 -0.002910495 0.033190846 0.022614446
0.006586944 -0.007346363 0.023931105 0.028732164 -0.005388529 0.01765525 0.0137414895 0.013515984
0.0019886733 -0.02292022 0.023512263 0.018426074 0.011801537 -0.0044107637 0.018470258 0.031253546
0.003895016 -0.014527793 -0.011776292 0.008614564 0.041070517 -0.03326277 -0.05867983 0.00653523
0.013303265 -0.009359391 -0.003309297 -0.035310708 -0.020768557 0.0029870186 0.004852247 0.036606997
0.015241657 -0.011009731 -0.0063354042 -0.0006034322 -0.010409451 0.040916547 -0.012595624 0.011321272
-0.010234581 0.008235485 -0.0052354853 -0.03808268 -0.0058469037 -0.02136006 0.008275549 0.0005162232
0.032364916 -0.0017240058 -0.0072593843 0.017812178 -0.0027504163 -0.016403098 -0.012172462 0.014264327
0.04720274 0.044293515 0.001280334 0.010244709 -0.0009637814 -0.016564054 0.0050010304 0.022306683
0.005908551 -0.010873086 0.0013767078 -0.012869938 -0.01316902 0.0030422192 -0.035024233 -0.002212195
-0.013389144 0.056217942 -0.009238552 -0.03753596 0.015678171 -0.030496107 -0.0063012093 -0.019386386
-0.011266728 0.048019987 -0.02125029 0.03566992 0.010480609 -0.025891952 -0.023823299 0.023836533
0.0048558833 -0.06306158 0.04306923 -0.0111737605 0.052902974 0.008853146 0.0042416346 -0.006514396
0.041591488 -0.013882352 0.0126344105 0.0057590227 -0.00019589758 0.014812847 -0.044040516 0.009621593
-0.0463465 0.032059446 -0.013212915 0.03464391 -0.042959977 -0.016647017 0.008035649 0.009340928
0.016768774 0.008718529 -0.013035661 -0.047707953 0.042788617 -0.0067855613 -0.009899599 0.0018742838
0.030597594 -0.0018430832 0.015356622 0.015739005 -0.012422963 -0.03275564 0.0063314484 0.0059240167
-0.02967752 0.044455804 0.0044909394 0.025808338 0.019961964 0.0046453965 -0.014003597 -0.01852357
0.040901102 0.0015830824 -0.0645714 -0.012276373 0.028379014 0.008193848 -0.03384044 0.029997101
0.029337019 0.010994073 -0.002769758 -0.025578478 0.03588376 -0.013211865 0.02030716 -0.018893627
00000000: 8106 08bb e6e0 e4bc 4a39 99bb 4267 cbbb
00000010: 8d42 c83c 54b9 6cbc e283 e1bc 1b5d 733b
00000020: 55b7 b8bc 326f b3bc e534 e5bb 73a1 153d
00000030: 0b3a 1d3d 731a a9bc 5249 04bd f28c 453c
00000040: d841 a93c 52ce ab3c 2fd0 7cbc 4bb5 ff3c
00000050: f06c 663d 6d3f 0ebd 2acb aebb ddb9 243b
00000060: e45f 403c 9a2f 86bc cef2 a9bc 8a4e 80bc
00000070: 589d 26bc 3528 0dbc ab4d 023d 2fea 843b
00000080: a2cb 9abc 6be1 5e3c 720b 233a 8901 17bc
00000090: 9b81 99bb 77cd 88bc e40d b73b 2de2 32bd
000000a0: 0771 3abc f941 57bd d7be 173d 2cff 79bc
000000b0: 9d15 0ebd 388f 80bb bbcd 30bc c279 30bc
000000c0: 2a32 e23b 7df2 463b ec97 df3c b8d3 953c
000000d0: 7593 cdba ca71 debc bc08 73bb eb1c 0e3c
000000e0: fc5b 62bc 4778 ca3b 3086 82bc 3200 c1b9
000000f0: e9d2 0cbb ce80 3dbb 0693 3a3c be27 e5bc
00000100: 8f06 7dbb a5be 4a3a 575b 103a 7ba5 2f3b
00000110: bdec e73c 093d 673c 4990 933c ea63 76bc
00000120: cacd e1bc 1c32 733c c10c c53c 27f0 353b
00000130: 4d57 8cbc 139a 533b adc5 813b c608 cc3b
00000140: 134b 403c b8db cdbc d47d ca3a f7a9 183c
00000150: 13a4 adbb ee71 483d 5724 04bd e32d 0b3c
00000160: 8f46 ccbc e13b b8bc e186 d63c 6ad6 2ebd
00000170: 9e70 9939 10eb 0dbd c58b e93c b25f bdbc
00000180: 474c 023b fd19 853c a375 1bbc bcfd c0bc
00000190: eb9a 723c 01be 3ebb 20f3 073d ee41 b93c
000001a0: 4bd7 d73b c2b9 f0bb 2a0b c43c b75f eb3c
000001b0: 4292 b0bb bea1 903c fc23 613c 2572 5d3c
000001c0: 6754 023b 2fc3 bbbc ca9c c03c 47f2 963c
000001d0: 3c5b 413c 2b88 90bb f04e 973c b803 003d
000001e0: 8643 7f3b fb05 6ebc 59f1 40bc 1a24 0d3c
000001f0: 8f39 283d 8b3e 08bd 435a 70bd 7c25 d63b
00000200: f0f5 593c 2258 19bc cae0 58bb f6a1 10bd
00000210: d222 aabc dbc1 433b 99ff 9e3b 38f1 153d
00000220: 25b8 793c 2962 34bc 3999 cfbb a62f 1eba
00000230: 678c 2abc 1c98 273d e05d 4ebc db7c 393c
00000240: f2ae 27bc 21ee 063c 6f8e abbb 96fc 1bbd
00000250: 6297 bfbb 4bfb aebc 2b96 073c 2753 073a
00000260: 1391 043d 09f8 e1ba 21e0 edbb d8ea 913c
00000270: 5440 34bb ca5f 86bc 026f 47bc ecb4 693c
00000280: a957 413d 1e6d 353d e1d0 a73a 6dd9 273c
00000290: 46a6 7cba 57b1 87bc afdf a33b 81bc b63c
000002a0: 859c c13b 0725 32bc a672 b43a 6fdc 52bc
000002b0: e0c2 57bc f85f 473b 9275 0fbd 79fa 10bb
000002c0: 245e 5bbc c944 663d 4c5d 17bc 4fbf 19bd
000002d0: 826f 803c f9d2 f9bc 607a cebb 33d0 9ebc
000002e0: 1598 38bc 9bb0 443d 1715 aebc 9f1a 123d
000002f0: dcb6 2b3c 5c1b d4bc 1429 c3bc d544 c33c
00000300: 1a1e 9f3b 6e26 81bd 5c69 303d 2612 37bc
00000310: cab0 583d c90c 113c 69fd 8a3b b776 d5bb
00000320: d65b 2a3d ce72 63bc 8f00 4f3c 2fb6 bc3b
00000330: db69 4db9 95b1 723c d463 34bd e3a3 1d3c
00000340: d4d5 3dbd c450 033d fb7a 58bc c6e6 0d3d
00000350: cdf6 2fbd 535f 88bc f4a7 033c b10a 193c
00000360: ab5e 893c 29d8 0e3c 8693 55bc 6a69 43bd
00000370: 1e43 2f3d 6a59 debb ed31 22bc 87aa f53a
00000380: cea7 fa3c 9c93 f1ba 579a 7b3c 16ef 803c
00000390: af89 4bbc c72a 06bd 0a78 cf3b 411e c23b
000003a0: 451e f3bc 4a17 363d bb28 933b 026c d33c
000003b0: 4687 a33c 6938 983b 586f 65bc bebe 97bc
000003c0: ea87 273d 6e7f cf3a 033e 84bd d722 49bc
000003d0: 1b7b e83c 7d3f 063c 469c 0abd 7bbc f53c
000003e0: 3054 f03c 7c20 343c d484 35bb f589 d1bc
000003f0: d9fa 123d 9476 58bc 345b a63c cfc6 9abc

bias f4 [16]
0.0 0.0 0.0 0.0 0.0 0.0 0.0 0.0
0.0 0.0 0.0 0.0 0.0 0.0 0.0 0.0
00000000: 0000 0000 0000 0000 0000 0000 0000 0000
00000010: 0000 0000 0000 0000 0000 0000 0000 0000
00000020: 0000 0000 0000 0000 0000 0000 0000 0000
00000030: 0000 0000 0000 0000 0000 0000 0000 0000

weight f4 [16]
1.0 1.0 1.0 1.0 1.0 1.0 1.0 1.0
1.0 1.0 1.0 1.0 1.0 1.0 1.0 1.0
00000000: 0000 803f 0000 803f 0000 803f 0000 803f
00000010: 0000 803f 0000 803f 0000 803f 0000 803f
00000020: 0000 803f 0000 803f 0000 803f 0000 803f
00000030: 0000 803f 0000 803f 0000 803f 0000 803f

bias f4 [16]
0.0 0.0 0.0 0.0 0.0 0.0 0.0 0.0
0.0 0.0 0.0 0.0 0.0 0.0 0.0 0.0
00000000: 0000 0000 0000 0000 0000 0000 0000 0000
00000010: 0000 0000 0000 0000 0000 0000 0000 0000
00000020: 0000 0000 0000 0000 0000 0000 0000 0000
00000030: 0000 0000 0000 0000 0000 0000 0000 0000

weight f4 [256, 16]
-0.00979294 0.00803642 0.011576701 0.035741158 0.021908507 0.009638609 -0.010661827 -0.009254829
0.012776297 0.017148746 -0.013465349 -0.020397356 0.015259009 0.012984631 0.035605796 0.00917708
-0.015608992 -0.03858942 0.026923947 0.0123624075 0.007124167 -0.008385022 -0.022410138 -0.0009077847
-0.027387125 0.010670433 0.0064515024 0.006372793 0.0038665377 -0.011359309 0.020533476 -0.006308477
-0.042618975 0.030800566 0.028569913 0.011116424 0.007483955 -0.03112564 0.03193074 0.029333996
-0.0030642527 -0.04327245 0.0040305704 -0.0052639064 0.0144684585 0.021866316 -0.026736645 -0.0009352667
-0.03586145 0.033030592 -0.016334964 -0.020538215 0.0017610417 0.010263227 0.003095622 0.0049623367
-0.027460689 0.020657765 -0.024109311 -0.0066765016 0.012827022 0.020429771 -0.0032962833 -0.021296535
-0.026016064 -0.0018301938 -0.008298336 -0.020201396 0.04998415 -0.043697476 -0.0045691947 0.0014627833
0.008038656 0.004792398 0.011004492 0.008834094 0.013285897 -0.025251508 -0.0007631219 -0.005595953
-0.005566751 -0.013990795 0.016812254 0.020336155 -0.051072557 0.018506184 -0.0034852861 0.009810065
0.019405449 -0.038231328 -0.008165171 0.039151408 0.032221206 0.01819731 -0.006444225 2.4314173e-05
-0.02937775 0.0315786 -0.0049573085 -0.02061644 0.013403247 0.00014681814 -0.00589121 0.034865875
0.013807119 0.011673045 -0.0007610594 0.002587524 -0.015797937 0.0012180562 0.008645463 -0.0055652824
0.0015085278 0.006182594 0.026076311 -0.012322386 -0.023102148 -0.042184986 0.028452782 0.04101409
-0.00094652805 -0.02616482 -0.0062787808 -0.0043072817 0.049081367 0.0143463705 0.0088765705 -0.006268661
-0.0040539075 0.041634347 0.034540653 -0.017240644 -0.014445068 -0.03248794 -0.005496137 -0.059422348
0.0064033214 0.010018159 0.02997627 0.017134052 0.050388202 0.004734344 0.02987998 0.009617081
0.023643002 -0.034190543 -0.030926248 0.000815137 0.00095570437 -0.023552315 0.018138912 -0.005851786
0.006137079 0.014576148 0.03302528 -0.0033564914 -0.007307258 -0.001289502 -0.01678503 0.06669344
0.015715834 -0.016673824 -0.0067439 -0.015554047 0.018391922 -0.014789616 -0.038687274 -0.00269158
0.033866003 0.008284328 -0.008445833 0.012148612 -0.022433646 -0.032004286 -0.023876261 -0.022671385
0.014598413 -0.012412341 -0.010086274 -0.019698916 -0.00011025094 -0.0007574966 0.024597265 -0.0078116977
0.045411523 0.04193979 0.028866364 -0.030592598 -0.0131465215 0.029251283 -0.00103923 0.015751582
0.029904816 -0.002352304 -0.0025076794 0.009001853 0.010943508 0.0071619973 -0.01712469 -0.01648953
-0.026993364 0.011999536 0.012799626 0.026890865 0.040141944 0.013829142 -0.020919325 0.0627312
-0.0067463755 -0.007082037 -0.00020858995 -0.009124718 -0.0012592856 0.041378565 0.022715988 0.010293779
0.018841771 0.031419814 -0.010084914 0.01719749 0.050842073 -0.005350791 0.047676295 0.019031895
0.024697192 -0.024739685 -0.0055368803 -0.0043673334 0.01183202 -0.0012774979 0.004585949 -0.019316042
-0.01517953 0.020699196 0.01271847 0.010770215 -0.04474453 0.00567122 0.012701831 -0.003960882
0.002587173 0.041425634 0.032941222 0.027388176 0.0050926665 0.0058031497 0.00811008 0.04405426
0.010080567 0.014186513 0.018806607 0.03202403 0.010909997 0.015389513 0.01052228 0.00012553841
00000000: 9172 20bc 30ab 033c 34ac 3d3c 5265 123d
00000010: 7879 b33c 42eb 1d3c f2ae 2ebc 91a1 17bc
00000020: ac53 513c 877b 8c3c c49d 5cbc 5b18 a7bc
00000030: ec00 7a3c 7dbd 543c 62d7 113d 775b 163c
00000040: dcbc 7fbc f10f 1ebd 9c8f dc3c b28b 4a3c
00000050: d871 e93b 5561 09bc 7795 b7bc 66f8 6dba
00000060: f75a e0bc 0ad3 2e3c 2067 d33b ddd2 d03b
00000070: bd65 7d3b 651c 3abc d235 a83c 57b7 cebb
00000080: 3c91 2ebd 7851 fc3c 730b ea3c a921 363c
00000090: f73b f53b 33fb febc cfc9 023d d94d f03c
000000a0: a1d1 48bb 743e 31bd e012 843b d97c acbb
000000b0: 1d0d 6d3c fd20 b33c cf06 dbbc b02c 75ba
000000c0: 75e3 12bd 164b 073d e7d0 85bc c23f a8bc
000000d0: c1d2 e63a 1827 283c ebdf 4a3b 199b a23b
000000e0: 3df5 e0bc 793a a93c e480 c5bc 8ec6 dabb
000000f0: 6e28 523c 565c a73c 7506 58bb 1276 aebc
00000100: a41f d5bc 1de3 efba bef5 07bc 667d a5bc
00000110: 2ebc 4c3d 20fc 32bd 2fb9 95bb ddba bf3a
00000120: 91b4 033c 8c09 9d3b 2f4c 343c e0bc 103c
00000130: 17ad 593c 40dc cebc 3e0c 48ba 425e b7bb
00000140: 4b69 b6bb a639 65bc dab9 893c 0298 a63c
00000150: 7531 51bd 489a 973c 6669 64bb 65ba 203c
00000160: 2df8 9e3c 7498 1cbd 36c7 05bc 3a5d 203d
00000170: 62fa 033d 8612 953c 142a d3bb 4af6 cb37
00000180: 9ba9 f0bc 9058 013d eb70 a2bb cfe3 a8bc
00000190: 4b99 5b3c 32f3 1939 0d0b c1bb 85cf 0e3d
000001a0: 4137 623c 4d40 3f3c d581 47ba 7393 293b
000001b0: ad6a 81bc 2fa7 9f3a b3a5 0d3c f95c b6bb
000001c0: cbb9 c53a 5c97 ca3b fd9d d53c d5e3 49bc
000001d0: b740 bdbc 2aca 2cbd cf15 e93c 64fe 273d
000001e0: 6c20 78ba 9b57 d6bc 3bbe cdbb 1924 8dbb
000001f0: 8b09 493d 0a0d 6b3c 096f 113c 5769 cdbb
00000200: a4d6 84bb c788 2a3d 807a 0d3d 403c 8dbc
00000210: 02ab 6cbc 1312 05bd f018 b4bb d964 73bd
00000220: f4d2 d13b 3423 243c cb90 f53c b65c 8c3c
00000230: dc63 4e3d 8e22 9b3b dcc6 f43c f690 1d3c
00000240: f8ae c13c 620b 0cbd 0b59 fdbc ebae 553a
00000250: 3c88 7a3a c9f0 c0bc 0e98 943c 57c0 bfbb
00000260: 8d19 c93b ccd0 6e3c 8445 073d 95f8 5bbb
00000270: b971 efbb 8204 a9ba c280 89bc 9296 883d
00000280: 7ebe 803c 8b97 88bc effb dcbb 67d6 7ebc
00000290: a8aa 963c 2550 72bc 8c76 1ebd 3865 30bb
000002a0: 14b7 0a3d fdba 073c 6460 0abc f90a 473c
000002b0: c4c6 b7bc ed16 03bd 2698 c3bc 57b9 b9bc
000002c0: 2f2e 6f3c 225d 4bbc e640 25bc 9f5f a1bc
000002d0: 8636 e7b8 bc92 46ba 3480 c93c 45f9 ffbb
000002e0: 6f01 3a3d 0fc9 2b3d 2779 ec3c 549d fabc
000002f0: 8264 57bc 63a0 ef3c c636 88ba 7609 813c
00000300: f2fa f43c 1d29 1abb e157 24bb 827c 133c
00000310: 664c 333c 30af ea3b 1449 8cbc 0d15 87bc
00000320: 3021 ddbc b499 443c 86b5 513c 3b4a dc3c
00000330: e16b 243d a093 623c 015f abbc 3779 803d
00000340: b310 ddbb 6f10 e8bb f0b8 5ab9 d77f 15bc
00000350: 9d0e a5ba 927c 293d e116 ba3c 3da7 283c
00000360: 0f5a 9a3c 10b2 003d 323b 25bc c0e1 8c3c
00000370: c73f 503d b055 afbb 3848 433d c7e8 9b3c
00000380: c451 ca3c e1aa cabc b86e b5bb d91b 8fbb
00000390: 17db 413c b771 a7ba ba45 963b ad3c 9ebc
000003a0: 90b3 78bc 5c91 a93c 2161 503c 8e75 303c
000003b0: 0a46 37bd a4d5 b93b 571b 503c 49ca 81bb
000003c0: 8f8d 293b edad 293d 60ed 063d 2b5d e03c
000003d0: 62e0 a63b 5928 be3b 24e0 043c 3d72 343d
000003e0: f628 253c 8c6e 683c 5010 9a3c a12b 033d
000003f0: d8bf 323c 4c24 7c3c a465 2c3c f6a2 0339
