rust/mnist_cuda.pt (torch, 190311 bytes, 10 tensors)

weight f4 [6, 1, 5, 5]
0.028108746 0.11605327 -0.07494354 0.18635793 0.07917 0.13685001 -0.15510991 0.055824503
-0.11946938 0.117101386 0.09589343 0.14528914 -0.1328404 0.016463071 -0.052513838 0.09875871
-0.15293118 -0.06106648 -0.0065464973 -0.019821689 -0.0564768 -0.060745746 -0.104040526 -0.12885386
-0.19809654 -0.015788034 -0.16065685 0.00046417117 -0.11206379 -0.16806579 -0.14244151 0.103305206
0.040229276 0.17881705 -0.017282844 -0.13615865 0.00469473 0.079047844 -0.17277609 0.1623133
-0.08727918 -0.13656032 -0.16693728 0.038160115 -0.017438412 0.11139299 0.17356707 0.09565826
0.014251202 -0.08624013 0.07517655 -0.058769032 0.033306003 -0.002989009 0.040859103 -0.110613994
-0.19579278 0.019382313 0.12898399 -0.080371976 0.13199283 -0.19247913 0.03209333 0.19980766
0.025976107 -0.061251283 -0.16763254 0.07891704 -0.08659764 -0.049281716 0.07643302 0.1937906
0.039423183 -0.1926779 -0.14644615 0.07702835 -0.19426075 -0.16342647 -0.013314053 0.19510545
-0.09942477 -0.02614677 0.118027106 -0.18021548 -0.10840886 0.07937704 0.027985618 0.16543241
0.04961571 0.14904238 0.007834345 -0.18417847 -0.016489953 0.08658813 0.12710275 0.1718537
0.09675361 0.16122223 -0.04733351 0.051749334 0.11545862 0.19495569 -0.1844145 0.031933576
0.018183023 -0.13490155 -0.06474134 -0.061269403 -0.062179357 -0.09054501 0.19348027 -0.12921858
0.1783097 0.046335146 0.12066831 0.091954306 -0.042190105 -0.17461284 -0.08594463 0.10393916
-0.06239581 0.08336966 -0.10594597 -0.12583745 -0.061690718 0.016039997 -0.10442855 0.19572328
0.009923264 -0.089375354 0.12680422 -0.008025005 0.14311792 0.0026545525 0.118327335 -0.08278308
-0.1494962 0.18834336 0.15639408 -0.003952116 0.15479328 0.0031176358 -0.13935359 -0.15957685
-0.035753965 -0.17369819 -0.08473213 -0.10592802 -0.042950347 0.098685905
00000000: 5044 e63c 56ad ed3d 007c 99bd 9dd4 3e3e
00000010: e223 a23d 6922 0c3e 22d5 1ebe 3ca8 643d
00000020: 5dac f4bd dad2 ef3d c663 c43d adc6 143e
00000030: 5007 08be 90dd 863c c018 57bd 0242 ca3d
00000040: fe99 1cbe d820 7abd 0084 d6bb 1861 a2bc
00000050: 3854 67bd 88d0 78bd 3313 d5bd 44f2 03be
00000060: d2d9 4abe e855 81bc 3b83 24be 005c f339
00000070: b381 e5bd 7019 2cbe 30dc 11be ae91 d33d
00000080: 74c7 243d d11b 373e c094 8dbc 2c6d 0bbe
00000090: 40d6 993b d6e3 a13d 37ec 30be 7535 263e
000000a0: 6dbf b2bd 78d6 0bbe 9bf1 2abe c84d 1c3d
000000b0: 00db 8ebc 0222 e43d 91bb 313e 7ae8 c33d
000000c0: e07d 693c aa9e b0bd 2af6 993d ccb7 70bd
000000d0: e06b 083d 40e3 43bb e05b 273d 9789 e2bd
000000e0: e77d 48be a8c7 9e3c 6114 043e 109a a4bd
000000f0: 2129 073e 4019 45be 4c74 033d 619a 4c3e
00000100: d8cb d43c a0e2 7abd dda7 2bbe 429f a13d
00000110: 1a5a b1bd a0db 49bd ea88 9c3d 0b71 463e
00000120: 347a 213d 5b4d 45be fbf5 15be 0ac1 9d3d
00000130: 4aec 46be 4559 27be 3023 5abc b9c9 473e
00000140: 379f cbbd c031 d6bc 32b8 f13d 688a 38be
00000150: 7705 debd 6e90 a23d 1842 e53c 1d67 293e
00000160: d839 4b3d 919e 183e a05b 003c 4899 3cbe
00000170: f015 87bc 1e55 b13d 3927 023e 6bfa 2f3e
00000180: c226 c63d 7117 253e c8e0 41bd 1cf7 533d
00000190: 9275 ec3d 77a2 473e 28d7 3cbe c8cc 023d
000001a0: 90f4 943c a223 0abe 1c97 84bd a0f5 7abd
000001b0: c8af 7ebd aa6f b9bd b11f 463e e051 04be
000001c0: d196 363e ecc9 3d3d f220 f73d 8a52 bc3d
000001d0: 88cf 2cbd b5cd 32be bd03 b0bd 0ede d43d
000001e0: c092 7fbd b6bd aa3d 33fa d8bd 88db 00be
000001f0: 68af 7cbd 5066 833c a3de d5bd af6b 483e
00000200: 3095 223c 6d0a b7bd f7d8 013e 507b 03bc
00000210: 818d 123e 00f8 2d3b 9a55 f23d 2d8a a9bd
00000220: 8815 19be 15dd 403e c525 203e c080 81bb
00000230: 2182 1e3e 4051 4c3b b5b2 0ebe 1d68 23be
00000240: c072 12bd f0dd 31be 0a88 adbd caf0 d8bd
00000250: b4ec 2fbd d61b ca3d

bias f4 [6]
-0.059111744 0.19636334 0.14138354 -0.0124580115 0.11890565 0.073048696
00000000: 281f 72bd 7913 493e d9c6 103e b01c 4cbc
00000010: ce84 f33d 8e9a 953d

weight f4 [16, 6, 5, 5]
0.060514346 -0.066910684 -0.05256944 -0.021144073 0.005113721 0.06869507 -0.0725528 -0.037630416
0.07201493 0.046820655 -0.05649083 0.07176423 0.07569453 -0.0020329058 0.07977377 0.0054943636
0.004643552 0.030351363 -0.028363656 -0.06448658 -0.028545935 -0.0065193027 0.018477656 -0.038410064
-0.06572197 -0.03469201 0.068837166 -0.022359543 0.0792433 0.031239495 -0.07741231 -0.057013895
0.018758476 0.0790865 0.014368132 -0.054693162 0.027834527 -0.0055821836 -0.028343793 0.011478461
0.012927666 -0.07796082 0.0049552247 -0.016715497 0.07788119 0.04052095 -0.05209671 0.07584405
-0.0063781664 0.027029432 0.03879875 -0.068809226 -0.07344424 0.07695572 -0.07871395 -0.055398315
-0.061803993 0.0367461 0.069681525 0.06278889 0.059293434 -0.013553977 0.040127315 -0.06903567
-0.07625417 -0.018011525 0.024546131 -0.03423099 -0.066241704 0.054263502 -0.08008454 0.079704195
-0.064703695 -0.056982096 0.03795466 0.030257478 -0.04328589 0.06485872 -0.058240972 0.023163177
0.040389024 -0.030685998 0.054290116 -0.047533955 0.049875185 0.0672811 0.07316746 0.06538612
0.07698271 0.02364923 0.0055704713 0.03897091 -0.06303011 0.007274732 -0.000536941 -0.056940164
-0.0010490343 0.059616998 0.034910753 0.07571162 -0.07885552 0.026114658 -0.01194866 0.000866808
0.050958246 0.007357836 -0.02830191 0.0740581 0.07493155 0.030233115 -0.03232184 -0.00048419833
-0.03913958 0.04341729 0.07721348 -0.0036122948 0.0043926165 0.03627398 0.024861358 0.06797914
0.012630925 0.06654939 0.075024694 -0.022265352 0.06396341 -0.008038521 -0.03177452 -0.016994573
0.03143186 0.03476096 -0.004001148 -0.032354232 0.07030743 0.07758108 -0.07671636 -0.014038347
0.08030751 -0.0115681365 0.03564786 0.080262795 0.06431322 0.039133646 -0.0697354 0.03765855
0.06687738 0.024317473 -0.017987318 0.042794548 -0.0064925626 0.07073863 0.06592357 -0.043649092
0.044862464 -0.057193924 0.0077760965 -0.07994924 -0.025667459 0.01195173 -0.050864063 -0.06526693
-0.032082107 0.017887838 0.06449121 0.04652992 0.029627763 0.058752403 -0.058205694 -0.06295769
0.02999781 0.07800987 -0.013230115 -0.07193102 0.07292251 -0.04352204 -0.07115971 -0.070128635
-0.04510741 0.06834185 0.07753134 -0.053554382 0.03894595 0.013701327 0.05937229 -0.06003304
0.06780042 0.03090059 -0.07090792 0.042491764 -0.07139319 0.02690684 -0.037327077 -0.021743651
0.047794774 -0.07429142 0.04118806 -0.04681635 -0.048454724 0.061924845 -0.035178546 -0.041910768
0.015339993 -0.023082703 -0.056706894 0.03517784 0.044286877 0.08076517 0.06635091 0.020642772
0.01822345 -0.035396554 -0.042975005 -0.034733057 0.03199289 0.024376437 0.072585285 0.07985449
-0.04028413 0.010736555 -0.04011869 0.008345574 -0.025773715 -0.0583708 0.0010972098 0.02794443
-0.06499109 -0.036926243 -0.06338134 0.019601382 0.075845376 -0.004686855 -0.053739578 -0.022734754
0.006256707 -0.008502074 -0.03019669 0.07422459 -0.071877524 -0.03743863 -0.08163453 0.07299566
0.018760145 -0.039674733 -0.005338311 0.038821757 -0.07844388 -0.0190904 -0.018033855 -0.07353382
0.0398342 0.061129883 0.03516742 0.0133097395 0.04053496 -0.078391165 0.025401749 0.04566464
00000000: e4dd 773d 7808 89bd 0e53 57bd 5636 adbc
00000010: 0091 a73b 00b0 8c3d 9096 94bd 5a22 1abd
00000020: 907c 933d 04c7 3f3d ee62 67bd 20f9 923d
00000030: bc05 9b3d 803a 05bb 6e60 a33d 100a b43b
00000040: f028 983b 6ca3 f83c e65a e8bc 8a11 84bd
00000050: 2ad9 e9bc e09f d5bb 745e 973c df53 1dbd
00000060: 3d99 86bd 3619 0ebd 80fa 8c3d 5c2b b7bc
00000070: 504a a23d f8e9 ff3c 588a 9ebd 6787 69bd
00000080: 60ab 993c 1af8 a13d 5068 6b3c f005 60bd
00000090: 3c05 e43c c0ea b6bb 3e31 e8bc 2810 3c3c
000000a0: 90ce 533c eca9 9fbd 705f a23b f0ee 88bc
000000b0: 2c80 9f3d 4cf9 253d 5c63 55bd 2054 9b3d
000000c0: f0ff d0bb d46c dd3c 70eb 1e3d daeb 8cbd
000000d0: ef69 96bd f69a 9d3d c834 a1bd 58e9 62bd
000000e0: 2f26 7dbd 1483 163d 30b5 8e3d 7697 803d
000000f0: acdd 723d 8011 5ebc 8a5c 243d 9362 8dbd
00000100: 252b 9cbd e88c 93bc f814 c93c cb35 0cbd
00000110: bba9 87bd 6843 5e3d 5d03 a4bd f43b a33d
00000120: 5f83 84bd 0f66 69bd 5876 1b3d 88de f73c
00000130: 8c4c 31bd a6d4 843d 168e 6ebd b4c0 bd3c
00000140: f66e 253d 3461 fbbc 505f 5e3d f7b2 42bd
00000150: ec49 4c3d acca 893d d2d8 953d 28e9 853d
00000160: 1ca9 9d3d 08bc c13c 8088 b63b f69f 1f3d
00000170: ee15 81bd e060 ee3b 80c1 0cba 173a 69bd
00000180: c07f 89ba f430 743d 94fe 0e3d b20e 9b3d
00000190: 017f a1bd 68ee d53c 50c4 43bc 803a 633a
000001a0: 98b9 503d 001a f13b 68d9 e7bc c6ab 973d
000001b0: b675 993d 70ab f73c e863 04bd 00dc fdb9
000001c0: d350 20bd 54d6 313d 1a22 9e3d 40bc 6cbb
000001d0: f0ef 8f3b 0694 143d 0caa cb3c a638 8b3d
000001e0: f0f1 4e3c 0c4b 883d 8ca6 993d d465 b6bc
000001f0: 40ff 823d 00b4 03bc 0026 02bd 3438 8bbc
00000200: b2be 003d 8261 0e3d 101c 83bb df85 04bd
00000210: 58fd 8f3d d4e2 9e3d 781d 9dbd 1801 66bc
00000220: 4478 a43d 4888 3dbc 7e03 123d d260 a43d
00000230: a6b6 833d 9a4a 203d 6fd1 8ebd da3f 1a3d
00000240: 02f7 883d 7035 c73c 245a 93bc 5649 2f3d
00000250: 90bf d4bb 6adf 903d f002 873d 64c9 32bd
00000260: b4c1 373d 2d44 6abd a0ce fe3b 6dbc a3bd
00000270: 9044 d2bc 30d1 433c d656 50bd abaa 85bd
00000280: 8768 03bd 8489 923c f813 843d 2896 3e3d
00000290: ecb5 f23c 5ca6 703d 1869 6ebd f6ef 80bd
000002a0: f8bd f53c a4c3 9f3d 20c3 58bc 9250 93bd
000002b0: 6658 953d 2b44 32bd 2fbc 91bd 9a9f 8fbd
000002c0: 8cc2 38bd d0f6 8b3d c0c8 9e3d d75b 5bbd
000002d0: ca85 1f3d 887b 603c 5c30 733d 34e5 75bd
000002e0: f2da 8a3d 3c23 fd3c 2c38 91bd d80b 2e3d
000002f0: 9836 92bd bc6b dc3c 47e4 18bd be1f b2bc
00000300: 74c4 433d 1a26 98bd d0b4 283d 80c2 3fbd
00000310: 7678 46bd e8a4 7d3d 6117 10bd a0aa 2bbd
00000320: 9854 7b3c f017 bdbc 7d45 68bd a416 103d
00000330: 2866 353d 3668 a53d fce2 873d 081b a93c
00000340: 5849 953c fafb 10bd 8f06 30bd 4044 0ebd
00000350: fa0a 033d 18b1 c73c 98a7 943d c08a a33d
00000360: f900 25bd 60e8 2f3c 7f53 24bd e0bb 083c
00000370: 6623 d3bc 3816 6fbd 40d0 8f3a b8eb e43c
00000380: 0c1a 85bd f93f 17bd 13ce 81bd 1493 a03c
00000390: d254 9b3d 3094 99bb 081e 5cbd 3c3e babc
000003a0: 1005 cd3b 484c 0bbc 0c5f f7bc 1003 983d
000003b0: 8634 93bd 4059 19bd 0130 a7bd c07e 953d
000003c0: e0ae 993c f981 22bd 00ed aebb 9003 1f3d
000003d0: 2fa7 a0bd 7863 9cbc bcbb 93bc e698 96bd
000003e0: 3029 233d 5463 7a3d b60b 103d 1811 5a3c
000003f0: fc07 263d 8c8b a0bd 5417 d03c d80a 3b3d

bias f4 [16]
-0.077452034 -0.07641663 -0.023030583 0.024280049 -0.07355822 -0.023210816 0.068858445 0.06627588
-0.03773903 -0.067647204 -0.05394377 -0.066962644 0.039725102 0.071233034 -0.027761422 0.045454323
00000000: 2c9f 9ebd 5280 9cbd a2aa bcbc f4e6 c63c
00000010: b1a5 96bd 9c24 bebc a805 8d3d a6bb 873d
00000020: 3e94 1abd 9e8a 8abd 24f4 5cbd b623 89bd
00000030: cab6 223d a0e2 913d ec6b e3bc 502e 3a3d

weight f4 [120, 256]
0.036190405 -0.053609982 -0.014499873 0.008455083 0.058985755 0.059225023 -0.058183953 0.015959568
0.053261682 -0.026858017 -0.056991987 -0.012339205 0.060652837 -0.048281133 0.0276099 0.035167113
-0.0563334 0.057747126 0.009728201 0.0003649816 0.008429922 -0.037000045 -0.036984347 -0.06002056
-0.04028912 -0.030924164 -0.01652348 -0.05930946 -0.06230373 -0.037365578 -0.033717573 -0.006985195
-0.05326169 0.0585744 0.03306844 -0.02864194 0.041985773 0.04388172 -0.03927666 -0.057249203
0.022943772 0.026671588 -0.027517095 -0.027872324 -0.013910793 0.02948264 -0.008599527 0.02269838
0.027408235 -0.001281321 0.057829812 0.0045579895 0.046493582 -0.0067527816 0.019458577 -0.0068836883
-0.040649205 -0.013259046 -0.011769369 0.03309434 -0.008441605 0.018815368 0.020845123 0.042223714
0.053429447 -0.045742452 0.046657726 0.027409203 -0.018699192 -0.04012227 -0.04971455 0.04744935
0.055252902 0.05687017 -0.033744626 0.023662813 -0.05274622 -0.045471907 0.010642029 -0.0029356256
0.022353947 0.01772064 0.052757353 0.054085895 0.023716472 0.03637562 0.018987946 0.051222213
0.05651571 0.010644004 -0.017705217 0.019187108 0.005704798 -0.048699863 -0.034659497 -0.05990061
0.040518805 -0.061057605 0.05903604 0.019478299 -0.055382654 0.021696575 0.0063203797 -0.058160663
-0.0017278269 0.057098128 0.03191913 0.052068025 -0.019820407 -0.014876738 -0.00010880083 -0.0024446622
0.057521805 -0.009628803 -0.028330065 -0.052962653 0.027734235 0.011366062 -0.047442883 -0.026887216
-0.001437813 -0.060856283 0.049939044 -0.036399484 0.020425476 0.0037719905 0.0572168 0.045223974
0.059700057 -0.04590953 0.028294139 0.03041783 0.034392685 -0.0051223338 0.052409776 -0.029292203
-0.04476493 -0.02534037 -0.008866459 0.01340986 -0.038032576 -0.010750264 -0.0075299963 0.009977467
0.045891598 0.047311656 -0.034506895 -0.025011703 -0.001457043 0.024065621 -0.03896849 0.04987037
0.056697868 0.059873253 0.011822104 0.0559242 0.034893855 -0.025028788 0.047580615 -0.040496945
-0.056760617 -0.017091937 0.019034803 -0.05284994 0.057503223 0.02684106 0.018434577 -0.030165978
-0.05937835 -0.029478446 0.057008147 -0.0116588175 -0.028664716 0.01319126 0.02673965 0.00042068958
0.017600872 -0.043571293 0.013461046 0.02167967 -0.009905383 -0.036373205 0.06059079 -0.043967664
0.006294489 -0.048327588 -0.057962783 -0.031620212 0.001018934 -0.0008516982 0.025721006 -0.013591006
0.036464445 -0.012612857 0.060720056 0.045023814 -0.057746112 -0.047241606 -0.007328525 -0.057541788
0.013504766 0.0031127408 0.0069009364 -0.0370932 -0.024186015 -0.008970566 0.028721012 0.046046592
0.008642331 0.035584524 -0.039930746 0.0124819055 -0.0012779534 -0.027662292 -0.058298282 0.00833676
-0.011621878 0.0069512054 -0.04873147 -0.0069022775 0.05005809 0.0024857223 0.041277215 0.037250467
0.031197034 0.034197114 -0.016591787 0.05348351 0.0029685497 0.050877683 -0.04882039 0.0053426772
0.0474623 -0.023482047 0.032562234 0.019343913 -0.0352457 -0.025914207 0.04994064 -0.007028438
0.057716116 -0.039638743 0.02540771 -0.031116985 -0.017522655 -0.00081670284 0.05874306 0.042971946
-0.015613772 0.052101903 -0.018488012 -0.030051157 0.020470746 -0.0330941 0.040438615 0.061863847
00000000: 643c 143d 2496 5bbd e090 6dbc 3087 0a3c
00000010: 0c9b 713d f095 723d 4c52 6ebd a4bd 823c
00000020: ec28 5a3d 5805 dcbc 6e70 69bd 602a 4abc
00000030: 1c6f 783d 70c2 45bd 282e e23c 640b 103d
00000040: dabd 66bd 4088 6c3d 0863 1f3c 005b bf39
00000050: a81d 0a3c 5c8d 17bd e67c 17bd 1ed8 75bd
00000060: 3406 25bd ac54 fdbc 405c 87bc 7aee 72bd
00000070: 3232 7fbd a60c 19bd 701b 0abd 10e4 e4bb
00000080: ee28 5abd b6eb 6f3d c672 073d 80a2 eabc
00000090: 46f9 2b3d 52bd 333d 90e0 20bd 247e 6abd
000000a0: 94f4 bb3c 607e da3c 886b e1bc 8054 e4bc
000000b0: 18ea 63bc 9485 f13c 08e5 0cbc f4f1 b93c
000000c0: 3c87 e03c 00f2 a7ba f4de 6c3d 305b 953b
000000d0: 0e70 3e3d 7046 ddbb 9867 9f3c 9090 e1bb
000000e0: c87f 26bd 783c 59bc 50d4 40bc ee8d 073d
000000f0: a84e 0abc b022 9a3c 64c3 aa3c c6f2 2c3d
00000100: d6d8 5a3d 705c 3bbd 2c1c 3f3d 4489 e03c
00000110: 0c2f 99bc 4057 24bd 7ca1 4bbd 405a 423d
00000120: de50 623d b2f0 683d ce37 0abd 84d8 c13c
00000130: 6c0c 58bd c040 3abd e85b 2e3c a063 40bb
00000140: a01f b73c e02a 913c 1818 583d 2c89 5d3d
00000150: 0c49 c23c 9afe 143d 9c8c 9b3c 62ce 513d
00000160: 047d 673d 3064 2e3c 880a 91bc 482e 9d3c
00000170: 50ef ba3b 8279 47bd 1ef7 0dbd 585a 75bd
00000180: 0cf7 253d 8a17 7abd c6cf 713d f490 9f3c
00000190: ecd8 62bd 04bd b13c 301b cf3b e039 6ebd
000001a0: 4078 e2ba badf 693d a2bd 023d 4845 553d
000001b0: 685e a2bc 90bd 73bc 002c e4b8 a036 20bb
000001c0: fc9b 6b3d 20c2 1dbc 7414 e8bc 5eef 58bd
000001d0: e832 e33c b838 3a3c 7853 42bd 9442 dcbc
000001e0: 0075 bcba 7044 79bd e28c 4c3d a017 15bd
000001f0: 5453 a73c 8033 773b 2a5c 6a3d c63c 393d
00000200: 0c88 743d a20b 3cbd 1cc9 e73c d02e f93c
00000210: 58df 0c3d 40d9 a7bb a2ab 563d 34f6 efbc
00000220: 6e5b 37bd 9c96 cfbc a044 11bc 08b5 5b3c
00000230: 0cc8 1bbd e021 30bc 30be f6bb 8878 233c
00000240: d4f8 3b3d dec9 413d 1a57 0dbd 58e5 ccbc
00000250: 40fa beba 4425 c53c 6c9d 1fbd e044 4c3d
00000260: 063c 683d a83d 753d 80b1 413c c610 653d
00000270: dcec 0e3d 2c09 cdbc e4e3 423d 20e0 25bd
00000280: d27d 68bd 6404 8cbc e0ee 9b3c 2e79 58bd
00000290: 8088 6b3d c8e1 db3c 1c04 973c a41e f7bc
000002a0: b636 73bd c87c f1bc 6081 693d a004 3fbc
000002b0: 44d2 eabc 2820 583c 1c0d db3c 0090 dc39
000002c0: b42f 903c d077 32bd b88b 5c3c 9099 b13c
000002d0: 304a 22bc 12fc 14bd 0c2e 783d 7017 34bd
000002e0: 0042 ce3b 26f3 45bd 626a 6dbd 3284 01bd
000002f0: c08d 853a 8044 5fba dcb4 d23c d0ac 5ebc
00000300: be5b 153d 28a6 4ebc 98b5 783d e46a 383d
00000310: 3087 6cbd 6a80 41bd 2024 f0bb f0b0 6bbd
00000320: 1843 5d3c 20ff 4b3b 4021 e23b 0aef 17bd
00000330: c021 c6bc 48f9 12bc 5448 eb3c 5a9b 3c3d
00000340: 9098 0d3c 14c1 113d 6c8e 23bd e880 4c3c
00000350: 0081 a7ba 089c e2bc 2eca 6ebd e896 083c
00000360: b069 3ebc f0c6 e33b a69a 47bd 802c e2bb
00000370: b609 4d3d 80e7 223b 4c12 293d f293 183d
00000380: ec90 ff3c 4612 0c3d 80eb 87bc 8611 5b3d
00000390: 008c 423b 1e65 503d e4f7 47bd a011 af3b
000003a0: d467 423d 6c5d c0bc fa5f 053d 2077 9e3c
000003b0: cc5d 10bd 084a d4bc 8e8e 4c3d d04e e6bb
000003c0: bc67 6c3d 3c5c 22bd d423 d03c 0ce9 febc
000003d0: ac8b 8fbc 0018 56ba 909c 703d 5a03 303d
000003e0: e8d0 7fbc ce68 553d 2c74 97bc d82d f6bc
000003f0: 44b2 a73c ae8d 07bd f6a2 253d f264 7d3d

bias f4 [120]
0.060854577 0.01928132 -0.024689563 -0.025126167 0.003144987 -0.04551527 5.4575503e-05 -0.034835912
0.01793988 -0.019932002 0.05008191 -0.046992473 -0.044503473 -0.048673026 -0.0063149557 -0.016016215
-0.06084852 0.008642614 -0.032242827 -0.0049573556 -0.047329985 0.0022054762 -0.023596458 -0.057970434
-0.0043709353 0.013387151 0.034035325 0.0041467473 -0.018702947 -0.0056639314 0.02546966 -0.03286884
0.021523729 0.05391574 0.0042299405 -0.05467014 0.03155625 -0.0021536052 0.0074669644 -0.0074882656
0.009940669 0.0445489 -0.023280613 0.017685585 -0.01114209 -0.003059633 0.017423816 -0.05332528
-0.05756055 -0.009419046 0.04113488 0.061832316 -0.041749336 0.0118066445 -0.041355394 -0.020150594
0.030920126 -0.06114605 -0.042456403 -0.021970868 0.03231813 0.059089027 -0.0005924776 -0.028107338
-0.020071872 -0.02490855 0.028999917 -0.045054786 -0.0033696443 0.02403301 0.059136473 -0.0049402043
-0.042219907 0.014709376 -0.008192435 0.044110842 0.021518558 -0.007767752 0.047131993 0.04459694
-0.05401636 -0.020973474 -0.00069981813 0.038370714 0.058003068 -0.018144362 0.053076938 0.030460477
0.053564154 0.017149404 0.007190697 0.007230036 -0.01734732 -0.013658002 -0.023205936 0.011442304
0.011453733 0.008588247 0.007834837 0.0197775 -0.033411264 0.0430379 -0.040161364 -0.028101318
-0.0058295503 -0.023441382 0.0030899644 0.04318256 -0.011198759 0.020873696 -0.05080244 -0.035787016
0.0002335459 -0.044879258 0.054289 -0.013089851 0.05302655 0.0106411055 0.007964991 0.03708951
00000000: a642 793d dcf3 9d3c c441 cabc 64d5 cdbc
00000010: 201c 4e3b 386e 3abd 00e8 6438 1ab0 0ebd
00000020: a8f6 923c 7048 a3bc b022 4d3d 2e7b 40bd
00000030: 4649 36bd 5e5d 47bd b0ed cebb 7034 83bc
00000040: 4c3c 79bd c099 0d3c 0e11 04bd 5071 a2bb
00000050: 16dd 41bd c089 103b 5c4d c1bc 6872 6dbd
00000060: 103a 8fbb c855 5b3c a068 0b3d 70e1 873b
00000070: ec36 99bc 8098 b9bb c0a5 d03c 7aa1 06bd
00000080: 8852 b03c c0d6 5c3d 509b 8a3b cced 5fbd
00000090: 2041 013d 8023 0dbb 70ad f43b 2060 f5bb
000000a0: 30de 223c e878 363d fcb6 bebc 5ce1 903c
000000b0: 508d 36bc 2084 48bb 64bc 8e3c 9c6b 5abd
000000c0: 9cc4 6bbd 5852 1abc 0c7d 283d e243 7d3d
000000d0: 5a01 2bbd a870 413c 4664 29bd dc12 a5bc
000000e0: 344c fd3c 4874 7abd c4e6 2dbd 40fc b3bc
000000f0: 0460 043d 5607 723d 8050 1bba 5c41 e6bc
00000100: c46d a4bc 040d ccbc 3c91 ed3c 5e8b 38bd
00000110: 40d5 5cbb e0e0 c43c 1639 723d 70e1 a1bb
00000120: c8ee 2cbd 98ff 703c 9039 06bc 92ad 343d
00000130: b047 b03c a088 febb 7a0d 413d 48ab 363d
00000140: 4240 5dbd 90d0 abbc 0074 37ba 9c2a 1d3d
00000150: a094 6d3d 7ca3 94bc 3467 593d 4088 f93c
00000160: 1666 5b3d e87c 8c3c f09f eb3b f0e9 ec3b
00000170: f81b 8ebc d0c5 5fbc 601a bebc 8078 3b3c
00000180: 70a8 3b3c b8b5 0c3c b05d 003c 6c04 a23c
00000190: 40da 08bd 8248 303d 3e80 24bd bc34 e6bc
000001a0: d005 bfbb 2408 c0bc 0081 4a3b 32e0 303d
000001b0: 007b 37bc 50ff aa3c 3816 50bd 6895 12bd
000001c0: 00e4 7439 50d3 37bd 245e 5e3d d076 56bc
000001d0: 5e32 593d 0858 2e3c 987f 023c 2ceb 173d

weight f4 [84, 120]
-0.047243502 0.013537794 0.07916851 0.073556796 -0.06349762 -0.0018736199 0.03015051 0.08633205
-0.04690542 0.025944747 -0.03747145 -0.01655855 -0.045441635 0.00070771575 0.054873258 -0.009538636
0.0137716755 -0.06488063 0.09102999 -0.0044197366 0.05069484 -0.04995681 0.06318924 -0.024009913
-0.036031313 0.0063561946 -0.079792306 -0.06311868 0.0278579 0.06202519 0.08344494 0.06299089
-0.08569692 -0.08921782 -0.0758889 0.007460572 0.04977563 0.023737743 0.07660203 -0.039701186
-0.046952736 -0.07413799 -0.021682322 0.0055087134 -0.07279937 -0.052776873 0.08397554 -0.08236884
0.050253034 0.091105804 -0.017913543 0.03230332 0.04742673 -0.013663374 0.042135403 -0.08188069
0.0011277646 0.06459735 -0.029751785 0.09027745 0.09121582 0.054508522 -0.0027542263 0.07184851
-0.07580662 -0.0408667 -0.025850795 -0.04985714 0.08502033 0.045826063 0.032114074 0.08738269
-0.08019945 -0.031411234 -0.02753111 -0.010722332 0.015235916 -0.018848501 -0.085227735 0.062397435
0.050918043 -0.015645333 -0.009287253 -0.049403608 0.0086113885 0.004895702 0.023987435 -0.06759146
0.01833485 -0.06871301 -0.08185229 0.008727156 -0.0687567 0.08165623 0.08306858 -0.07039854
0.04214318 -0.0027987808 0.04330775 0.00071524084 -0.08842538 -0.03374854 -0.07518191 0.027232103
-0.08933409 -0.060212262 0.035529405 0.0002328679 0.06031829 0.0008448437 -0.038902394 -0.075435996
-0.034253348 -0.08642962 0.058787018 -0.007888459 -0.08600684 0.069352806 -0.0494394 0.06703931
0.08657269 0.0053515434 -0.0106454715 -0.08699876 -0.06208498 -0.018521972 -0.031176299 0.030229233
-0.0011071488 -0.07399578 0.0877893 0.010505296 -0.08727368 -2.6278198e-05 0.03569913 -0.05419975
-0.04959317 0.049671233 -0.07423693 -0.017577618 -0.08808062 -0.0036258548 -0.015978403 -0.01553186
-0.024635345 -0.027317323 -0.034206226 0.05072926 0.018281735 -0.09040945 -0.07416258 0.030390836
0.04108581 -0.061078846 0.061444357 0.03774929 0.06970513 -0.053840637 0.08479342 0.059036583
-0.08163587 0.020726934 0.028481618 -0.058043476 -0.044193253 0.0648859 -0.06816661 -0.08014502
-0.0070529953 -0.058927454 -0.0788091 0.02105049 0.062266737 -0.002466552 -0.060328558 -0.068218924
-0.006600432 0.002901651 -0.056521595 -0.08332472 0.0854945 0.00041237473 0.0406719 -0.066050686
0.026961975 0.07647459 0.025558509 -0.05591914 0.07990275 -0.015373655 -0.022507526 -0.03397674
-0.03715814 0.08708337 0.018362194 -0.0010597557 -0.040053193 0.044517756 -0.08433956 0.054203495
0.032626837 0.08343099 0.03656815 0.05377817 -0.056041084 -0.08740906 -0.08311949 0.08712916
0.06536284 0.043536216 0.0018664524 -0.050449166 0.08115472 0.016585387 -0.027839921 0.018282324
-0.027715683 0.05651556 0.08056852 -0.042322047 0.05358374 0.04277189 0.07535979 0.02399081
0.05605741 0.071696 0.025526978 0.05998443 -0.031386238 -0.036287732 0.066164896 0.017228551
-0.06067787 0.026661657 -0.0046639964 0.054735333 0.05532509 -0.08810744 0.0797683 0.060987905
0.002285637 0.02682694 0.020901248 -0.012912497 -0.067128696 -0.07116013 -0.004751906 0.060575247
-0.049157135 -0.0708841 -0.05095974 0.030775137 -0.06907372 0.057757944 0.00042646378 0.040557534
00000000: 6782 41bd a0cd 5d3c 1a23 a23d f2a4 963d
00000010: 0a0b 82bd 4094 f5ba 34fe f63c dcce b03d
00000020: e61f 40bd 148a d43c aa7b 19bd cca5 87bc
00000030: 0221 3abd 0086 393a c8c2 603d f047 1cbc
00000040: 98a2 613c 23e0 84bd ee6d ba3d 70d3 90bb
00000050: 64a5 4f3d 839f 4cbd 5c69 813d 70b0 c4bc
00000060: 9295 13bd a047 d03b 266a a3bd 5e44 81bd
00000070: 4036 e43c 200e 7e3d 2ee5 aa3d 5e01 813d
00000080: de81 afbd d5b7 b6bd a46b 9bbd d077 f43b
00000090: 88e1 4b3d a875 c23c 86e1 9c3d b69d 22bd
000000a0: 8351 40bd a9d5 97bd 209f b1bc 7082 b43b
000000b0: d617 95bd 902c 58bd 5efb ab3d ffb0 a8bd
000000c0: 20d6 4d3d ae95 ba3d 6cbf 92bc 7c50 043d
000000d0: 8842 423d 58dc 5fbc 2c96 2c3d 10b1 a7bd
000000e0: 80d1 933a 9e4b 843d 04ba f3bc 62e3 b83d
000000f0: 5ccf ba3d 5444 5f3d 4080 34bb 5025 933d
00000100: 8040 9bbd d763 27bd 0cc5 d3bc 0037 4cbd
00000110: 241f ae3d 1cb4 3b3d 0c8a 033d b2f5 b23d
00000120: 9c3f a4bd 11a9 00bd ec88 e1bc b8ac 2fbc
00000130: 10a0 793c 2c68 9abc e18b aebd 7494 7f3d
00000140: 708f 503d a42a 80bc 9029 18bc 705b 4abd
00000150: c816 0d3c 206c a03b 4c81 c43c 646d 8abd
00000160: f832 963c 68b9 8cbd 2ca2 a7bd 58fc 0e3c
00000170: 50d0 8cbd 623b a73d dc1f aa3d 1c2d 90bd
00000180: 549e 2c3d c06b 37bb 7863 313d 007f 3b3a
00000190: 5e18 b5bd e93b 0abd f9f8 99bd dc15 df3c
000001a0: cbf4 b6bd 22a1 76bd 4887 113d 002e 7439
000001b0: 5010 773d 8078 5d3a 1e58 1fbd 307e 9abd
000001c0: 3d4d 0cbd 0302 b1bd a8ca 703d 983e 01bc
000001d0: 5b24 b0bd d808 8e3d f880 4abd e84b 893d
000001e0: 064d b13d 005c af3b 586a 2ebc 682c b2bd
000001f0: d24c 7ebd 64bb 97bc 7065 ffbc 4ca3 f73c
00000200: c01d 91ba 198b 97bd e0ca b33d 681e 2c3c
00000210: 8bbc b2bd 0070 dcb7 4039 123d 8f00 5ebd
00000220: 3522 4bbd 1074 4b3d 8809 98bd f0fe 8fbc
00000230: 9d63 b4bd c09f 6dbb 24e5 82bc 5879 7ebc
00000240: 10d0 c9bc 94c8 dfbc d41b 0cbd 7cc9 4f3d
00000250: 94c3 953c 9728 b9bd 8de2 97bd 34f6 f83c
00000260: 9849 283d d02d 7abd 14ad 7b3d 009f 1a3d
00000270: 90c1 8e3d 0088 5cbd 2ca8 ad3d 58d0 713d
00000280: b530 a7bd 88cb a93c 4852 e93c ffbe 6dbd
00000290: fc03 35bd e6e2 843d f09a 8bbd 1223 a4bd
000002a0: d01c e7bb ea5d 71bd aa66 a1bd 1472 ac3c
000002b0: 680b 7f3d e0a5 21bb 141b 77bd 5db6 8bbd
000002c0: 7048 d8bb a029 3e3b 3083 67bd 27a6 aabd
000002d0: be17 af3d 0034 d839 9497 263d 9545 87bd
000002e0: 5cdf dc3c b69e 9c3d 1460 d13c 780b 65bd
000002f0: 0ea4 a33d c8e1 7bbc b461 b8bc 322b 0bbd
00000300: 2233 18bd c458 b23d 506c 963c 80e7 8aba
00000310: d10e 24bd 4058 363d 38ba acbd 7c04 5e3d
00000320: b8a3 053d dedd aa3d 7cc8 153d 8046 5c3d
00000330: 568b 65bd 8503 b3bd 8d3a aabd c670 b23d
00000340: f4dc 853d 0853 323d c0a3 f43a c9a3 4ebd
00000350: 7234 a63d 14de 873c 8c10 e4bc d0c4 953c
00000360: 000c e3bc dc7c 673d 1c01 a53d e259 2dbd
00000370: a07a 5b3d 9431 2f3d 3c56 9a3d 6088 c43c
00000380: 749c 653d 5ad5 923d f41d d13c 3cb2 753d
00000390: db8e 00bd 72a2 14bd 7681 873d e422 8d3c
000003a0: 5c89 78bd 8c69 da3c 70d4 98bb 2832 603d
000003b0: 909c 623d ac71 b4bd 905d a33d 74ce 793d
000003c0: a0ca 153b 2cc4 db3c 1839 ab3c f08e 53bc
000003d0: c57a 89bd 67bc 91bd e0b5 9bbb c01d 783d
000003e0: fe58 49bd af2b 91bd 29bb 50bd 241c fc3c
000003f0: 8676 8dbd 9893 6c3d 0097 df39 a81f 263d

bias f4 [84]
0.017291553 -0.024719246 0.066416204 -0.002686046 -0.069536485 0.06827746 0.016951568 0.07576819
0.080099404 0.058540955 0.023696542 0.06233023 0.055281878 0.04285772 0.048653096 0.03597592
-0.05167117 0.077954635 -0.07123992 0.0135703385 0.022586323 0.034858122 0.06706044 -0.03373114
-0.012544893 -0.047026727 -0.08980688 0.016355865 -0.059094835 -0.049836986 -0.019726008 -0.060812004
0.0006432161 -0.02612909 -0.069765784 -0.06880298 0.047812194 -0.066260666 0.023254178 -0.019053057
-0.024153851 -0.088246904 -0.0053654388 0.038383424 -0.032944568 0.020850733 0.08264986 0.014317304
-0.018357277 0.056472152 0.08746788 -0.024979629 0.03914775 -0.005353555 0.08561282 -0.048703954
-0.028471693 0.0019368157 -0.006036341 0.03880015 0.03794849 0.027059808 -0.041900143 -0.05346678
-0.08049273 -0.037589468 -0.0038780496 -0.03383158 0.040427804 0.009796657 0.0062715635 0.08578721
-0.081025876 0.077403754 -0.06701885 0.006699778 0.08234686 0.06885624 0.012632467 -0.08773355
0.06480092 0.076484576 -0.08890312 0.021687277
00000000: 04a7 8d3c 0480 cabc 3805 883d 6008 30bb
00000010: 2569 8ebd 0ed5 8b3d 04de 8a3c 5a2c 9b3d
00000020: 280b a43d a4c8 6f3d 401f c23c fc4d 7f3d
00000030: 406f 623d 948b 2f3d 7848 473d 7c5b 133d
00000040: 26a5 53bd aea6 9f3d 3ce6 91bd 2056 5e3c
00000050: f406 b93c 64c7 0e3d fc56 893d aa29 0abd
00000060: 1889 4dbc 199f 40bd abec b7bd bcfc 853c
00000070: 6d0d 72bd de21 4cbd 7098 a1bc 0216 79bd
00000080: 809d 283a ac0c d6bc 5de1 8ebd 94e8 8cbd
00000090: b8d6 433d acb3 87bd 8c7f be3c 2815 9cbc
000000a0: 4cde c5bc cbba b4bd 90d0 afbb f037 1d3d
000000b0: e2f0 06bd 28cf aa3c 5444 a93d 2093 6a3c
000000c0: 0062 96bc 584f 673d 5c22 b33d 14a2 ccbc
000000d0: 6459 203d e06c afbb c655 af3d cc7d 47bd
000000e0: 783d e9bc c0dc fd3a 80cc c5bb e8ec 1e3d
000000f0: e06f 1b3d 88ac dd3c 7c9f 2bbd fbff 5abd
00000100: 5fd9 a4bd 6af7 19bd e026 7ebb fc92 0abd
00000110: a097 253d 2882 203c b081 cd3b 34b1 af3d
00000120: e5f0 a5bd dc85 9e3d 2e41 89bd d089 db3b
00000130: 78a5 a83d 8004 8d3d 68f8 4e3c a6ad b3bd
00000140: 58b6 843d f2a3 9c3d d712 b6bd 84a9 b13c

weight f4 [10, 84]
-0.0016082525 -0.0044308826 -0.020692073 -0.09467989 0.037588336 -0.0039634705 -0.046615526 0.081976704
-0.04779337 -0.09110043 0.08217386 -0.07616472 0.10706391 0.013692282 -0.062259246 -0.08120408
-0.029628918 0.00026659667 0.10274438 -0.08471628 0.07525081 0.09387583 -0.032965474 0.038971983
0.078540124 -0.05131383 0.07436559 -0.07639859 -0.09734841 -0.0013234019 -0.03748367 -0.030952126
-0.0027241558 -0.098857 -0.08441057 -0.077506326 0.07423603 -0.043529883 -0.057454795 0.09663694
0.096176974 -0.09306503 -0.012201577 0.0069605783 0.015084036 -0.059783638 -0.074595615 -0.016546808
-0.021296278 0.0012693852 0.09618256 0.10043701 -0.06631115 -0.04411549 -0.08857056 0.1007197
0.09341446 -0.05512084 0.10403111 -0.034664877 0.012559757 -0.07574808 -0.07199153 0.013536543
0.09422731 0.051093586 -0.028235123 -0.03547316 0.02121494 0.0724157 -0.008408375 0.08081796
-0.010295466 0.0781092 -0.07336278 0.0015283003 0.08011993 -0.020518087 0.08087281 -0.073673636
-0.0064744577 -0.10738111 -0.03171418 0.0837842 0.020990424 0.088082515 -0.02503527 0.026273496
0.09703838 0.013277665 0.012940191 -0.0793333 -0.01656346 -0.04288131 -0.071021736 -0.07657803
-0.082887836 0.024186276 0.0780162 -0.10838762 0.02319727 -0.06453459 -0.059242684 0.09335262
0.008243412 0.07497621 0.051355533 -0.00858853 -0.068329796 -0.03285777 0.018412761 -0.016924918
-0.06432617 -0.10165343 -0.069717914 -0.041866213 -0.043660343 0.019508757 -0.033131443 0.032013692
0.08156823 0.037867554 -0.015974328 0.06295564 -0.060738493 -0.018395215 0.02952724 -0.10110326
-0.025765732 0.037339978 0.05917328 0.0257098 -0.06793401 0.10666121 -0.0052949637 0.03185948
-0.061612796 -0.017360322 -0.047202535 0.09891031 -0.0975111 -0.0617345 -0.052910257 -0.08387292
-0.08077484 -0.10838286 0.10201057 -0.048543487 0.042850293 0.10840962 -0.06385246 -0.06842053
-0.09622422 -0.0020150244 -0.03902459 -0.08011684 -0.06105729 -0.10293864 0.047887526 0.09385664
-0.011835627 0.02838745 -0.0070569813 -0.029638648 0.0036151856 -0.00985796 0.041492574 -0.04045695
-0.021429941 -0.1063046 -0.05016227 0.07778468 0.08545879 0.09475935 -0.028030515 0.02903875
-0.0560539 0.0316901 -0.06206814 -0.00090206414 -0.07430729 -0.0057010725 -0.08571418 0.032767348
0.065097116 0.06838294 -0.048761804 0.08235086 0.040614925 0.071653076 -0.028649949 -0.059479695
0.08715882 0.10682621 -0.080477655 0.0065758377 -0.09335672 -0.03967908 -0.09357674 -0.10541174
0.046197616 0.07568643 0.017687105 0.049901597 -0.020932414 0.041156657 -0.0026878044 -0.019740462
-0.09281324 0.10169617 0.085126825 -0.022206448 -0.07620202 -0.06116159 -0.09065067 -0.011617534
0.09466203 0.053030513 0.019866414 -0.018834129 -0.0240563 0.021898232 -0.018994235 0.09799246
0.047967695 -0.031839035 0.0010868609 0.084920414 -0.09921837 -0.07440348 0.034862302 0.016540237
-0.014362834 -0.006268546 0.10377697 -0.056546725 -0.047958232 0.1081085 -0.053312533 0.055016153
0.013265334 0.005513139 -0.041465394 0.08740706 0.108645104 -0.06661322 -0.019418895 -0.0961092
-0.012230128 -0.06370422 -0.08777444 0.041132785 0.046854995 -0.022611737 0.047806345 -0.081719294
00000000: 00cc d2ba f030 91bb 6c82 a9bc 88e7 c1bd
00000010: 3af6 193d 00e0 81bb ecef 3ebd 67e3 a73d
00000020: fbc2 43bd dd92 babd c54a a83d 40fc 9bbd
00000030: 5344 db3d 9855 603c 8d03 7fbd 534e a6bd
00000040: 58b8 f2bc 00c6 8b39 a56b d23d bb7f adbd
00000050: 191d 9a3d f941 c03d ce06 07bd 16a1 1f3d
00000060: a5d9 a03d 732e 52bd fd4c 983d dd76 9cbd
00000070: 9a5e c7bd 0076 adba 7a88 19bd 508f fdbc
00000080: c087 32bb 8a75 cabd 73df acbd a3bb 9ebd
00000090: 0f09 983d 644c 32bd b855 6bbd 97e9 c53d
000000a0: 6ff8 c43d e198 bebd 20e9 47bc 9015 e43b
000000b0: 0823 773c b0df 74bd 96c5 98bd 2c8d 87bc
000000c0: 8875 aebc 8061 a63a 5dfb c43d ebb1 cd3d
000000d0: 24ce 87bd 72b2 34bd 7b64 b5bd 2146 ce3d
000000e0: 1550 bf3d 64c6 61bd 430e d53d c2fc 0dbd
000000f0: 70c7 4d3c cf21 9bbd 4c70 93bd 60c8 5d3c
00000100: 3ffa c03d 8247 513d 584d e7bc 4e4c 11bd
00000110: f4ca ad3c af4e 943d 48c3 09bc e383 a53d
00000120: 50ae 28bc b7f7 9f3d 3a3f 96bd 4051 c83a
00000130: eb15 a43d 8c15 a8bc a5a0 a53d 34e2 96bd
00000140: b027 d4bb a1ea dbbd bae6 01bd 0d97 ab3d
00000150: 1cf4 ab3c 9b64 b43d c416 cdbc 843b d73c
00000160: 0fbc c63d 908a 593c 1803 543c 7f79 a2bd
00000170: 18b0 87bc 50a4 2fbd d873 91bd f1d4 9cbd
00000180: 19c1 a9bd 4c22 c63c f5c6 9f3d 54fa ddbd
00000190: 3408 be3c b62a 84bd 75a8 72bd a92f bf3d
000001a0: 600f 073c 218d 993d 2e5a 523d e8b6 0cbc
000001b0: 7ef0 8bbd de95 06bd 5cd6 963c 20a6 8abc
000001c0: 70bd 83bd ac2f d0bd 44c8 8ebd e87b 2bbd
000001d0: 30d5 32bd d4d0 9f3c d6b4 07bd ca20 033d
000001e0: 3f0d a73d 021b 1b3d 98dc 82bc e3ee 803d
000001f0: edc8 78bd 90b1 96bc 1ce3 f13c 3a0f cfbd
00000200: a812 d3bc cef1 183d ae5f 723d 5c9d d23c
00000210: fc20 8bbd 3171 da3d 6081 adbb 167f 023d
00000220: b35d 7cbd 3c37 8ebc 7257 41bd 7d91 ca3d
00000230: e6b3 c7bd 51dd 7cbd 6db8 58bd 91c5 abbd
00000240: 486d a5bd d5f7 ddbd ebea d03d 89d5 46bd
00000250: ca83 2f3d dd05 de3d 14c5 82bd 1020 8cbd
00000260: 3411 c5bd 800e 04bb 40d8 1fbd 4c14 a4bd
00000270: 3517 7abd 7ed1 d2bd b625 443d e937 c03d
00000280: 38ea 41bc cc8c e83c 403e e7bb c0cc f2bc
00000290: c0ec 6c3b 4883 21bc 1ef4 293d 30b6 25bd
000002a0: d88d afbc 3ab6 d9bd f476 4dbd 934d 9f3d
000002b0: 0505 af3d 3111 c23d 40a0 e5bc ace2 ed3c
000002c0: c698 65bd 7acd 013d 293b 7ebd 8078 6cba
000002d0: 6c2e 98bd 10d0 babb ea8a afbd 0e37 063d
000002e0: a351 853d 5b0c 8c3d 75ba 47bd 91a7 a83d
000002f0: d65b 263d d9be 923d 4cb3 eabc fba0 73bd
00000300: 5380 b23d b3c7 da3d 78d1 a4bd 207a d73b
00000310: cf31 bfbd 8886 22bd 29a5 bfbd 1ce2 d7bd
00000320: b639 3d3d 7d01 9b3d 8ce4 903c 9e65 4c3d
00000330: 747a abbc e293 283d e025 30bb c0b6 a1bc
00000340: de14 bebd 1546 d03d f956 ae3d 4cea b5bc
00000350: ce0f 9cbd 9384 7abd 0fa7 b9bd 7857 3ebc
00000360: 2bde c13d 8636 593d e4be a23c 084a 9abc
00000370: b811 c5bc ec63 b33c cc99 9bbc 45b0 c83d
00000380: c679 443d a669 02bd 0075 8e3a c1ea ad3d
00000390: 0033 cbbd da60 98bd c6cb 0e3d 647f 873c
000003a0: 1852 6bbc 6068 cdbb 0589 d43d 8a9d 67bd
000003b0: da6f 44bd fd67 dd3d 3e5e 5abd 9e58 613d
000003c0: d856 593c 90a7 b43b 9ed7 29bd 7902 b33d
000003d0: 5381 de3d 836c 88bd 6014 9fbc e6d4 c4bd
000003e0: e060 48bc 5c77 82bd 16c3 b3bd da7a 283d
000003f0: 06eb 3f3d 403c b9bc 96d0 433d 725c a7bd

bias f4 [10]
0.0485953 0.062480904 0.06692464 -0.079270296 -0.06517718 0.107500665 -0.10731016 -0.02572482
-0.0011176988 0.04411801
00000000: de0b 473d faeb 7f3d c90f 893d 7758 a2bd
00000010: 9d7b 85bd 4f29 dc3d 6ec5 dbbd dcbc d2bc
00000020: c07f 92ba 16b5 343d
