rust/mnist_cpu.pt (torch, 189934 bytes, 10 tensors)

weight f4 [6, 1, 5, 5]
00000000: 3288 3fbe 207e 28be 1251 993d cc59 6fbd
00000010: 40e5 0abb cab4 f63d 4ff9 093e 0428 713d
00000020: 2c31 0abd 85e7 16be 49b1 0c3e 502a 173c
00000030: e02e edbd e2ec 05be cb6b 0b3e 0aa5 c9bd
00000040: 4d35 0d3e 3a9b 98bd 503c d2bd 6293 e03d
00000050: 907c e5bd da25 e93d b24f be3d 28d8 64bd
00000060: 00d0 9f38 808b f0bc 7463 18bd 0dfa b7bd
00000070: c66a 963d 5a5f 2cbe bd7b d2bd 1a56 ebbd
00000080: ec0a 233d 818a 383e 825b 883d 402e f33c
00000090: 1067 d7bd 7c57 623d 8d3f 1fbe d9b7 4a3e
000000a0: 52ae 38be bbe5 113e 5bd6 173e 7f41 3e3e
000000b0: 5681 df3d 3db8 c4bd ac0d 6bbd 8110 2e3e
000000c0: 607a 45bd 34d6 6f3d 0880 303d 55a8 323e
000000d0: 00ba 4b3d 31ab 0f3e 907c bdbc 0a1c ea3d
000000e0: aac5 40be 30e2 d73c 354d 1cbe c2bb 3fbe
000000f0: 606c e3bd 4020 b53b 8006 dabd 3b77 3bbe
00000100: 1ea0 00be 55e5 053e 009d 013a dbcc 11be
00000110: be20 e33d 28df 03be 053f 05be da14 ab3d
00000120: 8085 4a3d 2d6c 46be c1e2 2f3e 2264 b13d
00000130: e704 3abe b4fc 283d 6080 26bd 2637 fa3d
00000140: c37a b5bd 3242 8c3d 40e0 bc3c 56e7 84bd
00000150: 053f 0bbe 7c71 753d 6293 c03d 261a 29be
00000160: 546b 63bd 4808 49bd f89d 3bbe 327c 28be
00000170: c254 fb3d 2b2a 0f3e 20c9 23bd f25e 35be
00000180: 5e2c bb3d 2ebe f73d b462 19bd f9ce 2f3e
00000190: 33cf 103e f0b3 a1bd 734e fdbd b607 e63d
000001a0: 28be 2abd 28c4 4cbd 639e 10be 6bf2 40be
000001b0: 50a7 11bc 7d32 c8bd 1e5c a33d 43b2 c3bd
000001c0: 0d3e c4bd 6aa3 d93d e2de b43d 809b 7fbd
000001d0: c07c ae3b b0bd cebd b04e dbbd f2b4 a43d
000001e0: 874b f5bd 6ada 0fbe b39f 9ebd f45c 1dbd
000001f0: 6c0b 0ebd d0ec 10be 2bbc 3e3e 5f38 203e
00000200: 3fce 373e 0262 2dbe b96e 393e adc6 073e
00000210: 7fd5 1c3e 68a0 8f3c da5d 20be 02a4 9d3d
00000220: 3193 193e 7203 893d e194 3b3e 40e9 fbbd
00000230: 41c0 283e 683c 99bc d910 013e 58a0 06be
00000240: 6cbd 3f3d c513 03be 3361 123e 6aa0 ff3d
00000250: 7e0e f23d 650a 283e
-0.18704298 -0.16454363 0.07486166 -0.058435246 -0.0021193773 0.120462015 0.1347401 0.058876052
-0.0337383 -0.14736755 0.13739504 0.009226397 -0.11581206 -0.13078645 0.13615339 -0.09845932
0.13789864 -0.07451482 -0.1026541 0.10965611 -0.11205399 0.11384173 0.092925444 -0.055870205
7.620454e-05 -0.029363394 -0.03720422 -0.0898324 0.07344584 -0.16833249 -0.102775075 -0.11491032
0.039805338 0.18021585 0.06658079 0.02968514 -0.105177045 0.055259213 -0.15551586 0.19796695
-0.18035248 0.14247791 0.14827864 0.18579672 0.10913341 -0.09605453 -0.057386085 0.16998483
-0.04821241 0.05855389 0.04309085 0.17447026 0.04973793 0.14030148 -0.023130685 0.11431129
-0.18825403 0.026352972 -0.15263827 -0.18723968 -0.11104655 0.005527526 -0.10645771 -0.18307202
-0.1256108 0.13075764 0.00049443543 -0.14238302 0.110902295 -0.12878096 -0.13012321 0.083535865
0.04944372 -0.19377203 0.17176344 0.08661677 -0.18165933 0.04125662 -0.04064977 0.1221755
-0.088613056 0.06848563 0.02305615 -0.06489436 -0.13598259 0.05992268 0.09403111 -0.16513881
-0.055522278 -0.049080163 -0.18321979 -0.16453627 0.12272026 0.1398093 -0.03998673 -0.17712
0.09139322 0.12096821 -0.037447646 0.17168798 0.1414154 -0.078956485 -0.123684786 0.112319395
-0.041685253 -0.049991757 -0.1412292 -0.18842475 -0.008889988 -0.09775255 0.07976554 -0.09555485
-0.09582148 0.10626872 0.08831574 -0.062404156 0.00532493 -0.10094774 -0.10708368 0.08042325
-0.11977296 -0.14048162 -0.07745304 -0.038418725 -0.03467886 -0.14152837 0.18626468 0.15646504
0.1794977 -0.16931918 0.18108644 0.13259383 0.15315817 0.017532542 -0.15660802 0.07697298
0.14997555 0.0669011 0.18318512 -0.12300348 0.16479589 -0.018705562 0.12604083 -0.13147104
0.046811506 -0.1280051 0.14294891 0.124817684 0.118191704 0.16410215

bias f4 [6]
00000000: 4e1c 8a3d 0a8a aabd 58cf 52bd 38d5 2abe
00000010: a677 09be fb3b 4a3e
0.0674368 -0.0832711 -0.05146727 -0.16682899 -0.13424549 0.19749443

weight f4 [16, 6, 5, 5]
00000000: ac2d 77bd 211e 6bbd 02e3 8f3d e8fd a0bd
00000010: 5644 75bd 6849 053c e9e2 a2bd 9eca 75bd
00000020: fcd7 673d 14aa 92bd 912c 9fbd 142b 92bd
00000030: e0f8 82bc 8ae8 00bd 28f1 343d 48e3 373c
00000040: 5240 a63d e08a 83bc 4d2f 5bbd d626 8b3d
00000050: 925e 823d 10b9 eb3c 9c53 c43c 2efd 9abd
00000060: c0a5 37bc e66c 0e3d 90c3 22bc 34c4 8e3d
00000070: 863e 0e3d c020 323d da83 c6bc 7caf 9cbd
00000080: 3cc9 443d b2d7 95bd f8fa 15bc f84b bbbc
00000090: 3085 e23c 1b4b 94bd 4a6c 5fbd 207c 9c3c
000000a0: 788a 883d b044 02bc 69c8 97bd bd38 99bd
000000b0: 6470 66bd 40bb 2ebb c0d6 993d 1c41 94bd
000000c0: 8006 68bb 1042 373d 7085 c4bb 28c6 a63c
000000d0: d267 9ebd b4dc 80bd 0070 9337 6c82 8a3c
000000e0: 456c a2bd 7458 383d 28be b33c 9ce6 023d
000000f0: d043 6bbc 7c37 573d a083 113c 7048 1c3d
00000100: 605c 3c3b 4448 473d 54e3 b53c 0031 cd39
00000110: 02d1 2b3d a0af e23c 9013 cb3b 6420 92bd
00000120: 5cad 843c 35bf 38bd 5aaa 92bd 469c 46bd
00000130: 0ceb c53c 1073 e1bb 142a 4e3d f03c 333d
00000140: c9cc 91bd 0cdb 913c 670e 20bd ee95 933d
00000150: 00f0 9eba 540c 6ebd 2e55 173d 24b8 62bd
00000160: 5172 9cbd 6ee4 a2bd 1e78 89bd 5022 f8bb
00000170: 8c9e d6bc 8a01 6dbd 868a 233d edf9 26bd
00000180: 5078 66bd 6439 1f3d 1a72 943d dad3 a33d
00000190: 3695 183d 5383 a5bd 104e 91bb b8b8 4c3d
000001a0: b28f 013d e482 c6bc ead7 d2bc 8413 e43c
000001b0: 1016 6dbd 0cb5 333d 8c76 99bc c081 523b
000001c0: 9ca2 8a3d e0a2 6cbc 8030 3abc 083e 35bd
000001d0: 20b5 0b3d 845d 7e3d baaf 863d 6087 9cbc
000001e0: 400b f8ba c063 01bb 48df 94bd 5e26 213d
000001f0: fbae 4ebd 56f6 bfbc c833 583d 0071 be3b
00000200: 14a5 8c3d c1cb 8ebd faf6 803d 9464 f93c
00000210: 2999 64bd bc54 8cbd 104e 98bc 4cfc 373d
00000220: 384c 053d 4244 fdbc d863 3a3d e0e8 0dbc
00000230: f477 efbc d4fd f3bc 07cc a2bd 7e4d 03bd
00000240: 3429 cdbc f5fb 91bd a0e1 b73c c0d1 c1bb
00000250: 4409 073d 2a12 f6bc 2a74 53bd 8451 9b3d
00000260: 2088 fabb aabb 9abd a8a3 b83c 7642 0cbd
00000270: 8ce4 d33c 3eb4 8a3d d0e8 f7bb 6696 c2bc
00000280: 94c4 3a3d 74b4 903d 54b2 85bc 0865 133c
00000290: e0e6 8cbc e47c a73c c057 6b3d 9096 6d3c
000002a0: bbc3 8cbd b092 353d 02ff bbbc 1f0b 91bd
000002b0: ce09 9dbc a885 a63c c29f 73bd 904d 8abc
000002c0: acee 5b3d 004c 64bc d453 723d 609a 22bd
000002d0: 6694 9a3d 48ad 9a3d 6e43 8d3d e023 713d
000002e0: 2508 43bd ac8a eabc 32da 8dbd 0a9f 213d
000002f0: a400 60bd 40de d9bb 50aa db3c 00bb dc39
00000300: d2c1 293d e8e8 8b3d 347d be3c 3865 683d
00000310: 74d5 963d f981 3cbd 6ac6 a13d 2a01 243d
00000320: d000 8ebd f88f 2c3d 10bc 89bd 64d2 9a3d
00000330: 49b7 a4bd 3ad3 98bd 9050 55bc f8ce 41bd
00000340: c0e5 283d bacf 97bd a03f 8c3b 4c86 bc3c
00000350: e076 a6bc 064b 8c3d 8629 033d 60dc 8d3d
00000360: e402 85bd 48d1 4d3d bca2 cd3c 90be 64bd
00000370: a01b 47bc 5c1e 403d 11d3 88bd a023 c73c
00000380: 1863 6fbc feee 193d 269e 8bbd 78c4 89bc
00000390: 2867 8c3c 80e1 e1ba 8a26 943d 18b2 7d3d
000003a0: e0c4 833d a0cc 47bb b80a 4fbc 9a62 913d
000003b0: 8eec 863d 4008 f0bc 234a 9cbd e0c2 7c3b
000003c0: 00e1 943d 02b9 8abd 88a8 ff3c 8067 cdbb
000003d0: be93 8a3d 6c96 21bd 9c48 123d 1046 de3c
000003e0: 7091 053d 1cc8 92bd 28b4 d93c b68e 38bd
000003f0: 508c da3b e120 22bd a710 a2bd c90a 19bd
-0.06034629 -0.05740178 0.0702572 -0.07860929 -0.059879623 0.008135177 -0.07953436 -0.060007684
0.056602463 -0.07161346 -0.07772172 -0.07137123 -0.015987813 -0.031471767 0.044175297 0.011223622
0.08117737 -0.016057432 -0.053511906 0.06794517 0.06365694 0.028774768 0.02396565 -0.075678214
-0.0112089515 0.034771822 -0.009934321 0.069710165 0.034727596 0.043488264 -0.024232794 -0.076506585
0.048043475 -0.07316531 -0.009154074 -0.022863373 0.0276514 -0.07240888 -0.054546632 0.019102156
0.06667036 -0.007950947 -0.07411272 -0.07481525 -0.056259528 -0.0026661903 0.075116634 -0.07238981
-0.0035404265 0.044740736 -0.0059973523 0.02035816 -0.07734646 -0.06292096 1.757592e-05 0.016907893
-0.07930807 0.04500623 0.02194126 0.031958207 -0.0143594295 0.05254315 0.0088814795 0.03815502
0.0028741583 0.048652902 0.022203125 0.00039137155 0.041947372 0.027671635 0.0061974004 -0.07135084
0.016195945 -0.045104224 -0.07161398 -0.048488878 0.02415993 -0.0068801716 0.050333098 0.043759286
-0.07119138 0.017804645 -0.039076235 0.07206331 -0.0012125969 -0.058117226 0.036946468 -0.05535139
-0.076389916 -0.07953726 -0.06712364 -0.0075724497 -0.026198648 -0.057862796 0.039927028 -0.04076569
-0.056267083 0.03887309 0.07248326 0.07999392 0.037251674 -0.08081689 -0.0044343546 0.04998085
0.03163118 -0.024232335 -0.025737721 0.027841337 -0.05788237 0.04387383 -0.018733285 0.0032120794
0.067692965 -0.014443129 -0.011364102 -0.04424861 0.03410828 0.062100902 0.06576486 -0.01910752
-0.0018924251 -0.0019743294 -0.0726915 0.03934323 -0.050459843 -0.023432892 0.052783757 0.0058118105
0.06867424 -0.06972457 0.06297107 0.030443467 -0.055810127 -0.06852099 -0.01859191 0.044918343
0.03254339 -0.030916337 0.045505375 -0.008661479 -0.029232003 -0.02978412 -0.079490714 -0.032056324
-0.025044061 -0.07128135 0.022446454 -0.0059148967 0.03296782 -0.030037958 -0.051624455 0.07583907
-0.007645622 -0.07555325 0.022538975 -0.03424307 0.025865816 0.0677266 -0.007565595 -0.023753356
0.045597628 0.07065669 -0.016320385 0.008996256 -0.017199934 0.020445295 0.05745673 0.014501229
-0.0687327 0.044329345 -0.022948746 -0.07082199 -0.019169714 0.020327404 -0.05947853 -0.016882688
0.053694412 -0.013934135 0.059161976 -0.039698005 0.07547836 0.07552582 0.06897627 0.058872104
-0.04761519 -0.028630577 -0.06926383 0.039458312 -0.05468811 -0.0066488087 0.02681461 0.00042100996
0.041444607 0.06831533 0.02325306 0.056737155 0.07364932 -0.04602239 0.078991726 0.040040173
-0.06933749 0.042129487 -0.06725323 0.0755966 -0.08042771 -0.07462163 -0.013019696 -0.04731652
0.04123473 -0.074126676 0.0042800456 0.023013256 -0.020320356 0.06850247 0.03202202 0.06926799
-0.06494692 0.050248414 0.025102012 -0.055845797 -0.012152582 0.046903953 -0.06680883 0.02430898
-0.014611028 0.037581436 -0.06817274 -0.016817316 0.017139032 -0.0017233342 0.07233913 0.06193742
0.06434035 -0.0030486956 -0.012636833 0.07098885 0.06588088 -0.029300809 -0.07631328 0.0038568303
0.07269478 -0.06773569 0.031208292 -0.0062684417 0.06766461 -0.039450094 0.035713777 0.027133018
0.032609403 -0.07167074 0.026575163 -0.045057975 0.0066695586 -0.039582137 -0.079133324 -0.0373638

bias f4 [16]
00000000: 048f 113d b119 a0bd 8609 2c3d f65d 9e3d
00000010: 68c8 7a3d 160e 9cbd 98f5 b93c fcbe eb3c
00000020: 0040 b1bc 5873 183d 685e 1d3c e434 a8bc
00000030: ae96 e9bc 103d 1abd 9a7f a5bc 6ca7 813d
0.03553678 -0.078174 0.04200127 0.077327654 0.06122628 -0.07619874 0.022700116 0.028777592
-0.021636963 0.037219375 0.009605028 -0.020533033 -0.028514232 -0.03765589 -0.020202447 0.06330761

weight f4 [120, 256]
00000000: 38a6 debc 207e 943b c0e2 963b 8a07 67bd
00000010: 001b 513a f080 813b 3401 c63c 0016 043b
00000020: 4075 223d 22b5 46bd 440f 383d 868c 5dbd
00000030: a236 3abd c07e 983a e8a2 b4bc 5867 9f3c
00000040: 80e1 143d ba45 233d e02f 0f3d ee82 05bd
00000050: c80a 21bc 68c9 033c 10b1 0a3d b45f 913c
00000060: 0600 5abd ec07 a0bc 82c6 373d 4e07 18bd
00000070: 3cf7 003d e8a8 2c3d 4ef5 17bd 60ef e03b
00000080: 50be 443d 8083 453a f0f4 dbbb 88da 753c
00000090: ec85 26bd f0fc 3fbd 606a 7d3c acba 6abd
000000a0: a407 6b3d f672 64bd 3c29 9e3c a017 e13b
000000b0: 782c 10bc f076 743c 54e4 7abd 9476 453d
000000c0: 6881 45bd 8e2c 7cbd 0a42 2dbd 1844 10bd
000000d0: defe 473d 40fa 49bb 500a 56bd 085a b5bc
000000e0: 2c74 27bd cc21 51bd 4cbe 2fbd 68fb f23c
000000f0: 5abe 77bd aca5 a13c 3a2d 1fbd 3e3e 0d3d
00000100: 1088 a43b 849b 79bd 24af 4a3d dea2 5abd
00000110: 0617 32bd 0a93 04bd fc67 d83c 9088 883c
00000120: c09c 09bc f088 3dbd 3499 55bd 8084 5f3a
00000130: a037 cabc 50f3 29bc 1ef4 52bd 2060 68bd
00000140: 440e 243d 48ba d8bc c89e 0dbc 4219 6b3d
00000150: 4045 9aba 9883 22bd 860c 3abd 20e5 bc3c
00000160: 5807 5b3c d4cc 333d 80ed f0ba 1c96 3bbd
00000170: 6008 94bc e878 7c3c 38cc 61bd 9200 0f3d
00000180: cc6a 013d 26ad 30bd 9a68 6b3d b8bf ee3c
00000190: a8ab 593d 00e2 79b9 004d 783b d014 693c
000001a0: eee3 23bd ec70 bcbc 3081 12bc b6f8 0abd
000001b0: 221a 0d3d 5811 1dbd 604f abbb 0874 56bc
000001c0: 4819 6b3d 207d 7a3b aef2 183d 480c e6bc
000001d0: b8de 01bd f8d5 3b3d 883f 40bd 1cb0 89bc
000001e0: 20e2 16bb 0832 5cbc 46a4 7fbd 2054 03bb
000001f0: bc5a 123d 9c6b 70bd 0c59 2c3d 70e4 1bbd
00000200: 08b6 233c 104c 0a3d e441 de3c 4a61 29bd
00000210: 5ed1 5cbd f024 233d 88a4 ad3c d861 6bbc
00000220: 1412 54bd 564a 483d 002f 31ba e4ee e4bc
00000230: 6443 7d3d 5cb5 f33c 6029 9dbc f8a4 c13c
00000240: 0099 203c 38f5 083c 1843 5abc c0e6 c2ba
00000250: 102b a33c 7009 b8bc 0842 66bc 6c88 963c
00000260: 40f6 233b bc6c a8bc 72b2 5dbd 8a95 04bd
00000270: 086a 133c 6e17 463d ec87 4c3d acc3 cebc
00000280: d0b6 913c 80ed fa3b 3e2a 3f3d e617 33bd
00000290: b882 683d 9c6b 503d 9cb6 a93c 606f 5d3c
000002a0: 90d4 eb3b 90ae 563d 747a 6a3d 5ce5 eabc
000002b0: 120c 1c3d 5cb9 65bd 50d2 cb3c 10a2 e6bb
000002c0: bef1 7f3d c8ce 07bc 04fe 473d 0cdd 223d
000002d0: c88e 163c 8e2a 723d 586f 67bd 90ec 71bc
000002e0: 8ad8 1ebd 1837 3e3c 8015 d2bb 101c c43c
000002f0: c4cf 44bd 5887 03bd a0db babb 5081 94bc
00000300: 8c9a febc c2d3 193d ec22 73bd 087a 553c
00000310: 0ac4 5cbd 245a af3c 1088 c5bc 2a3b 1c3d
00000320: 68e4 3cbc 14ee 5fbd 7e56 093d 7c7e 44bd
00000330: 8a57 22bd c24f 2cbd a449 943c 8811 b03c
00000340: ac32 cdbc 043a 02bd 320b 0bbd 941a 9cbc
00000350: 587e 083c 2090 54bd 00c0 9337 648a d83c
00000360: 7ce8 eabc c06f 3c3d 7aed 63bd 704b b93c
00000370: 84a2 a23c 10a6 a4bc 045c ca3c 5035 613d
00000380: 8838 a7bc 8ab0 253d 184f d83c 9890 73bd
00000390: 2223 07bd 5451 2b3d a0f1 023b ccd0 bfbc
000003a0: fc3b 393d a86d 53bd 9441 ee3c 10cd f63c
000003b0: 183e 26bd 3ecd 58bd 20c4 123c a8a7 6abd
000003c0: c2f1 3dbd ce2c 58bd 922f 42bd 501e d9bb
000003d0: 304b 353c 18a1 ce3c b0de f83c 6274 50bd
000003e0: 3cc1 ecbc b2c6 77bd 8c55 a73c 8012 523a
000003f0: 00da 083b d80f 693d 56c3 7a3d b0f0 2dbc
-0.027178869 0.004531637 0.0046046674 -0.056403674 0.00079767406 0.003952138 0.024170496 0.0020154715
0.0396626 -0.048512585 0.044936433 -0.05408909 -0.04546226 0.0011634454 -0.022050336 0.019458458
0.036347866 0.03986142 0.034957767 -0.032595567 -0.009829231 0.008043624 0.033860266 0.01774583
-0.05322268 -0.019535027 0.044867046 -0.03711634 0.03148578 0.04215327 -0.037099175 0.006864473
0.04803306 0.00075345486 -0.0067125484 0.015005715 -0.04065506 -0.04687208 0.015467256 -0.05730693
0.057380334 -0.055773698 0.019306771 0.0068692714 -0.008799665 0.014920935 -0.061252907 0.048208788
-0.048219115 -0.06156593 -0.042299308 -0.03522119 0.048827045 -0.0030819327 -0.05225593 -0.022137657
-0.040882275 -0.05105762 -0.04290609 0.029660895 -0.060484268 0.019732319 -0.03886149 0.034483187
0.0050211027 -0.060939327 0.049483433 -0.05337798 -0.043478988 -0.03236679 0.026416771 0.01666668
-0.0083991885 -0.046273172 -0.05214806 0.0008526519 -0.024684727 -0.010372952 -0.05150234 -0.056732297
0.040052667 -0.026456013 -0.008643813 0.057397135 -0.0011769906 -0.03967628 -0.0454221 0.023058474
0.01336845 0.04389651 -0.0018381327 -0.045797452 -0.0180704 0.015409686 -0.0551264 0.034912653
0.03159599 -0.043133877 0.057472803 0.029144153 0.05314222 -0.00023830682 0.0037887692 0.0142261535
-0.040012293 -0.023003064 -0.0089419335 -0.033928595 0.03444875 -0.03834662 -0.005227968 -0.013089187
0.057397157 0.0038221553 0.037340812 -0.028082028 -0.03170654 0.045858353 -0.046935588 -0.016807608
-0.0023022965 -0.013439663 -0.062412523 -0.0020039156 0.035731062 -0.058696374 0.04207711 -0.03805965
0.00999213 0.033763945 0.027131028 -0.041352548 -0.053910606 0.03983015 0.021196619 -0.0143665895
-0.051775053 0.048899017 -0.00067590177 -0.027945943 0.061831847 0.029749565 -0.019184768 0.023638234
0.009802103 0.008359246 -0.01332166 -0.0014869794 0.019917995 -0.022465438 -0.014053829 0.018375598
0.0025018603 -0.020559661 -0.054125257 -0.032369174 0.008997448 0.048362188 0.049934313 -0.025239788
0.017787367 0.0076577067 0.046671145 -0.043723963 0.056765288 0.050883874 0.020716958 0.013515323
0.0071969703 0.05241257 0.057245687 -0.02867382 0.03809745 -0.056084976 0.024880558 -0.0070383623
0.062486403 -0.008289047 0.048826233 0.039761588 0.009189315 0.059122615 -0.05650267 -0.014765874
-0.038780726 0.011609815 -0.0064112544 0.023939162 -0.048049703 -0.032111496 -0.005702451 -0.018128067
-0.031079553 0.037555464 -0.059359476 0.013029583 -0.053897895 0.021405287 -0.024112731 0.03814236
-0.011529066 -0.05467041 0.03352975 -0.047972187 -0.039634265 -0.04206825 0.01810152 0.021492735
-0.025048576 -0.03179361 -0.033946224 -0.019055642 0.008330904 -0.05189526 1.7613173e-05 0.026433177
-0.02867531 0.04600501 -0.055646397 0.02261898 0.019852884 -0.020098716 0.02470208 0.054982483
-0.020412698 0.040451564 0.026404902 -0.059464067 -0.03299249 0.041825607 0.0019980446 -0.023414992
0.04522322 -0.05161825 0.029084004 0.030127078 -0.04058656 -0.05293011 0.008957893 -0.057288796
-0.046373136 -0.052777104 -0.047408648 -0.006625928 0.011065289 0.0252233 0.030379623 -0.05089224
-0.028900735 -0.060492225 0.020426534 0.0008013621 0.0020881891 0.056899875 0.061221443 -0.010616466

bias f4 [120]
00000000: 1877 09bc dc9b b63c 80d3 763b 5e11 2abd
00000010: 5063 ac3c 00aa 163a 7038 b33c 38e3 653d
00000020: 608d 4abd 56c6 3bbd b045 42bd 04cf 833c
00000030: c08d cb3b f06f 323d c006 3a3b a0a5 323b
00000040: 7016 053c 80f6 9a3c 489b 8fbc aa48 61bd
00000050: 0ca2 10bd a8cf 3abc acc6 f53c c095 3d3c
00000060: ea4d 6cbd 4a75 243d d2c2 07bd 4adf 1b3d
00000070: 4cae 82bc 2253 193d 709e 903c 24af 353d
00000080: 3694 643d 6a7a 0dbd a0da 693d 080f 7b3d
00000090: dc10 f8bc 0c63 c13c 2221 50bd 00db 8bb9
000000a0: 006f cd39 7097 273c 4cf4 fe3c 1675 04bd
000000b0: b08d 74bd 0076 533c 80b8 66bb d013 77bc
000000c0: 10dd 3ebd 14c7 f43c a228 09bd ced0 613d
000000d0: 003c c0b8 28da 5cbc 6834 96bc 90c7 05bc
000000e0: 38ff fbbc e4da 993c b6b2 4dbd a416 e13c
000000f0: 9033 ca3b 40d6 a83a 62a4 36bd 7087 f53b
00000100: 726c 6e3d 80eb 7abd c00e 86ba 6cd1 dfbc
00000110: ac3d 6a3d 6056 ea3c 9409 ca3c d019 ce3c
00000120: 0038 14bc 365d 0b3d 40f1 513c 34b4 cebc
00000130: 68d7 043c fc58 7dbd 20ce 083d ba1e 06bd
00000140: 501e a8bb da26 063d 16e0 0bbd 402f c33a
00000150: 182f 1bbd d291 64bd 6e34 3fbd 3462 ae3c
00000160: f0ff a63b ead8 1e3d 6894 40bd 6062 113c
00000170: 30d0 5dbc 40db 44bb c49b 573d 00c0 9f38
00000180: 7045 4bbc 503d 0a3c 74cc 26bd c639 08bd
00000190: 8e64 64bd 08be e6bc d82e d3bc 30e8 b13b
000001a0: 4086 323d 50c3 92bc 284f 06bc 2038 b5bc
000001b0: f2df 54bd d4aa 5d3d 42d3 6a3d fc4f 23bd
000001c0: 84e8 48bd b01d 143c dab1 67bd 48db 753c
000001d0: d417 f7bc 5844 573d a043 2dbd a8fc 76bd
-0.008390211 0.022291116 0.0037662685 -0.04152047 0.02104345 0.0005747378 0.021877497 0.056124896
-0.049451232 -0.045843445 -0.04742974 0.016089924 0.0062119663 0.043563783 0.002838537 0.0027259365
0.008123025 0.018916368 -0.017530099 -0.05500094 -0.03531079 -0.011402048 0.03000196 0.011571348
-0.057691492 0.040150918 -0.03314478 0.038054742 -0.015952252 0.037432797 0.017653674 0.04435648
0.055805407 -0.03454057 0.057093263 0.06129363 -0.030281477 0.0236068 -0.050812848 -0.00026675314
0.00039183348 0.010228977 0.03112235 -0.032338224 -0.059705436 0.012906551 -0.0035205185 -0.015080407
-0.04659754 0.029880084 -0.033486016 0.055130772 -9.166449e-05 -0.013479747 -0.018335536 -0.008165255
-0.030761346 0.018781133 -0.05021926 0.027476616 0.0061706975 0.0012881234 -0.04459036 0.007492952
0.05820889 -0.061259747 -0.0010227785 -0.02732154 0.05718772 0.02860564 0.02466277 0.025158793
-0.009046555 0.03402444 0.012813866 -0.025232412 0.0081079975 -0.06185244 0.0333997 -0.032744147
-0.0051305667 0.032751895 -0.034149252 0.0014891401 -0.03788671 -0.055803128 -0.04668086 0.021287061
0.005096428 0.038781084 -0.04701653 0.008873552 -0.013538405 -0.003003791 0.052638784 7.6174736e-05
-0.012406692 0.00843747 -0.040722325 -0.033258222 -0.05575996 -0.028166786 -0.025779173 0.0054292902
0.043585062 -0.017915398 -0.008197583 -0.022121489 -0.051971383 0.054117993 0.057330377 -0.0398712
-0.04904987 0.009040281 -0.056566097 0.015005894 -0.03016273 0.052555412 -0.04230082 -0.060299546

weight f4 [84, 120]
00000000: 6369 b3bd d270 a8bd 8b18 37bd 7063 6f3c
00000010: 145e 743d a8ec fa3c 849c 393d d099 e13c
00000020: 8c67 0ebd bb96 00bd 028b b4bd 186f 13bc
00000030: e811 68bc a868 7c3c 3470 9d3c 10f4 dbbc
00000040: 34aa c93c 587c 0b3d 1caa 95bd 1470 88bd
00000050: c8df 3d3d e86f 09bc 68ed 573c 1bd1 18bd
00000060: a20f f0bc c007 e6ba 8073 4bba 68bb 6c3d
00000070: 9a7e 8a3d a60b b7bd 28b6 bbbc 0c16 b53d
00000080: 205e 9fbd f062 60bc e8ce 913d 9247 2abd
00000090: c0fe 31bd 8032 f7ba e451 703d 70d3 1dbd
000000a0: 50d6 74bc 88f6 1bbd 1611 0ebd b8b1 783c
000000b0: 78ea 863d 46cf 47bd 642e 9ebd f801 6ebd
000000c0: 601f 693d 0899 e33c d0a5 4fbc 4c8f 61bd
000000d0: 350d b5bd 80b3 14bc 848b a93d f8a4 a53d
000000e0: 746a 393d c868 993c 44ec 4abd d0f0 793c
000000f0: 01a8 86bd fef5 aabd 8030 4dbc b4b7 633d
00000100: 7aa8 953d 46bb 833d e81d 383c 3e9f 00bd
00000110: 64a2 e93c f03b a7bc 50d9 893d f81a 59bd
00000120: 906c a5bd 82a0 acbd 88fb 3e3c 18f8 91bc
00000130: 5059 21bc 3807 5c3d 4cb0 b0bd 1eed 923d
00000140: 022f 32bd 00eb d4bb 90e6 a3bb 04a5 27bd
00000150: e8f7 5fbc acfa 05bd 101f 793d 8844 a9bd
00000160: 3230 40bd ace8 ad3d 50c0 8ebb 45d8 99bd
00000170: 28f4 683c 90bf 8f3b 164b b03d fc51 a03c
00000180: 5055 d63b 7670 78bd 9c35 a33d e1da 08bd
00000190: 23e4 9dbd eb92 00bd 059b b1bd 7426 913d
000001a0: eca4 9ebc 6325 75bd 98fd 76bd 448c d3bc
000001b0: b450 643d ce16 083d 5402 a43d 143e 2c3d
000001c0: 3b7e 46bd 5a06 a5bd 1453 b5bc 32fb b3bd
000001d0: 2e8a ac3d 94e1 963d b0ab ea3c 503f ce3c
000001e0: 685e 673c 009c 21bc 68a1 7d3c 7610 9fbd
000001f0: 904d 86bb 902a 30bd a783 9bbd 3cad 713d
00000200: 63b6 2bbd 9ad9 fcbc 6e34 a0bd 5088 b93c
00000210: 7899 3cbd f0b6 33bd bff4 6abd c070 6b3c
00000220: ac2e b8bd 98bc bb3c 7b13 70bd 8630 8f3d
00000230: 1bb6 3ebd c7ba 5fbd 0464 99bc 10df 363d
00000240: fc85 afbd a235 babd 601b 823d 1a46 8fbd
00000250: e490 ab3d 2ab2 b6bd 2c25 393d b9aa aebd
00000260: 902b 2d3d 18fd 0d3d 2c2d 303d cee8 b33d
00000270: 4bba 99bd 0416 853d daf9 aa3d 7ce8 a83c
00000280: 3d75 6dbd fa5c a3bd aabc 60bd 77e0 57bd
00000290: cc65 b6bc c06c a73b 0035 c0bb d0a5 603c
000002a0: 20f6 58bb d266 8ebd c280 aa3d 862b febc
000002b0: cd03 b2bd f415 aa3d bab2 a3bd e815 b1bd
000002c0: 3c32 563d 73a2 46bd e20b 9f3d 7cc7 bbbc
000002d0: d494 693d c8e8 7fbc 3042 b8bc 968c af3d
000002e0: 481a f63c 78f2 b53d bc72 b9bc 908c 03bd
000002f0: c4c8 ac3c 388c b53d ac2b 43bd 504b 26bd
00000300: c2b9 b33d 0411 d93c 2ac6 943d a58c b5bd
00000310: 54c4 d53c 8001 853d 5458 a53d 4c62 97bc
00000320: aafb 953d 1c95 d0bc b03c ef3b 98c3 b4bd
00000330: eea6 913d 805e 8fbb a305 84bd a0a4 11bb
00000340: ca6f 82bd d080 babc d0f6 b53d 5fba 3abd
00000350: 7048 853b 50b9 813b 3877 e53c eeb7 b63d
00000360: 1a40 b2bd 2889 4dbc 0041 763b 8025 47bb
00000370: a257 b6bd f67b 15bd 0827 093d 1e2d a3bd
00000380: 9690 96bd 8080 e0bc 4486 90bd a026 753d
00000390: 5859 d4bc 2c0f 0b3d 12ec 69bd 7e3c 803d
000003a0: 40f9 463b 7c33 81bc b8ab 863d a579 a2bd
000003b0: d8ad b5bd 3054 afbd 89b3 8cbd 223d 35bd
000003c0: d8ac 373d 2214 95bd f35c 81bd 5003 a13d
000003d0: 5e07 8a3d fb72 84bd e0f6 523d a657 8c3d
000003e0: 20ec c93b b09c aabb 6bb0 9fbd 54f0 bc3c
000003f0: 688e e3bc 90bf ed3c 5e43 36bd 8e5f af3d
-0.08760335 -0.08224644 -0.04470114 0.01461111 0.059660032 0.030630425 0.04531528 0.027539164
-0.03476672 -0.031393748 -0.08815576 -0.008998655 -0.014164425 0.015405811 0.019218542 -0.026849777
0.024617292 0.03405413 -0.073078364 -0.06662002 0.046355993 -0.008388497 0.013179161 -0.037308794
-0.02930433 -0.0017549917 -0.0007761046 0.057795912 0.067624286 -0.08937769 -0.022914007 0.08842096
-0.07781625 -0.013695464 0.07119542 -0.04157216 -0.04345584 -0.0018859655 0.058671847 -0.03853172
-0.014943674 -0.038076907 -0.034684263 0.01517909 0.0658769 -0.048781656 -0.07723692 -0.058107346
0.056914687 0.027782932 -0.01267381 -0.0550683 -0.0884041 -0.009075999 0.082785636 0.08088106
0.045267537 0.018726721 -0.049541727 0.015255168 -0.06575013 -0.083477005 -0.01252377 0.055595115
0.07307525 0.06432204 0.011237599 -0.031401865 0.028519817 -0.020414323 0.06730902 -0.053004235
-0.08077347 -0.08429052 0.011656649 -0.017818496 -0.009847954 0.05371782 -0.08627376 0.07174133
-0.04350186 -0.0064977407 -0.0050018504 -0.040928856 -0.013669945 -0.032709762 0.06082064 -0.082650244
-0.046920963 0.08491644 -0.0043564215 -0.07511953 0.014218368 0.0043868497 0.086080715 0.019570343
0.0065409318 -0.060654126 0.079692096 -0.033411864 -0.07709529 -0.031390112 -0.08672146 0.070874125
-0.01936575 -0.059850108 -0.06030044 -0.02582372 0.055741027 0.033224873 0.080082566 0.04205139
-0.048460227 -0.08057852 -0.022134341 -0.08788146 0.08424793 0.07367244 0.02864632 0.025176674
0.014121629 -0.009863853 0.015480377 -0.077668115 -0.0040986016 -0.04300934 -0.0759347 0.0590031
-0.041921984 -0.03086548 -0.078225 0.022648007 -0.046044797 -0.043875635 -0.057362314 0.014370143
-0.08993277 0.022917077 -0.058612328 0.06991677 -0.046560388 -0.054621484 -0.018724449 0.044646323
-0.08570477 -0.09092261 0.063528776 -0.06995793 0.08377245 -0.08920701 0.045201465 -0.085286565
0.042277873 0.034665197 0.04301183 0.08784638 -0.07506236 0.0649834 0.08348437 0.02061867
-0.057973135 -0.07976718 -0.054867424 -0.0527043 -0.022265337 0.0051093996 -0.005865693 0.013711408
-0.0033105686 -0.06953205 0.0832534 -0.031026613 -0.08692131 0.083049685 -0.07993074 -0.086467564
0.052294 -0.048494767 0.07765938 -0.02292227 0.0570267 -0.015619464 -0.022492498 0.085717365
0.030041829 0.08884138 -0.022637717 -0.032116473 0.021091826 0.08864635 -0.04764907 -0.040599167
0.08775665 0.026497371 0.07264359 -0.088647164 0.026094593 0.06494427 0.08073488 -0.018479489
0.07323392 -0.025461726 0.0073009357 -0.08826369 0.071119174 -0.004375279 -0.064463876 -0.0022223368
-0.06368978 -0.0227665 0.088849664 -0.045587894 0.004067473 0.0039588585 0.02801095 0.089218006
-0.08703633 -0.012544908 0.0037575364 -0.0030387342 -0.089034334 -0.03649517 0.03348449 -0.0796759
-0.07351796 -0.027405024 -0.07056859 0.05985129 -0.025921509 0.033950016 -0.0571099 0.06261538
0.0030360967 -0.01577162 0.065757215 -0.07933358 -0.08871049 -0.08560979 -0.06870181 -0.044247754
0.04484257 -0.07279231 -0.06316557 0.0786196 0.067396864 -0.06467243 0.05150497 0.06852655
0.0061621815 -0.005206667 -0.07797321 0.023063816 -0.027777866 0.029022008 -0.04449784 0.085631475

bias f4 [84]
00000000: 266a b93d 5817 83bd c25c 823d 2ca3 b43d
00000010: 7d94 3ebd f04a 4abd 2ca8 963d 5ed1 9abd
00000020: 43c8 46bd 80d3 a6bd a09d 373d 7827 e7bc
00000030: 69d4 a5bd 62e4 b63d 8b94 afbd 60ca 3b3d
00000040: 320b 2abd 26b7 95bd 8840 63bc 7fdb 6bbd
00000050: 9be1 62bd a0ad 5bbb 90fd 553d 6c86 963c
00000060: 1e2b 903d 0ce7 4e3d 0266 fcbc e8d6 393d
00000070: f8ec 173d 0028 79b8 051c 08bd 2268 82bd
00000080: 669f a6bd 6002 413d 2fac 15bd e0ef 923c
00000090: 0008 b43d 97ac b4bd fe4a af3d c83a 393d
000000a0: 50d7 073d 009e 833d 5cf4 0e3d 2881 213c
000000b0: dc41 3e3d 44a4 3c3d 8083 9f3c 442c 5e3d
000000c0: d039 503d e071 0d3d 5f97 19bd 7083 8f3d
000000d0: 2286 af3d 4fea 29bd a871 2c3d 4cee a3bd
000000e0: 98f8 16bc 6493 4fbd 7405 ac3d 306c 883b
000000f0: d858 7f3d 24f8 a2bc d6de 013d 5cf9 833d
00000100: 9002 d13c 90a1 8dbd 30a7 7a3d 408b c8bc
00000110: a430 24bd 581c 3a3d c0ac 4d3d c5a7 56bd
00000120: 1619 9fbd 5a97 8f3d 44c2 acbc 1071 a13d
00000130: c03e 2cbb 803a 7f3c d404 d2bc 78a3 153d
00000140: 2cd9 3bbd a0f1 86bd f4ad 82bc cc9d 9cbc
0.09053449 -0.06400937 0.063653484 0.08820185 -0.04652833 -0.049387872 0.07356295 -0.07559465
-0.04853083 -0.08145809 0.044828057 -0.028217062 -0.08097155 0.08930279 -0.08573254 0.045847297
-0.041514583 -0.073103234 -0.013870366 -0.057582375 -0.055390935 -0.0033520237 0.05224377 0.018374644
0.07039474 0.050513312 -0.03081036 0.045370966 0.037091225 -5.940348e-05 -0.033229847 -0.06367518
-0.081358716 0.047121406 -0.03654116 0.017936647 0.087905884 -0.088219814 0.085592255 0.045222074
0.033164322 0.064266205 0.034901008 0.009857453 0.046449527 0.046055093 0.019471884 0.054241434
0.050836384 0.034532428 -0.037497874 0.070074916 0.08570506 -0.04148322 0.04210058 -0.08004436
-0.009214543 -0.050677672 0.083994776 0.0041632876 0.062340587 -0.019893713 0.031706654 0.06444046
0.025513917 -0.06915581 0.0611946 -0.024480462 -0.04008545 0.045437187 0.050213575 -0.05240609
-0.07768457 0.0701129 -0.021088727 0.07882893 -0.002628252 0.015577912 -0.025637068 0.03653285
-0.045861408 -0.06589055 -0.015952088 -0.019118212

weight f4 [10, 84]
00000000: 6800 d2bd 09ae 60bd d3a8 9f3d 8a3c 1a3d
00000010: 3ae8 3a3d 0e48 78bd 204e d1bb 35ef 48bd
00000020: 5545 a33d a001 3dbc 9c14 b9bd 57e4 c5bd
00000030: 44a2 7abd 5196 a13d 3eab 60bd da8d c3bd
00000040: 6e29 6a3d ec2f 75bd 592b a03d d4cd cf3c
00000050: 0230 233d 9763 d5bd 6d74 9e3d 572a d43d
00000060: 4866 763c 60e8 55bc 505b 80bd b96b c93d
00000070: 8c7f fb3c b02e 91bd 56c0 213d bc89 dcbd
00000080: 0ef6 033d 2c7f b93c bfcc c23d c64e 5d3d
00000090: f07f b23b 00c9 d03a a4e5 ecbc 015c 56bd
000000a0: a03b 6b3b 1e56 2c3d 2fd3 de3d 00df 89b9
000000b0: 8f8f 90bd bbdf c1bd 7e04 1a3d 0b24 75bd
000000c0: aaec 0abd 68a9 2c3c 0cb7 b9bc c0bf e03b
000000d0: b1f6 b53d cdf6 a2bd 6a24 493d ca46 4d3d
000000e0: 79a6 c63d a034 423c 4c55 debd 64f1 14bd
000000f0: 4607 28bd a2bc 83bd d0be a9bb 4051 f73a
00000100: 8229 393d 8aa5 35bd e902 cc3d c4e4 dc3c
00000110: d448 ef3c 1d6e 7abd 122c a9bd 0d54 b73d
00000120: 2017 1a3c baf0 1c3d 20c8 2d3c ba4f 7ebd
00000130: fbde dbbd d2f6 5b3d b331 4cbd 40dd cdba
00000140: bfef b73d 708a 7fbc c064 c83b 93b2 8cbd
00000150: d433 853c 1e66 83bd eacf 663d 3451 d6bd
00000160: 9d56 863d e333 d2bd 24a1 d13c 63bc babd
00000170: 3f3f 843d 0d3c 893d d8e4 acbd a028 57bb
00000180: 6b01 d23d d3d3 8fbd ce26 343d 04cb ea3c
00000190: c7aa c03d e13e c7bd 0331 bc3d dcbb b0bc
000001a0: b5f9 75bd 1d80 ac3d 3067 21bd 35e8 a7bd
000001b0: 203a b5bd bb99 dc3d 8fa2 78bd e075 583c
000001c0: 4e83 aebd 4157 69bd 01fe d43d ce4b d3bd
000001d0: a07d f33b 32d2 a9bd e4f2 d5bc 241e 95bd
000001e0: 7e7a 2f3d 8153 a43d 107e febb 6e5a b7bd
000001f0: e63e dfbd 0085 c9bd bfa0 bdbd e373 bc3d
00000200: 1898 b1bd 1485 1abd 6b97 813d 2549 c73d
00000210: b9a9 af3d 923c 26bd 84ed ca3c 6cf4 58bd
00000220: 68e0 8fbd 5e49 4bbd 22f3 4c3d 2604 d0bd
00000230: e62c a3bd 5f76 b93d f1e3 aa3d a010 78bb
00000240: 43f5 d93d cc9f dabd 9607 21bd d800 8abd
00000250: 8aa2 513d 3934 5ebd fdcc 9c3d a959 a83d
00000260: 9e63 603d c42c afbc e753 b63d 02c2 653d
00000270: 2557 df3d 8d8f afbd f6cf cfbd 00bc 35bc
00000280: 5c21 85bd 7e25 313d 5ef5 d0bd 8f94 9f3d
00000290: 13f3 913d 56aa 5b3d 2ad7 093d bce9 99bd
000002a0: 9230 81bd 8392 a93d 3cb8 b23c 0dc5 863d
000002b0: ded5 c6bd bcba 94bd ccba 88bd fc64 8e3c
000002c0: f7ce 863d 5324 b03d 2c9b 39bd 2f13 debd
000002d0: 2c10 9b3c a24d 89bd 8227 083d 257a d13d
000002e0: 5c65 80bd e09b 48bc db3d af3d e91a 863d
000002f0: ca1f 753d 20fe 0abb 5421 ccbc 17f4 ce3d
00000300: e7e6 74bd 602b 2f3b 8470 6cbd d57c d83d
00000310: 56c5 723d f112 ab3d 2dde 993d e802 48bc
00000320: 9037 40bd 6940 a23d 8518 5bbd ddf6 a43d
00000330: 0752 cbbd 187c 1dbc 2130 de3d 5497 42bd
00000340: aafc 413d b85c e0bc 00ae 21bb 1cf7 72bd
00000350: 4f1c c93d 25e2 833d efb1 833d c09f 813b
00000360: 40c2 debb cd50 c6bd 7f1a 983d 30e9 9fbc
00000370: 00f3 1fbc f0ac dabb 83db 993d cd86 babd
00000380: 5aae 34bd 4c38 f23c dc57 b63c e001 333c
00000390: 775f 9abd 6ebc 1b3d ed01 993d 112d d73d
000003a0: 0a06 d2bd c277 753d 94cd a43c 9a16 323d
000003b0: c036 6ebb 2460 d93c 5e29 25bd 2b61 db3d
000003c0: 120d cbbd d88a b7bc 80d7 783b 4003 95bd
000003d0: f92f 983d 0c0d c7bc e67f 133d b41d 993c
000003e0: dd17 be3d d0a0 2ebd 64f5 7fbd 5638 05bd
000003f0: 7eeb 1abd 68f5 53bc 25ac 97bd 52b1 b8bd
-0.10253984 -0.054853473 0.077958725 0.03765539 0.045631625 -0.06061559 -0.006387487 -0.04905625
0.079722084 -0.011536032 -0.09037134 -0.09662693 -0.061189905 0.07889999 -0.05485081 -0.095485404
0.057168417 -0.059860155 0.07820768 0.025366701 0.039840706 -0.10419386 0.0773705 0.10359638
0.015039034 -0.013055891 -0.062674165 0.098349996 0.030700468 -0.07088983 0.039490066 -0.10768458
0.032217078 0.022643648 0.095117085 0.054030202 0.0054473802 0.0015929043 -0.028918095 -0.052333836
0.0035893694 0.042074315 0.10880124 -0.00026296824 -0.07058632 -0.09466501 0.03760194 -0.059848826
-0.033917107 0.0105384365 -0.022670291 0.006858796 0.08884943 -0.0795723 0.049106993 0.050116338
0.09699721 0.011853367 -0.10856113 -0.03636302 -0.04102256 -0.06432463 -0.0051802173 0.0018868819
0.0452056 -0.044347323 0.099614926 0.026964553 0.029209532 -0.06114017 -0.08260359 0.08951578
0.0094049275 0.038315512 0.010606796 -0.062087752 -0.107358895 0.053702183 -0.049852084 -0.0015706196
0.08981275 -0.015596971 0.006115526 -0.06869998 0.016260065 -0.06415962 0.056350626 -0.10464707
0.06559489 -0.10263803 0.025589533 -0.09117963 0.06457376 0.06700907 -0.08442086 -0.003283061
0.10254177 -0.07022824 0.04398232 0.028661259 0.09407573 -0.0972879 0.09189036 -0.021573953
-0.060052592 0.08422873 -0.039405048 -0.08198587 -0.08848977 0.10771509 -0.060701903 0.013211697
-0.08521138 -0.056967977 0.1040001 -0.10317193 0.007430747 -0.08292045 -0.026116796 -0.072811395
0.042841427 0.080237396 -0.0077664927 -0.08952795 -0.10900669 -0.09839821 -0.092591755 0.09201791
-0.08671588 -0.03772457 0.06327709 0.09730748 0.08577294 -0.040585108 0.02477146 -0.052967474
-0.07025224 -0.049630515 0.050036557 -0.10157041 -0.07967548 0.090557806 0.083442576 -0.0037851706
0.10642483 -0.1067501 -0.039313875 -0.06738442 0.0511804 -0.054249022 0.07656286 0.08220226
0.054782502 -0.02138365 0.08902722 0.056093223 0.109052934 -0.08572302 -0.10147087 -0.011092186
-0.065005034 0.043248646 -0.1020305 0.07792007 0.07126441 0.053629242 0.033652462 -0.075152844
-0.06308092 0.08279898 0.021816365 0.06580553 -0.09708761 -0.07262179 -0.06676254 0.017382137
0.06582444 0.08600678 -0.045314 -0.10843503 0.01892861 -0.067042604 0.033240803 0.10228375
-0.06269333 -0.012244195 0.0855672 0.065481015 0.05984477 -0.00212086 -0.024918236 0.1010515
-0.059790518 0.0026728734 -0.05772449 0.10570685 0.059270225 0.08353222 0.0751308 -0.012207724
-0.04692799 0.079224415 -0.05349018 0.08054898 -0.09927755 -0.009612106 0.108490236 -0.0475076
0.0473601 -0.027387962 -0.0024670362 -0.059317693 0.098198526 0.06439618 0.064304225 0.0039558113
-0.0067980587 -0.0968338 0.07426929 -0.019520372 -0.009762526 -0.006673448 0.07512572 -0.091077425
-0.044111587 0.02956786 0.022258691 0.01092574 -0.0753774 0.038021497 0.074710704 0.105066426
-0.10255058 0.059928663 0.020117559 0.043478586 -0.0036348552 0.026535101 -0.040322654 0.10711893
-0.09914602 -0.022405073 0.0037970245 -0.072760105 0.07431025 -0.024298213 0.036010645 0.018690921
0.09281895 -0.04263383 -0.062489882 -0.03252443 -0.03782224 -0.012936927 -0.07405881 -0.09018196

bias f4 [10]
00000000: 2834 50bc 9462 873c f0bc 13bc 4688 a5bd
00000010: 41ab 9e3d 7772 a63d a088 a7bb af73 98bd
00000020: 363e d1bd 0474 92bd
-0.0127077475 0.016526498 -0.009017214 -0.08082633 0.07747508 0.08127301 -0.0051127225 -0.0744394
-0.10216944 -0.071510345
