rust/mnist_cuda.pt (torch, 190311 bytes, 10 tensors)

weight f4 [6, 1, 5, 5]
-0.100386284 0.043951154 -0.100433946 0.17101263 0.13854866 0.033419102 -0.17602861 -0.18549524
-0.07461126 0.028863877 0.109513775 0.16900666 -0.1518784 -0.08612728 -0.0681555 -0.01469703
0.07840963 0.09693043 0.12044601 0.12504418 -0.015013844 -0.14771512 -0.044157907 -0.08048189
0.16395499 -0.026816756 0.08187701 -0.027033716 0.028848529 -0.11344733 0.06252532 0.16907854
0.11491455 0.05461599 -0.10594793 -0.002129078 -0.14910881 0.13259579 0.15301134 -0.16401915
-0.09943092 -0.09726908 -0.09565647 0.09334977 -0.07133874 0.12090947 -0.13306955 -0.16157556
0.10179831 0.08409689 -0.021529108 -0.052231 -0.14987275 -0.16000552 0.100255445 -0.09109547
0.12330304 0.1544833 0.14571907 -0.027291656 -0.10433211 0.08494945 -0.077797554 -0.03148052
-0.047657445 0.18006201 -0.19943218 0.09708978 0.06316008 0.07975067 0.07614826 -0.1306842
0.1172785 -0.18146713 -0.045452595 -0.002472788 0.19257747 0.051585898 0.08598943 -0.07803967
0.06016113 0.19108374 -0.1651366 -0.0060026646 0.06919782 -0.09393847 0.1172872 0.026343852
-0.13203695 0.12051688 -0.08853 0.055205837 -0.07993596 -0.1497333 0.14242564 0.16839086
0.10922514 -0.07330541 0.11205877 0.1987368 0.11621122 -0.06960425 -0.14552543 0.045843035
-0.05727987 -0.18779102 0.091312215 -0.13230589 -0.18976815 0.031193048 -0.009862632 -0.15599501
-0.07558363 -0.09779971 -0.14261875 -0.041190475 -0.086376406 -0.13162418 0.00984478 0.12753384
-0.087216236 0.17850576 0.10011889 -0.12977427 -0.16551654 -0.08293064 -0.17578708 0.19619097
0.1469139 0.097235486 -0.048952296 -0.16574243 0.05324574 -0.11816597 -0.08167169 0.03503056
0.14403345 -0.14099619 0.06519391 -0.105978824 -0.17431994 0.049587756 -0.096872784 0.05373256
-0.0051762313 0.078910545 -0.19245784 -0.1728072 0.005799085 0.16369013
00000000: 5397 cdbd 2006 343d 50b0 cdbd ef1d 2f3e
00000010: b3df 0d3e 78e2 083d d840 34be 77f2 3dbe
00000020: cacd 98bd f073 ec3c c248 e03d 1510 2d3e
00000030: 0386 1bbe 8063 b0bd 1c95 8bbd d0cb 70bc
00000040: 3a95 a03d 7683 c63d 66ac f63d 950b 003e
00000050: a0fc 75bc a242 17be ecde 34bd b0d3 a4bd
00000060: d1e3 273e d0ae dbbc 22af a73d d075 ddbc
00000070: c053 ec3c 1357 e8bd 460d 803d ed22 2d3e
00000080: 5258 eb3d 04b5 5f3d 3afb d8bd 0088 0bbb
00000090: fbaf 18be 31c7 073e 01af 1c3e a3f4 27be
000000a0: 70a2 cbbd 0335 c7bd 8ae7 c3bd 2a2e bf3d
000000b0: 0c1a 92bd 629f f73d 6243 08be 1074 25be
000000c0: a27b d03d fe3a ac3d d05d b0bc 2cf0 55bd
000000d0: 3e78 19be 7dd8 23be ba52 cd3d 4390 babd
000000e0: 4e86 fc3d df30 1e3e 6137 153e c092 dfbc
000000f0: 13ac d5bd faf9 ad3d 5354 9fbd b8f1 00bd
00000100: 7434 43bd 2d62 383e f337 4cbe 02d7 c63d
00000110: 125a 813d 5254 a33d 9ef3 9b3d 14d2 05be
00000120: b62f f03d 85d2 39be 802c 3abd 800e 22bb
00000130: 0733 453e bc4b 533d 3a1b b03d 43d3 9fbd
00000140: 846b 763d 75ab 433e 9219 29be 00b2 c4bb
00000150: 96b7 8d3d d062 c0bd 4634 f03d 10cf d73c
00000160: b234 07be 8ed1 f63d 374f b5bd 841f 623d
00000170: 77b5 a3bd b053 19be 07d8 113e a76e 2c3e
00000180: 6eb1 df3d 2621 96bd 127f e53d a981 4b3e
00000190: 2600 ee3d ac8c 8ebd 9e04 15be e8c5 3b3d
000001a0: 4c9e 6abd 4a4c 40be e601 bb3d 327b 07be
000001b0: 9552 42be 9088 ff3c e096 21bc 28bd 1fbe
000001c0: 97cb 9abd 374b c8bd a60a 12be 58b7 28bd
000001d0: 1de6 b0bd 7dc8 06be 004c 213c 3b98 023e
000001e0: 6d9e b2bd 37ca 363e 220b cd3d 8ce3 04be
000001f0: 2b7d 29be 8ad7 a9bd 8701 34be 49e6 483e
00000200: 9970 163e 6623 c73d 3482 48bd 62b8 29be
00000210: 3418 5a3d 0001 f2bd 7d43 a7bd 347c 0f3d
00000220: 817d 133e 4e61 10be 6284 853d 6d0b d9bd
00000230: ed80 32be 881c 4b3d 3d65 c6bd ac16 5c3d
00000240: 609d a9bb da9b a13d ab13 45be 5ff4 30be
00000250: 4006 be3b 639e 273e

bias f4 [6]
-0.1631957 0.055876747 -0.06169498 -0.07519119 -0.070102006 0.15316178
00000000: c61c 27be 04df 643d e0b3 7cbd d7fd 99bd
00000010: a491 8fbd 71d6 1c3e

weight f4 [16, 6, 5, 5]
-0.03515801 -0.007243976 0.05056022 -0.010444395 0.05278425 -0.06329419 -0.032458108 0.06590769
-0.018328063 0.07466829 -0.052715376 -0.012588099 -0.00836087 -0.06250455 -0.06336377 -0.0725869
0.045304924 0.073060215 0.053940803 0.014192075 -0.067701556 0.006625265 -0.038157783 -0.06901636
0.0718739 0.026852861 -0.038729493 -0.04000116 -0.058434602 -0.05314914 -0.0067700446 0.062500015
0.06500998 -0.046159152 -0.05758439 -0.07244838 -0.07104872 -0.036522962 0.042968035 0.04476215
-0.04442497 0.01695437 0.018583015 -0.039968 0.017381705 0.03319957 0.026295595 0.022973001
0.022878818 -0.035811428 0.013854653 -0.054076582 -0.056648336 -0.031850725 0.0111337975 -0.030976344
0.028877102 -0.07599262 0.01065515 0.05754353 -0.04440529 0.07142182 -0.023451135 -0.05104015
-0.021051422 0.015767999 -0.004837647 0.033775546 0.07476041 -0.07475942 0.07471047 -0.050180055
-0.05029969 -0.015753292 -0.073554695 0.011722542 -0.030580983 0.013286836 -0.03403012 -0.033643316
-0.0037712157 -0.061741047 0.07999568 -0.0036518127 -0.037166424 -0.042757202 0.023585156 0.03294924
-0.0030608326 0.0096986 -0.03343385 0.048920393 -0.06804051 0.07140666 -0.00016586483 0.0032581761
0.012952864 0.043962553 -0.031080231 0.042562313 -0.007954314 0.025045775 -0.05520971 -0.0065962523
-0.001997836 -0.002342403 0.036703467 -0.0182961 -0.039323024 0.034566402 -0.05852441 0.05173722
-0.07628473 -0.07343429 -0.05640232 0.06275673 0.04917407 0.050994545 0.07149333 0.01740525
0.0050185695 -0.017458364 0.025206774 0.0059015527 0.07984601 0.028507136 0.05302833 -0.06146603
-0.027256269 -0.0635572 0.049119875 -0.06287049 0.033920504 -0.0005943924 -0.06482924 -0.02684836
0.08137816 -0.037123453 -0.00987944 -0.04971655 0.015061133 0.057308897 -0.007913612 -0.05254762
-0.011600293 -0.04251851 0.07965954 0.012847953 0.056300774 -0.07568912 -0.076182686 0.05227202
0.01137694 0.004641652 -0.019380324 0.06765744 0.054691717 -0.050397597 0.023032814 -0.066363454
0.0034314543 -0.020183641 0.028985634 0.039248742 -0.04843625 -0.006187178 -0.02392548 0.018003345
-0.06572495 -0.04079678 -0.06756604 0.0710157 0.056758747 0.02160532 0.0037657917 0.067519605
-0.050975587 -0.019306943 0.07509725 -0.021338228 0.016119957 0.081195846 0.07854469 0.047784254
0.056635797 -0.04512304 0.015181288 -0.028060112 0.026317902 0.071029276 -0.05425048 0.052895367
0.03574311 0.005951196 0.0350338 -0.020971335 -0.045663584 -0.066001594 -0.0031482056 0.052603796
0.07572751 0.024188705 0.00079802424 0.016095646 0.047221452 0.035684273 0.017636612 0.039563566
-0.040856767 0.039087646 0.07466355 0.018261626 0.06052172 -0.043548938 -0.07417111 -0.0393098
0.015282318 -0.018957503 0.039046906 0.04045219 -0.012426399 0.029247373 0.0065408275 -0.061822183
0.04814428 0.06504673 0.07696134 -0.038907595 -0.024593659 -0.04233302 -0.03132041 -0.07505505
0.052401632 0.04094986 0.07741134 0.07555181 0.077835575 -0.030090585 0.06293279 0.052383125
0.049852997 -0.059900343 0.043167725 -0.07026732 -0.017322034 -0.0046419576 0.068641946 0.03723085
-0.07727518 0.07962158 0.027716823 0.07038857 -0.013319358 -0.06126508 0.040698424 0.062041268
00000000: d801 10bd e05e edbb 3c18 4f3d f81e 2bbc
00000010: 4c34 583d 62a0 81bd cbf2 04bd 9cfa 863d
00000020: bc24 96bc b0eb 983d 14ec 57bd 503e 4ebc
00000030: 08fc 08bc 6302 80bd ddc4 81bd 71a8 94bd
00000040: a891 393d 98a0 953d 08f1 5c3d e085 683c
00000050: 1da7 8abd c018 d93b 564b 1cbd 7358 8dbd
00000060: a032 933d 88fa db3c d1a2 1ebd 42d8 23bd
00000070: 1f59 6fbd eab2 59bd 40d7 ddbb 0200 803d
00000080: f423 853d 6111 3dbd 9cdd 6bbd d15f 94bd
00000090: fe81 91bd 1a99 15bd 40ff 2f3d 8458 373d
000000a0: f5f6 35bd e4e3 8a3c 683b 983c 7cb5 23bd
000000b0: 1464 8e3c 46fc 073d dc69 d73c e031 bc3c
000000c0: 5c6c bb3c 01af 12bd a0fe 623c 687f 5dbd
000000d0: 1608 68bd e875 02bd 886a 363c 1ac2 fdbc
000000e0: ac8f ec3c 05a2 9bbd f092 2e3c c4b2 6b3d
000000f0: 52e2 35bd 9a45 923d 981c c0bc 7a0f 51bd
00000100: 0874 acbc e42b 813c 2085 9ebb 3a58 0a3d
00000110: fc1b 993d 771b 99bd ce01 993d 9a89 4dbd
00000120: 0c07 4ebd 0c0d 81bc d8a3 96bd e80f 403c
00000130: f884 fabc 08b1 593c 2b63 0bbd 93cd 09bd
00000140: 8026 77bb 2ee4 7cbd c6d4 a33d 4053 6fbb
00000150: d23b 18bd 2d22 2fbd a835 c13c c8f5 063d
00000160: 4098 48bb e0e6 1e3c eff1 08bd c060 483d
00000170: d358 8bbd a83d 923d 00ec 2db9 2087 553b
00000180: 4038 543c 1412 343d f89b febc d255 2e3d
00000190: d052 02bc cc2c cd3c 9423 62bd 6025 d8bb
000001a0: 20ee 02bb 0083 19bb 6056 163d b4e1 95bc
000001b0: 2e11 21bd 8095 0d3d 4bb7 6fbd 68ea 533d
000001c0: 2b3b 9cbd b864 96bd 1e06 67bd 9a86 803d
000001d0: c06a 493d a8df 503d 186b 923d 7495 8e3c
000001e0: d072 a43b d804 8fbc 707e ce3c d061 c13b
000001f0: 4e86 a33d cc87 e93c 3c34 593d cec3 7bbd
00000200: 8a48 dfbc 472a 82bd ec31 493d 3ec2 80bd
00000210: 3af0 0a3d 00d1 1bba 31c5 84bd 18f1 dbbc
00000220: 98a9 a63d c30e 18bd 60dd 21bc 95a3 4bbd
00000230: f8c2 763c bcbc 6a3d 18a8 01bc 2c3c 57bd
00000240: 280f 3ebc e427 2ebd 8a24 a33d 3880 523c
00000250: a49b 663d e602 9bbd ab05 9cbd 301b 563d
00000260: 5866 3a3c 0019 983b 7cc3 9ebc fc8f 8a3d
00000270: 6c04 603d b66d 4ebd 50af bc3c 90e9 87bd
00000280: 40e2 603b 2a58 a5bc 4873 ed3c 4ac3 203d
00000290: 1765 46bd d0bd cabb 5eff c3bc c07b 933c
000002a0: cd9a 86bd 861a 27bd 1060 8abd ae70 913d
000002b0: dc7b 683d a4fd b03c 80cb 763b b847 8a3d
000002c0: c7cb 50bd 9829 9ebc 96cc 993d 82cd aebc
000002d0: 000e 843c 024a a63d 0adc a03d 6cb9 433d
000002e0: f0fa 673d f0d2 38bd f0ba 783c 52de e5bc
000002f0: a498 d73c cc77 913d c035 5ebd d0a8 583d
00000300: 5e67 123d 4002 c33b 9a7f 0f3d 14cc abbc
00000310: bd09 3bbd d82b 87bd 2052 4ebb 1477 573d
00000320: 0617 9b3d 6427 c63c 8032 513a 04db 833c
00000330: 486b 413d ac29 123d a87a 903c 680d 223d
00000340: 6d59 27bd 5e1a 203d 34e9 983d 6899 953c
00000350: a0e5 773d 5f60 32bd 06e7 97bd 5003 21bd
00000360: b062 7a3c c44c 9bbc a6ef 1f3d 32b1 253d
00000370: 1898 4bbc 3098 ef3c 7054 d63b 4239 7dbd
00000380: f032 453d 3837 853d e89d 9d3d 925d 1fbd
00000390: a478 c9bc 6465 2dbd d549 00bd 76b6 99bd
000003a0: 18a3 563d 0abb 273d d689 9e3d e8ba 9a3d
000003b0: 4268 9f3d 8880 f6bc e8e2 803d b08f 563d
000003c0: a832 4c3d 105a 75bd a4d0 303d 50e8 8fbd
000003d0: f0e6 8dbc 901b 98bb 2694 8c3d 607f 183d
000003e0: 7342 9ebd a410 a33d 640e e33c e227 903d
000003f0: 7039 5abc 18f1 7abd 64b3 263d fc1e 7e3d

bias f4 [16]
0.04186569 0.033751793 -0.03780375 0.018792644 -0.018562667 0.032383338 0.06772162 -0.009548843
0.024917424 -0.032682132 -0.06916532 -0.009249806 -0.040886153 -0.05266367 -0.08016522 0.068144575
00000000: 5c7b 2b3d 523f 0a3d 1bd8 1abd 08f3 993c
00000010: bc10 98bc 64a4 043d a2b1 8a3d c072 1cbc
00000020: a01f cc3c b3dd 05bd 8ca6 8dbd 808c 17bc
00000030: 3d78 27bd dcb5 57bd aa2d a4bd 628f 8b3d

weight f4 [120, 256]
0.022421367 -0.0031693429 -0.030070022 -0.021688916 0.049548395 0.010740183 -0.05452802 -0.034025982
0.0033923164 0.009849571 -0.038528055 -2.7991831e-05 -0.016790263 0.01893647 -0.055238977 -0.014963351
0.048407994 0.052047297 0.018466122 0.06187342 0.04417681 0.05593157 -0.04642477 0.0049648285
-0.026511751 0.005587265 0.023976386 0.030783877 -0.026540294 0.008049525 -0.052910246 -0.015154354
0.03913057 -0.0048810467 0.057512067 0.01184652 0.024706826 -0.025240183 -0.029100612 -0.018095337
0.062035635 0.055354983 0.041063182 0.043775097 0.049494185 -0.040418476 -0.035060897 0.012702495
-0.038530722 -0.036664523 0.0063515306 0.019193918 0.030776814 -0.03860586 0.05211197 0.049509875
-0.044437744 -0.0032168254 0.02885896 -0.011003137 0.013972558 0.014407761 -0.02311629 0.04078172
-0.010789484 -0.0361486 -0.054682374 -0.03986971 0.027503006 0.029939406 0.0047496706 0.04617636
-0.014976367 -0.043799393 -0.032331526 -5.96717e-05 0.03325752 0.0014847517 -0.06051311 0.030943088
0.034539334 -0.042679705 0.015306987 -0.013321422 0.051151812 -0.0012208074 -0.05978006 -0.015208751
-0.00039512664 0.03775627 -0.018325076 0.0065788478 -0.060768247 -0.015264772 0.06014158 0.04932923
-0.028906167 0.057633772 0.05057528 -0.040124416 -0.015005395 -0.04778015 -0.027124695 -0.00024551898
-0.007094212 -0.04045719 -0.0100336 -0.009892829 -0.0009202659 -0.021231838 -0.029611886 -0.035717897
-0.05347749 -0.015692562 -0.04693141 0.03816104 0.018702187 0.047676355 -0.015633807 0.025018424
0.029458955 0.029099375 -0.015338793 -0.02603899 -0.053701907 -0.044752568 0.018385954 0.052963324
0.053910643 -0.039041527 -0.022100955 0.05679418 0.016816735 -0.0094118565 -0.04253225 -0.0130132735
-0.046619587 0.0025678277 0.05935678 -0.052376077 -0.0038006455 -0.008897774 -0.0044452995 0.006518878
0.006050177 -0.03244464 -0.047749326 0.010243177 0.007919438 0.05644226 -0.051239006 -0.008502215
0.045162663 -0.04949846 0.020763159 0.029039137 0.02149231 -0.045283146 0.018632792 -0.011235997
-0.0029236749 -0.043245047 -0.057614274 -0.035295546 0.04402794 0.017161675 -0.048647024 0.020850949
0.047601312 0.011444479 0.05959417 0.027191103 -0.06215486 -0.03422457 -0.009379886 0.034349605
0.06026101 -0.009877294 0.0075425506 -0.06043017 -0.013884068 -0.021565638 -0.013755657 0.0022878125
-0.036760762 0.010031521 -0.039727494 -0.02394788 -0.03401941 0.0095786825 -0.052924618 0.024357565
-0.004380405 0.010813229 -0.031852126 -0.005102329 -0.013479404 -0.06039781 0.061774395 -0.059039205
0.013922274 0.018187314 0.048651263 0.04948493 -0.05749003 0.062381893 0.031880192 -0.0091927275
0.049198665 0.019749105 -0.039270148 -0.061061457 0.048490673 -0.060042918 0.03825739 0.024635985
0.010002181 -0.05203651 -0.048868813 0.04151354 -0.007962152 0.056236833 0.026673503 -0.060224578
0.016158871 -0.0044624507 0.009439662 0.031509377 0.018953942 -0.023271695 0.039012156 0.023034275
0.026734553 0.06159909 -0.023769684 0.04101689 -0.056158856 -0.032770775 0.06239485 -0.020807154
-0.03463926 0.041371144 0.050695784 -0.020252332 0.041537106 0.024494492 -0.016508885 -0.051208355
0.0014542341 0.010224365 0.04589718 -0.004147783 -0.01697401 0.02494514 0.016429335 0.0028826594
00000000: 04ad b73c c0b4 4fbb 6855 f6bc f4ac b1bc
00000010: 42f3 4a3d 98f7 2f3c c658 5fbd d45e 0bbd
00000020: a051 5e3b 1860 213c 98cf 1dbd 00d0 eab7
00000030: bc8b 89bc a820 9b3c 4442 62bd d828 75bc
00000040: 7647 463d 8c2f 553d 4446 973c fc6e 7d3d
00000050: bef2 343d 8018 653d e627 3ebd 00b0 a23b
00000060: 2c2f d9bc 6015 b73b 206a c43c 782e fc3c
00000070: 086b d9bc 28e2 033c 6ab8 58bd f849 78bc
00000080: 6047 203d 30f1 9fbb c691 6b3d e817 423c
00000090: f865 ca3c 80c4 cebc 6864 eebc ac3c 94bc
000000a0: 1419 7e3d e8bb 623d de31 283d 844d 333d
000000b0: 6aba 4a3d d88d 25bd 049c 0fbd 201e 503c
000000c0: 64d2 1dbd 8a2d 16bd 8020 d03b 903c 9d3c
000000d0: a81f fc3c 2e21 1ebd 5c73 553d deca 4a3d
000000e0: 5a04 36bd 60d1 52bb a069 ec3c 8046 34bc
000000f0: 28ed 643c 880e 6c3c 605e bdbc bc0a 273d
00000100: 60c6 30bc 8e10 14bd a0fa 5fbd 6c4e 23bd
00000110: fc4d e13c 7c43 f53c 20a3 9b3b 6c23 3d3d
00000120: 705f 75bc fe66 33bd 106e 04bd 0048 7ab8
00000130: 0a39 083d 009c c23a 98dc 77bd 5c7c fd3c
00000140: 1e79 0d3d ead0 2ebd 28ca 7a3c 1842 5abc
00000150: 9084 513d 8003 a0ba f0db 74bd 202e 79bc
00000160: 0029 cfb9 52a6 1a3d 781e 96bc 6093 d73b
00000170: 20e8 78bd 1819 7abc 0457 763d 720d 4a3d
00000180: a0cc ecbc 6411 6c3d 0628 4f3d 8059 24bd
00000190: 30d9 75bc 1eb5 43bd 9c34 debc 00b9 80b9
000001a0: 9076 e8bb 70b6 25bd f863 24bc 8815 22bc
000001b0: 003e 71ba 64ee adbc a094 f2bc ee4c 12bd
000001c0: 360b 5bbd b08d 80bc 263b 40bd c04e 1c3d
000001d0: 5435 993c 4848 433d 7812 80bc 70f3 cc3c
000001e0: e853 f13c d061 ee3c 904f 7bbc b84f d5bc
000001f0: 88f6 5bbd 784e 37bd 249e 963c 12f0 583d
00000200: 68d1 5c3d 02ea 1fbd 100d b5bc 04a1 683d
00000210: 40c3 893c 3034 1abc 4c36 2ebd a035 55bc
00000220: 2ef4 3ebd 0049 283b 1820 733d 4c88 56bd
00000230: 4014 79bb f8c7 11bc e0a9 91bb 509c d53b
00000240: 9040 c63b ace4 04bd cc94 43bd 00d3 273c
00000250: 88c0 013c 0030 673d fedf 51bd e04c 0bbc
00000260: 7cfc 383d e6be 4abd 8017 aa3c 7ce3 ed3c
00000270: a410 b03c d27a 39bd cca3 983c 3017 38bc
00000280: 209b 3fbb b821 31bd f2fc 6bbd 1092 10bd
00000290: a456 343d a496 8c3c 1a42 47bd 9ccf aa3c
000002a0: 98f9 423d a081 3b3c 0419 743d e0bf de3c
000002b0: 1896 7ebd 102f 0cbd 18ae 19bc 2cb2 0c3d
000002c0: 40d4 763d 60d4 21bc 8027 f73b a085 77bd
000002d0: 007a 63bc 6caa b0bc 685f 61bc 20ef 153b
000002e0: 7492 16bd 405b 243c 4cb9 22bd 582e c4bc
000002f0: f057 0bbd e8ef 1c3c 7cc7 58bd 8489 c73c
00000300: 8089 8fbb f829 313c 6077 02bd 7031 a7bb
00000310: b8d8 5cbc b263 77bd 2607 7d3d 18d3 71bd
00000320: 401a 643c 90fd 943c 8c46 473d b6b0 4a3d
00000330: aa7a 6bbd 2884 7f3d ce94 023d 189d 16bc
00000340: 8a84 493d e0c8 a13c bcd9 20bd 941b 7abd
00000350: 289e 463d 90ef 75bd c8b3 1c3d 68d1 c93c
00000360: 30e0 233c 3c24 55bd aa2a 48bd 1a0a 2a3d
00000370: b073 02bc 9858 663d 6482 da3c 0cae 76bd
00000380: 9c5f 843c c039 92bb d0a8 1a3c fa0f 013d
00000390: 4c45 9b3c 48a4 bebc 36cb 1f3d 60b2 bc3c
000003a0: 6c02 db3c 544f 7c3d a4b8 c2bc 5401 283d
000003b0: d406 66bd a63a 06bd be91 7f3d c473 aabc
000003c0: e6e1 0dbd ca74 293d 62a6 4f3d 38e8 a5bc
000003d0: d022 2a3d aca8 c83c a43d 87bc dabf 51bd
000003e0: 009c be3a 1884 273c aefe 3b3d 20ea 87bb
000003f0: 140d 8bbc c059 cc3c d096 863c 00eb 3c3b

bias f4 [120]
0.051048763 0.02078525 0.014302991 0.0374166 -0.03639438 0.0025829747 -0.06058047 -0.013024539
0.0534907 -0.034786314 0.033373155 -0.04194974 -0.047571898 0.040954515 -0.011940815 0.021920875
-0.05911576 -0.022603966 0.010802381 -0.0042338744 0.04097046 0.060866892 -0.016341724 0.04921945
0.0096635595 0.016871773 0.03437046 0.02849891 -0.018964164 -0.01089038 -0.06029334 0.0042699873
0.024662018 0.0042259917 -0.016156338 -0.027774855 0.061870523 0.024688825 0.022343606 0.03362573
-0.04442729 0.05792702 0.014025271 0.039343916 0.0039540976 -0.055747867 0.04888338 0.049190775
0.05548524 -0.0015351325 -0.06088327 -0.021556132 0.048113517 -0.002801299 -0.05864498 0.018537723
0.02949471 -0.014755063 0.056093574 0.04987043 0.02142635 0.019534282 0.020436801 -0.051242314
0.020643175 0.024111688 0.020660639 -0.017757393 -0.022931434 -0.031802304 0.06198833 0.06225864
0.0016444623 0.042387947 0.038321592 0.043490164 0.014106169 0.018322267 -0.02606967 0.05188156
0.018615626 -0.04524553 -0.059923552 -0.054105997 0.0038143694 -0.04153137 0.051110327 0.056700736
0.061632037 0.049944647 -0.037618384 0.030065142 0.028327085 0.0412367 -0.016117536 0.040754177
-0.05562038 -0.04084582 -0.019843966 -0.0019455999 0.03596253 -0.00022615492 0.006924525 0.05785522
-0.0419403 0.03697051 -0.008377895 -0.026368082 0.016560122 -0.006598808 0.029352918 -0.0018873736
0.05338759 -0.057087585 -0.058299884 -0.049899347 -0.03094969 -0.06060701 -0.0068863183 0.046809554
00000000: 8218 513d d445 aa3c 1857 6a3c 2642 193d
00000010: 4612 15bd 2047 293b 3a23 78bd e064 55bc
00000020: 1019 5b3d 187c 0ebd 4ab2 083d 7ed3 2bbd
00000030: c0da 42bd ecbf 273d 68a3 43bc 6893 b33c
00000040: 5e23 72bd f42b b9bc 78fc 303c 50bc 8abb
00000050: a4d0 273d 904f 793d 14df 85bc 569a 493d
00000060: e853 1e3c ac36 8a3c 0ac8 0c3d 8c76 e93c
00000070: bc5a 9bbc 906d 32bc 26f6 76bd 40eb 8b3b
00000080: 0008 ca3c 307a 8a3b 4c5a 84bc 1888 e3bc
00000090: f26b 7d3d 3840 ca3c f009 b73c 22bb 093d
000000a0: 64f9 35bd e244 6d3d 40ca 653c 1627 213d
000000b0: 6091 813b e057 64bd f039 483d 447c 493d
000000c0: 7e44 633d 8036 c9ba bc60 79bd 7c96 b0bc
000000d0: ae12 453d 0096 37bb b835 70bd 6cdc 973c
000000e0: e49e f13c 38bf 71bc 60c2 653d f044 4c3d
000000f0: 5086 af3c 5c06 a03c 146b a73c 76e3 51bd
00000100: e01b a93c e085 c53c 8040 a93c f477 91bc
00000110: b4da bbbc 2243 02bd 7ae7 7d3d ea02 7f3d
00000120: 008b d73a fc9e 2d3d 1af7 1c3d be22 323d
00000130: 901d 673c 9418 963c 1090 d5bc c281 543d
00000140: cc7f 983c 6053 39bd 6672 75bd 409e 5dbd
00000150: 80fa 793b cc1c 2abd 1059 513d 083f 683d
00000160: e071 7c3d c292 4c3d bc15 1abd 2c4b f63c
00000170: 340e e83c d0e7 283d ec08 84bc daed 263d
00000180: 32d2 63bd f24d 27bd d08f a2bc 8003 ffba
00000190: 724d 133d 0024 6db9 20e7 e23b 98f9 6c3d
000001a0: 98c9 2bbd 646e 173d 7043 09bc e001 d8bc
000001b0: 18a9 873c d03a d8bb 8875 f03c c061 f7ba
000001c0: f2ac 5a3d acd4 69bd dccb 6ebd 4263 4cbd
000001d0: 348a fdbc 0e3f 78bd a0a6 e1bb 60bb 3f3d

weight f4 [84, 120]
-0.08424279 -0.060358103 -0.049822588 0.004947692 -0.086062886 -0.010404952 -0.020332314 0.049829364
0.08453886 0.064498514 -0.012965605 -0.020576924 0.043046743 -0.06025789 0.015948258 -0.041067466
-0.008864686 0.0698539 0.054660514 -0.088904105 0.038597435 0.004990101 0.07676914 -8.238852e-05
-0.058466494 -0.025198773 0.05198227 0.05804418 0.013342716 -0.07832474 -0.051009007 -0.06890355
0.056369394 -0.06910764 -0.0013533607 0.08178735 -0.03977342 0.08718778 -0.080256194 -0.009354867
-0.05516342 -0.06907249 -0.044553425 -0.090482034 0.012115829 -0.07978229 -0.07191835 0.056904837
-0.035048425 0.041948497 -0.06845079 0.02094207 -0.075143635 0.07373606 0.0047319606 -0.06580193
0.059762403 0.085040554 0.026655272 -0.05404443 -0.04741004 0.021688417 -0.008351959 -0.034044515
0.013342716 -0.0530155 -0.07361244 -0.054610427 0.05158882 0.085155666 -0.0019070432 0.07329194
0.0510782 -0.047766317 0.08522551 0.06500076 0.0524078 -0.062754065 -0.050034672 0.014539301
0.05932696 0.056902632 -0.0035165846 -0.075538404 -0.026222795 -0.005884655 -0.051639862 -0.050781306
0.06904736 -0.041394293 0.031613015 0.053002372 -0.0018902943 0.05535628 -0.005692087 -0.07283925
-0.05704516 -0.04859178 -0.044148084 -0.051545143 -0.044755246 0.084803015 -0.060844988 -0.007446572
0.065076604 0.0014980733 0.0339403 -0.05406913 -0.08279101 -0.036399156 0.026388578 0.018696912
0.0799261 -0.06706394 0.08755611 -0.046536513 -0.07017857 0.014069498 -0.0028630197 -0.023548685
0.038528025 0.017927691 0.01217217 -0.03736637 0.07464215 -0.016963892 -0.036858235 -0.026982248
0.0035570785 -0.033746276 -0.026364744 -0.0119437575 0.07579698 -0.075868115 0.06266238 0.05458106
0.06543748 -0.016923308 0.074211344 0.027723812 -0.01528763 0.016094789 0.048975646 0.040808976
0.08878517 -0.0015663058 0.051527604 -0.048168417 -0.030038428 0.019794747 -0.068261355 0.06789924
0.036425367 0.08713378 0.05171089 0.049878076 -0.08966162 -0.004132889 -0.021140829 0.070722595
0.042553976 -0.013270691 -0.07776188 0.016950987 -0.025491782 -0.08247188 0.031312786 0.018511325
0.0858524 0.011522144 -0.043713335 0.046946168 -0.05397265 -0.047618352 0.07500537 -0.08610834
-0.0076961145 0.023852795 -0.042318348 -0.07168869 -0.084604695 -0.005326435 -0.06178119 -0.070065044
0.0024318248 -0.070922375 0.050041705 0.028753534 0.07878402 -0.008980535 0.04476267 0.053395152
0.03645225 0.056597874 -0.08118883 -0.008659638 -0.029827103 -0.025327012 -0.024608485 -0.031038396
0.09005216 0.02176246 -0.030837893 0.020050548 0.039458826 0.040669456 -0.016264021 0.042256847
0.033149555 -0.08921681 -0.03782703 0.0071842 -0.038800154 -0.025737852 -0.083988786 0.06466515
0.07902937 0.012115717 0.01856602 -0.060574934 -0.03413336 -0.022385761 -0.061447278 -0.06440637
-0.08237138 -0.04155379 -0.031145241 0.056019947 0.034243748 0.0019227117 -0.06951053 -0.06349662
0.04688184 0.018796064 0.06900342 -0.005842343 -0.047969412 0.07794158 -0.044790257 -0.02438818
0.05818148 6.440282e-05 0.08716005 -0.017647982 0.073308796 -0.029967658 0.08891778 0.07156916
-0.0010319203 0.02496019 -0.019739218 -0.005795926 -0.073949575 0.010180384 -0.06899046 -0.08180872
00000000: 7c87 acbd 0f3a 77bd c512 4cbd 4020 a23b
00000010: bd41 b0bd 8879 2abc f48f a6bc e019 4c3d
00000020: b622 ad3d cc17 843d b06d 54bc f090 a8bc
00000030: c851 303d fad0 76bd eca5 823c 5c36 28bd
00000040: 303d 11bc 900f 8f3d b4e3 5f3d 5b13 b6bd
00000050: 5818 1e3d 0084 a33b 2439 9d3d 00c8 acb8
00000060: 907a 6fbd a86d cebc 5ceb 543d bcbf 6d3d
00000070: 689b 5a3c b968 a0bd d2ee 50bd 4e1d 8dbd
00000080: 98e3 663d 4e88 8dbd 4063 b1ba 2080 a73d
00000090: 74e9 22bd 828f b23d 5c5d a4bd 2845 19bc
000000a0: 0af3 61bd e175 8dbd a77d 36bd a54e b9bd
000000b0: 7881 463c e664 a3bd ee49 93bd 0c15 693d
000000c0: f08e 0fbd 30d2 2b3d ee2f 8cbd b48e ab3c
000000d0: e8e4 99bd ee02 973d 900e 9b3b 2ac3 86bd
000000e0: 6cc9 743d be29 ae3d 285c da3c b15d 5dbd
000000f0: 0831 42bd e8ab b13c a8d6 08bc 4372 0bbd
00000100: 689b 5a3c c826 59bd 1ec2 96bd 2faf 5fbd
00000110: cc4e 533d 1866 ae3d c0f5 f9ba 161a 963d
00000120: 6037 513d 9da6 43bd b68a ae3d 1e1f 853d
00000130: 90a9 563d 3485 80bd 28f1 4cbd 4036 6e3c
00000140: d400 733d bc12 693d 8076 66bb e1b3 9abd
00000150: 30d1 d6bc 10d4 c0bb 5284 53bd 0f00 50bd
00000160: b468 8d3d 108d 29bd a67c 013d 0419 593d
00000170: c0c3 f7ba 44bd 623d b084 babb bf2c 95bd
00000180: 30a8 69bd 2d08 47bd 9fd4 34bd 0021 53bd
00000190: 4751 37bd 34ad ad3d 9838 79bd 6002 f4bb
000001a0: e246 853d 005b c43a fc04 0b3d 9877 5dbd
000001b0: 558e a9bd 4817 15bd dc2c d83c 442a 993c
000001c0: 4cb0 a33d d258 89bd 9e50 b33d 129d 3ebd
000001d0: c8b9 8fbd c083 663c 80a1 3bbb 2ce9 c0bc
000001e0: 90cf 1d3d 18dd 923c c86d 473c 7b0d 19bd
000001f0: fcdd 983d dcf7 8abc a9f8 16bd e009 ddbc
00000200: e01d 693b 8939 0abd e0fa d7bc c0af 43bc
00000210: 723b 9b3d be60 9bbd 2255 803d 6490 5f3d
00000220: 1604 863d c0a2 8abc 1efc 973d 0c1d e33c
00000230: f878 7abc 38d9 833c b09a 483d 5027 273d
00000240: 00d5 b53d 804c cdba 9c0e 533d 3f4c 45bd
00000250: 2613 f6bc 9828 a23c 9ccc 8bbd c20e 8b3d
00000260: c432 153d 3273 b23d ccce 533d f44c 4c3d
00000270: 83a0 b7bd 306d 87bb 882f adbc 02d7 903d
00000280: 144d 2e3d 506d 59bc 9f41 9fbd ccdc 8a3c
00000290: 24d4 d0bc 04e7 a8bd d641 003d 10a5 973c
000002a0: 62d3 af3d 60c7 3c3c c10c 33bd a04a 403d
000002b0: 6d12 5dbd 760b 43bd 6a9c 993d 9259 b0bd
000002c0: b02f fcbb f066 c33c 0156 2dbd 85d1 92bd
000002d0: 3a45 adbd 6089 aebb 460e 7dbd 437e 8fbd
000002e0: 405f 1f3b c03f 91bd 88f8 4c3d 888c eb3c
000002f0: 8459 a13d 1823 13bc 1059 373d e0b4 5a3d
00000300: f44e 153d 2cd3 673d 5446 a6bd 28e1 0dbc
00000310: f857 f4bc 987a cfbc bc97 c9bc 3c44 febc
00000320: 446d b83d 3047 b23c c09f fcbc 0c41 a43c
00000330: 949f 213d 0495 263d 203c 85bc 8415 2d3d
00000340: d4c7 073d 4eb7 b6bd 84f0 1abd 7069 eb3b
00000350: e9ec 1ebd 30d8 d2bc 5002 acbd 2a6f 843d
00000360: 26da a13d 0081 463c c417 983c 6c1d 78bd
00000370: 6ccf 0bbd 5862 b7bc 24b0 7bbd 7de7 83bd
00000380: 53b2 a8bd 4f34 2abd 4e24 ffbc 2c75 653d
00000390: 2c43 0c3d 8003 fc3a 895b 8ebd 840a 82bd
000003a0: 2c07 403d 34fa 993c aa51 8d3d 2071 bfbb
000003b0: 937b 44bd d69f 9f3d fd75 37bd b8c9 c7bc
000003c0: b44f 6e3d 0010 8738 f880 b23d 8092 90bc
000003d0: ec22 963d bc7e f5bc 861a b63d da92 923d
000003e0: 8041 87ba 5079 cc3c 24b4 a1bc c0eb bdbb
000003f0: e072 97bd a0cb 263c df4a 8dbd 558b a7bd

bias f4 [84]
0.024687193 -0.0724279 -0.025501423 0.051693544 -0.07637623 -0.057340104 -0.01708392 0.032025397
0.060577676 -0.049565002 0.06674166 -0.0730114 0.0876444 -0.061354026 0.08927393 -0.079575114
-0.016158044 0.045703858 0.07630357 -0.017182156 0.011957504 0.01631669 0.016795747 -0.03125031
0.058559626 0.08699478 0.05902402 0.019760124 -0.071786284 0.044505924 0.026272103 0.03506413
-0.045148578 0.09032409 0.037745327 0.061593145 0.06282964 -0.047546018 0.048419088 0.08968404
-0.07956262 -0.0011712909 -0.0009592101 0.0651858 0.0057202727 0.004005417 0.040473044 -0.008602992
0.017713018 -0.0056436285 -0.025911786 0.06569573 -0.001220651 0.032772206 -0.031456135 -0.022882693
0.036879405 -0.06842193 0.027553342 -0.088539176 -0.08448622 0.020974658 0.044613868 -0.007960752
0.022712223 -0.056259014 0.08026807 0.011929207 -0.0067815557 -0.06972122 0.073383585 -0.026832893
-0.06565111 -0.021628693 -0.058918282 -0.057065554 -0.002763316 0.07440892 -0.0763076 0.054047912
-0.04557204 0.07548514 0.07493591 0.074087456
00000000: cc3c ca3c 1455 94bd 5ce8 d0bc 9cbc 533d
00000010: 246b 9cbd 75dd 6abd 94f3 8bbc 102d 033d
00000020: 4c20 783d ac04 4bbd daaf 883d 0087 95bd
00000030: e87e b33d 5c4e 7bbd 40d5 b63d 47f8 a2bd
00000040: e05d 84bc f833 3b3d 0c45 9c3d 98c1 8cbc
00000050: 68e9 433c 94aa 853c 3c97 893c 5300 00bd
00000060: 38dc 6f3d 522a b23d 2cc3 713d fcdf a13c
00000070: b004 93bd d84b 363d 9838 d73c 689f 0f3d
00000080: b7ed 38bd d6fb b83d d89a 1a3d 1849 7c3d
00000090: d4ac 803d 9dbf 42bd 1853 463d 44ac b73d
000000a0: baf1 a2bd 0086 99ba 8073 7bba 2280 853d
000000b0: 2071 bb3b e03f 833b 10c7 253d 90f3 0cbc
000000c0: e41a 913c 30ee b8bb f444 d4bc 7c8b 863d
000000d0: 40fe 9fba 263c 063d 26d8 00bd 7c74 bbbc
000000e0: dc0e 173d cc20 8cbd 8cb7 e13c 0754 b5bd
000000f0: 1c07 adbd 0cd3 ab3c 08bd 363d d06d 02bc
00000100: fc0e ba3c da6f 66bd 9663 a43d b872 433c
00000110: d037 debb 00ca 8ebd 224a 963d a8d0 dbbc
00000120: 1774 86bd a82e b1bc 4c54 71bd 92bd 69bd
00000130: c018 35bb b463 983d 2947 9cbd 5861 5d3d
00000140: bfa9 3abd f497 9a3d 0078 993d 2abb 973d

weight f4 [10, 84]
-0.06304136 0.10785899 0.023267083 0.06637459 0.103075884 0.07987148 0.047360696 -0.10264447
0.059934683 -0.038317718 -0.026661456 0.016706578 -0.07346364 -0.054843746 0.068368785 0.106044866
-0.0908453 -0.022552818 0.007007219 -0.022552334 0.05168777 0.08216556 -0.072454676 0.032734595
0.069553636 -0.07804373 0.056459658 -0.0074577183 0.05384738 -0.035891794 -0.056305382 0.036855362
-0.02332905 -0.0035974085 -0.0712854 -0.0417348 0.026340388 0.061149932 0.008944102 0.015833475
0.03876447 -0.026597425 0.100695945 -0.105288215 -0.040784158 0.09630061 0.055204816 -0.003361255
-0.035238944 0.068356864 -0.051228687 0.10067249 -0.012257397 0.01772032 -0.10083047 -0.008458033
0.081855975 0.0039437264 0.058448426 -0.08787415 0.0062070414 0.03159403 -0.073067516 0.07117108
0.049941175 -0.0859747 -0.10108134 0.072762854 -0.028332025 -0.10405216 -0.10453489 -0.09639035
-0.03322483 0.055222817 0.024453767 0.036503755 0.008218296 0.07810784 -0.072482795 0.027898468
-0.04361742 -0.0675716 0.0650635 -0.06535034 0.07776 -0.06164045 0.097613804 0.020012178
0.015920408 -0.07887845 0.0006759912 0.02548153 0.031849287 0.09239798 0.015939318 -0.10473313
0.031533353 0.012142144 -0.066531196 0.014024779 -0.016626023 -0.065727524 -0.022448502 -0.08759942
-0.08361926 0.048517726 -0.05473152 -0.014038198 0.021637179 0.10326979 -0.083186015 -0.023137495
-0.0646705 0.019191228 -0.056200664 -0.0861751 0.071150176 0.055233352 0.034185745 0.032336436
-0.09154614 -0.009615757 0.00605686 0.09431312 -0.044991508 -0.03268411 0.07404985 0.00095861405
0.031680323 -0.022610188 0.04361417 -0.062760636 0.004837595 -0.084983364 -0.06352196 0.024640284
-0.10224534 -0.08496545 0.09921735 0.044680305 -0.0029369742 0.020955272 -0.015661933 -0.06517191
-0.09700479 -0.031146288 -0.048385542 0.08557924 -0.058273014 0.051393278 -0.09026448 0.076928966
0.02877774 0.073984556 0.09878602 -0.041131362 0.08303257 -0.006057203 0.08771742 -0.025752984
0.08177134 0.014144726 0.054647364 0.014273047 -0.084727295 0.03763012 0.102909096 -0.10329974
0.09019055 0.08986027 0.07593251 0.06352838 -0.07794962 -0.0474929 0.104336955 0.08340833
0.04012706 -0.0892103 -0.041314267 -0.040156834 -0.033190586 0.09328013 0.047562473 -0.06437324
-0.036962427 0.084172584 0.019700743 -0.06967394 0.0030955374 0.018827803 0.08714498 -0.07530887
0.104611896 0.07948857 -0.08061714 0.098641075 -0.039146602 0.04602384 -0.09271221 0.055223055
-0.08645196 0.027973063 0.016283296 0.0069189966 0.013480082 0.015717834 0.09801661 0.10562336
0.013149224 -0.08799642 -0.050710626 -0.09587121 0.079200886 -0.08244468 0.04624153 -0.07246998
0.016694508 0.034720056 -0.019969799 0.057179265 -0.01959718 -0.016957901 0.039138548 0.052951016
-0.07986243 -0.07355119 0.030615397 0.020763256 0.018425934 0.079443954 0.006886035 0.023388468
0.017818354 0.008451633 -0.08495692 -0.011236884 0.068050556 -0.080481745 0.02579207 -0.081114866
0.07383793 0.0021767914 -0.02195537 -0.07565382 -0.08196766 0.00086119026 -0.017785378 -0.01326099
-0.02228766 0.03689497 -0.09868156 -0.0458678 0.008661434 0.03248263 -0.025659189 -0.0214132
00000000: d41b 81bd 2de5 dc3d 9c9a be3c 67ef 873d
00000010: 7319 d33d a993 a33d 4afd 413d 4437 d2bd
00000020: 127e 753d 0af3 1cbd 2069 dabc 3cdc 883c
00000030: 1b74 96bd d6a3 60bd ef04 8c3d 0d2e d93d
00000040: 1a0d babd b0c0 b8bc d09c e53b acbf b8bc
00000050: 8eb6 533d 6b46 a83d 1e63 94bd b614 063d
00000060: 2372 8e3d 64d5 9fbd 3e42 673d e05f f4bb
00000070: 128f 5c3d 4603 13bd 79a0 66bd a6f5 163d
00000080: 901c bfbc 80c2 6bbb 14fe 91bd 1cf2 2abd
00000090: ccc7 d73c 5a78 7a3d 488a 123c 34b5 813c
000000a0: 7ec7 1e3d d8e2 d9bc ad39 ce3d 59a1 d7bd
000000b0: 4a0d 27bd 4139 c53d 721e 623d 8048 5cbb
000000c0: b656 10bd affe 8b3d 2cd5 51bd 612d ce3d
000000d0: 40d3 48bc 342a 913c 3580 cebd 9093 0abc
000000e0: 1ba4 a73d 603a 813b 9e67 6f3d 5df7 b3bd
000000f0: 7064 cb3b be68 013d 6ca4 95bd 25c2 913d
00000100: 1e8f 4c3d 8113 b0bd bc03 cfbd b104 953d
00000110: 9018 e8bc 4d19 d5bd 6316 d6bd 4e68 c5bd
00000120: c216 08bd 5231 623d 4453 c83c f684 153d
00000130: 08a6 063c 01f7 9f3d dc71 94bd 548b e43c
00000140: 2ea8 32bd fb62 8abd 0340 853d 66d6 85bd
00000150: a340 9f3d b27a 7cbd bfe9 c73d 94f0 a33c
00000160: 846b 823c 068b a1bd 0035 313a a4be d03c
00000170: 6674 023d 273b bd3d 2c93 823c 537e d6bd
00000180: 1e29 013d d8ef 463c 8241 88bd 30c8 653c
00000190: 4c33 88bc 279c 86bd ece5 b7bc 5367 b3bd
000001a0: 9340 abbd 86ba 463d 292e 60bd 7800 66bc
000001b0: 7440 b13c 1d7f d33d 6e5d aabd d88a bdbc
000001c0: f871 84bd ec36 9d3c ab32 66bd 927c b0bd
000001d0: 2fb7 913d 5e3c 623d 5a06 0c3d 3673 043d
000001e0: 8b7c bbbd 688b 1dbc a078 c63b 3d27 c13d
000001f0: 0449 38bd c6df 05bd 73a7 973d 804b 7b3a
00000200: 3ac3 013d 0039 b9bc c6a4 323d a688 80bd
00000210: b084 9e3b c20b aebd cd17 82bd 6cda c93c
00000220: 0166 d1bd 5e02 aebd 7732 cb3d b202 373d
00000230: 407a 40bb 64aa ab3c 744d 80bc da78 85bd
00000240: 73aa c6bd 8026 ffbc eb2f 46bd 2b44 af3d
00000250: afaf 6ebd c281 523d 95dc b8bd ef8c 9d3d
00000260: 4cbf eb3c 3785 973d 5350 ca3d 5c79 28bd
00000270: fb0c aa3d 807b c6bb 31a5 b33d ecf7 d2bc
00000280: bb77 a73d 48bf 673c ead5 5f3d 80d9 693c
00000290: 8185 adbd 0a22 1a3d 01c2 d23d d08e d3bd
000002a0: d3b5 b83d a908 b83d 8182 9b3d 2b1b 823d
000002b0: 0da4 9fbd ea87 42bd 9dae d53d fdd1 aa3d
000002c0: 465c 243d e4b3 b6bd 2639 29bd 7e7b 24bd
000002d0: daf2 07bd a709 bf3d ded0 423d 1ed6 83bd
000002e0: ea65 17bd ad62 ac3d 7463 a13c 36b1 8ebd
000002f0: 80de 4a3b c43c 9a3c 1179 b23d 893b 9abd
00000300: c33e d63d e7ca a23d 991a a5bd 5504 ca3d
00000310: 3058 20bd 7e83 3c3d e6df bdbd 9231 623d
00000320: ba0d b1bd c427 e53c 8c64 853c c0b8 e23b
00000330: 90db 5c3c b0c2 803c efbc c83d 0f51 d83d
00000340: d86f 573c 7837 b4bd f2b5 4fbd 2058 c4bd
00000350: 1334 a23d c2d8 a8bd c267 3d3d 246b 94bd
00000360: ecc2 883c 9e36 0e3d b497 a3bc ce34 6a3d
00000370: 448a a0bc 4ceb 8abc be4f 203d 2ae3 583d
00000380: ea8e a3bd 02a2 96bd 24cd fa3c b417 aa3c
00000390: fcf1 963c 83b3 a23d 40a4 e13b 2c99 bf3c
000003a0: ccf7 913c b878 0a3c e5fd adbd e81a 38bc
000003b0: 175e 8b3d 9dd3 a4bd e449 d33c 8d1f a6bd
000003c0: 5738 973d 80a8 0e3b c0db b3bc 64f0 9abd
000003d0: a9de a7bd 80c1 613a a4b2 91bc a044 59bc
000003e0: 9c94 b6bc 2e1f 173d 8f19 cabd e0df 3bbd
000003f0: b0e8 0d3c 820c 053d 3833 d2bc bc6a afbc

bias f4 [10]
0.007192008 -0.0750435 -0.020029902 -0.07775178 -0.03941682 -0.054770425 0.071687795 -0.04628147
0.04251232 0.0043471977
00000000: f0aa eb3b 68b0 99bd c015 a4bc 533c 9fbd
00000010: 8873 21bd f456 60bd 0dd1 923d a491 3dbd
00000020: 6621 2e3d f072 8e3b
