rust/mnist_cpu.pt (torch, 189934 bytes, 10 tensors)

weight f4 [6, 1, 5, 5]
00000000: 20ad 13bd e660 d03d 006d 40bd a781 483e
00000010: 5631 03be ad53 bebd a254 d23d 708e 8fbc
00000020: 82cf 39be ee60 d33d e891 a1bc d482 193d
00000030: 5afa e33d fd35 383e 8108 133e a27c e33d
00000040: 32c5 923d d006 af3c 77a0 32be 1302 c2bd
00000050: 4e1a 28be ecfb 453d 0ced 743d 93eb ecbd
00000060: a0fd 63bd 0c5a 4cbd 7aac 22be 0755 263e
00000070: 72ac 42be 7acd d2bd cc84 3b3d 5a5f 943d
00000080: 0b2f 40be 7298 cb3d 3e79 1dbe 4cc5 603d
00000090: 8630 f23d 36c7 b73d 0a38 d2bd 8021 1f3b
000000a0: f72e b2bd 80c6 6e3b 00b0 36ba 3d37 00be
000000b0: be2a a43d e8ea 16bd 305b d63c 2f96 31be
000000c0: 9262 e63d d0f2 e3bd e863 bfbc be06 13be
000000d0: 363a 07be 9a17 fcbd b665 fe3d ec18 21bd
000000e0: 90b0 97bd 02af fc3d c025 de3b 3226 b93d
000000f0: 6504 39be f625 14be 906a c7bc 1673 ac3d
00000100: 585a 10be ce02 12be c154 253e 00b2 773b
00000110: e316 16be 4140 223e 009b ebba 0137 043e
00000120: ba6d 9ebd 2327 fabd 7121 393e f272 c63d
00000130: 3a54 c1bd 603a 63bd 40aa a73b f098 fabc
00000140: 2a27 1bbe a098 92bb a097 39bc 8a6a 46be
00000150: 8c5a 0bbd 086d 02be 4008 89bb 80a3 a0bc
00000160: 0c65 27bd 51db 1a3e 28b1 08bd 6dd0 ecbd
00000170: 0048 863b b6c5 d13d 8555 4a3e d001 2c3c
00000180: f96c 443e b065 1f3c e020 85bd 5255 8b3d
00000190: 8a4b 973d 288a 8cbc b974 083e f091 aebc
000001a0: a716 143e d644 853d 8832 69bd c1e1 493e
000001b0: dd0e 473e bde7 cfbd 988b 37bd c893 273d
000001c0: 20a8 08bc 0914 3c3e 2027 75bc 228b cf3d
000001d0: 00d7 b43b c77f 283e ad0f 403e 73ef 403e
000001e0: a097 273c c8a0 12bd b26b eb3d e498 553d
000001f0: 5885 2cbd 20fa 0cbd 2684 813d 0825 40bd
00000200: 65b7 2abe 2d0c e3bd a0f9 563c 6002 db3b
00000210: 80e5 02bb 2284 c83d 4be3 213e 5a26 ffbd
00000220: 900c fb3c 8a91 833d 1b74 22be 9762 b7bd
00000230: e9a3 4a3e 5636 82bd c5bc 1e3e a22c b83d
00000240: af06 2b3e 1fef 0f3e 94b6 83bd ee00 10be
00000250: a332 1fbe 4874 02be
-0.036053777 0.10174732 -0.04697895 0.19580708 -0.12811789 -0.09293304 0.10270049 -0.017523974
-0.18145564 0.10321222 -0.019722894 0.037478283 0.11131735 0.17989345 0.14358713 0.11107756
0.07166518 0.021365553 -0.17444025 -0.09473052 -0.16416284 0.048335955 0.059796378 -0.1156837
-0.055661798 -0.049890563 -0.15886107 0.16243373 -0.19011095 -0.10293098 0.04578094 0.07244749
-0.18767945 0.09941186 -0.15378281 0.054875657 0.11825661 0.08973543 -0.10264595 0.0024281442
-0.08700364 0.0036434233 -0.0006968975 -0.12521072 0.08015965 -0.036845118 0.026166528 -0.17342447
0.112492695 -0.11130297 -0.023363069 -0.1435804 -0.132058 -0.12309189 0.124217436 -0.039330408
-0.074067235 0.123380676 0.0067794025 0.09040488 -0.18068083 -0.14467606 -0.024342805 0.084203884
-0.14096963 -0.14258882 0.16145612 0.0037795305 -0.14657168 0.15844823 -0.0017975271 0.12911607
-0.077357724 -0.12214496 0.18079163 0.09689893 -0.09439893 -0.055475593 0.005116731 -0.030590504
-0.15151659 -0.0044737607 -0.011327654 -0.19376579 -0.0340219 -0.12736905 -0.0041818917 -0.019609213
-0.04086785 0.15122725 -0.033372074 -0.115631916 0.0040979385 0.102427885 0.19759186 0.010498479
0.19182195 0.009728834 -0.06500411 0.06803383 0.07387455 -0.017155722 0.13325776 -0.021309823
0.14461766 0.0650727 -0.056932956 0.19715025 0.19439264 -0.101516224 -0.04481086 0.04091242
-0.008340865 0.18367018 -0.014962941 0.10133959 0.005518794 0.16454993 0.1875598 0.18841343
0.010229021 -0.035797864 0.114951506 0.05214776 -0.042119354 -0.034418225 0.063240334 -0.046910316
-0.16671522 -0.11086307 0.013121039 0.0066836327 -0.0019973218 0.09790827 0.15809362 -0.12458487
0.030645639 0.06424244 -0.15864603 -0.089543514 0.1978909 -0.0635802 0.15501697 0.08992888
0.16701768 0.14056061 -0.064313084 -0.14062855 -0.1554666 -0.1273967

bias f4 [6]
00000000: 6562 15be 6820 7ebd 4735 abbd 5011 bcbc
00000010: 201b 6fbd 08fa 75bd
-0.14588316 -0.062042624 -0.08359771 -0.022957474 -0.058375478 -0.0600529

weight f4 [16, 6, 5, 5]
00000000: 4bc5 3dbd 1f3d 14bd 12c8 053d a474 fabc
00000010: d8cf e63c 609c 043c 0213 063d 14f1 633d
00000020: a01b 4c3d 1cd5 63bd 8f66 39bd 124e a0bd
00000030: 7423 633d cd5c 4abd 6098 03bd e008 0b3d
00000040: 10d6 313c 3860 7a3d 8650 103d 50ed fbbc
00000050: 1829 473d c887 1f3c 520d 06bd 40f6 933d
00000060: 6091 f03c c0ab 31bc 78fa 5c3d 5cf5 0f3d
00000070: 3d6c 13bd ddf0 46bd eaa4 973d 0a72 8cbd
00000080: 9c88 8d3d e67b 883d 7030 bbbb b45e a63d
00000090: 00f3 b9bb dc23 4b3d 9062 81bb e732 a3bd
000000a0: 1c76 833d 64d7 8a3d 0863 253d 9042 95bb
000000b0: 56b0 8f3d 54a7 4bbd dccf dcbc aae4 a23d
000000c0: 1c14 873d e876 cc3c 507e 58bc 4235 9c3d
000000d0: 70df 7bbc 188e 2cbc c0db e5bb 8ef0 993d
000000e0: 082b 6f3d 7c7f 7a3d bc6c 60bd 2eca 85bd
000000f0: 4c24 f8bc 0859 3b3d 5ac2 d6bc 2064 353d
00000100: 5e40 9abd e827 843d 72e0 67bd 6a85 933d
00000110: c477 7f3d 541d eb3c 9069 a03b 78d6 923d
00000120: ec2c 013d f8a7 283c f604 55bd 4ad2 a4bd
00000130: 88c5 a4bd 864d 803d 90ba bbbb d0bd 963d
00000140: e0ae 12bb 4cf5 993d 9451 413d 68ee 52bc
00000150: 64a0 e93c 24d0 3c3d 920b 9d3d 6283 a03d
00000160: ae9d 87bd 6194 13bd 20a7 a0bb 78eb 803c
00000170: e67b 233d c09c 3b3b b0e1 92bc b64b 8a3d
00000180: 24db 5c3d 1fe9 31bd 445c 4c3d 20ae 84bd
00000190: 08a8 263d 01e0 84bd 7775 6bbd 141c 773d
000001a0: a458 87bc 5e57 5ebd 2880 0b3d bc60 713d
000001b0: 38a3 0b3d 5017 78bd c6de 1b3d f43e 943d
000001c0: b8d0 c63c c851 54bc 125f 66bd c0da d83c
000001d0: d8f2 7a3d bb29 42bd d43c 603d a470 a33d
000001e0: d059 8abb 9cb3 9c3d 1878 a13d f03f 4e3d
000001f0: 947b 303d 247b 89bd 7840 093d 505f 793d
00000200: ba11 043d b42a 8ebc 1002 cd3c d82c 96bd
00000210: 007e 9fbd 4ce5 543d 1805 653d 6082 273c
00000220: 0ed0 2c3d 5af6 213d 66f7 113d 36f7 8f3d
00000230: 503b 90bb 70c1 f93c 0036 ce39 c4c5 90bd
00000240: 803d f3bc 2d50 a0bd e5ab 85bd 28dc 5f3d
00000250: 202d 3e3d e096 a33b 2238 54bd 4004 d5bb
00000260: f065 313d 8827 5c3d a8f1 393c a46e 3f3d
00000270: 7676 80bd a08e 8fbd 62d1 b8bc 7094 8c3d
00000280: d4dd eb3c fc84 9a3d 30af 923d 6485 3f3d
00000290: 0254 dfbc 9823 713c f0bb 35bc c8ef 1d3d
000002a0: 745e 6a3d ec5c d1bc e8f4 3cbc e456 693d
000002b0: 0ea3 87bd e00e 5e3d 7888 073d 780d 5c3d
000002c0: c471 673d e8ca 523c 106f 643d 28c2 9b3d
000002d0: f076 0e3d 4e03 a63d 1098 9a3d 320a 7dbd
000002e0: a07f ac3c 38bf 3e3d 360e 89bd 6069 b13b
000002f0: efc9 a4bd d70c 1bbd 14c9 68bd 10f3 9b3d
00000300: 9e1a 293d d60e 0f3d cd66 33bd 48f4 643c
00000310: 4ce6 4f3d cc6c 6c3d 406b 9c3d 21ec 8bbd
00000320: a0b2 1fbb 70d4 583d 4ccf b4bc ca1c 69bd
00000330: 2005 ea3c c0cb a83c 7f8e 72bd ae05 2e3d
00000340: b395 4abd 66a2 39bd 3850 913d cc76 93bc
00000350: 80c2 69bb 4cc8 9a3d 5cbb 3f3d d046 d33c
00000360: 70de 63bd 7628 a7bd 8076 683d 0022 14bd
00000370: 5412 813d 5262 9e3d 5c08 9b3d 9fa6 87bd
00000380: e071 64bb c49d 5e3d 7a1c bcbc f8f7 91bd
00000390: 32b3 1d3d c836 bf3c 60a9 ff3c 2ca6 60bd
000003a0: 7ea0 42bd 7091 553c 0643 8c3d b47d 533d
000003b0: a8d8 91bd fc09 833d 2807 31bd 5821 513c
000003c0: 40ee ca3c ec37 a93c 9ce8 b63c 8297 6abd
000003d0: c2c8 a13d c00e 6d3c 6817 383d e87d 58bc
000003e0: f406 63bd 7046 113d f40e 4f3d a07d 57bc
000003f0: 7bdb 45bd 404e e73c 8b77 a0bd c225 8dbd
-0.04633073 -0.036191102 0.032661505 -0.030573197 0.02817528 0.008093923 0.03273297 0.055649832
0.049831033 -0.05562316 -0.045263823 -0.07827391 0.055453733 -0.049404908 -0.032127738 0.03394401
0.010854259 0.061126918 0.035233043 -0.030752808 0.048623174 0.009736963 -0.032727547 0.07224703
0.029366195 -0.010844171 0.053949803 0.035146102 -0.035991896 -0.04856955 0.07404502 -0.06857689
0.06910822 0.06664257 -0.0057125613 0.08123532 -0.00567472 0.049594745 -0.003948517 -0.07968693
0.06419012 0.06779364 0.040377647 -0.004555054 0.07016055 -0.049720123 -0.026954584 0.079537705
0.065956324 0.024959043 -0.013213709 0.076273456 -0.015373096 -0.010531925 -0.0070147216 0.07516585
0.058390647 0.061156735 -0.054791197 -0.06532703 -0.030290745 0.045739204 -0.02621572 0.04428494
-0.07531808 0.06452924 -0.056610532 0.07203181 0.062370077 0.028700508 0.0048953965 0.07169813
0.03153698 0.010293953 -0.052006684 -0.08047922 -0.080454886 0.062647864 -0.005729027 0.073604226
-0.0022382066 0.0751749 0.04719694 -0.012874223 0.028518863 0.046096936 0.076682225 0.07837559
-0.06621872 -0.036030177 -0.0049027354 0.01573728 0.03991308 0.0028627366 -0.017929882 0.06752722
0.053919926 -0.043435212 0.04989268 -0.06478524 0.04068759 -0.06488038 -0.05748507 0.06032951
-0.01652176 -0.05428254 0.034057766 0.058930144 0.034091204 -0.060569108 0.03805425 0.0723857
0.024269447 -0.012958951 -0.05624301 0.026471496 0.06126675 -0.04740308 0.05474551 0.07980469
-0.0042221323 0.07651445 0.07884234 0.050353944 0.043086603 -0.0671294 0.033508748 0.060881913
0.032243468 -0.017354347 0.025025398 -0.07332772 -0.077877045 0.051976487 0.05591306 0.010223955
0.042190604 0.03954158 0.03563633 0.070295736 -0.004401602 0.030487746 0.00039331615 -0.07068971
-0.029692411 -0.07827792 -0.06526927 0.054653317 0.046429753 0.004992351 -0.051811345 -0.006500751
0.043310106 0.053748637 0.011349119 0.046736374 -0.06272595 -0.070096254 -0.022560779 0.0686425
0.0287923 0.07544896 0.071623206 0.04675807 -0.027261738 0.014717959 -0.011092171 0.03855875
0.057218984 -0.025557004 -0.011533 0.05696763 -0.06622897 0.054213405 0.03308913 0.053723782
0.05650498 0.012865759 0.05576998 0.07605392 0.034781396 0.08106099 0.07548535 -0.0617773
0.02105695 0.04656908 -0.06692164 0.005414173 -0.08046328 -0.037854042 -0.056832388 0.0761472
0.04128515 0.034926258 -0.04379921 0.013974257 0.050756738 0.057720944 0.07637644 -0.068321474
-0.0024367943 0.05293697 -0.022071503 -0.05691222 0.028566897 0.020604968 -0.059217926 0.042485885
-0.04945917 -0.04532089 0.07095379 -0.018000983 -0.003566891 0.07557735 0.04680954 0.025790602
-0.055632055 -0.08162014 0.056753635 -0.036165237 0.06302324 0.07733597 0.07569954 -0.06623577
-0.0034857914 0.054349676 -0.022962797 -0.071273744 0.038500972 0.023341551 0.031208694 -0.054845974
-0.04751634 0.013035163 0.06848721 0.05163355 -0.07121402 0.06398389 -0.043219715 0.012764297
0.02477181 0.020656548 0.022327714 -0.057273395 0.0789962 0.014468849 0.044944197 -0.013213612
-0.055426553 0.035467565 0.05055137 -0.01315251 -0.048305016 0.028235555 -0.07835301 -0.06891967

bias f4 [16]
00000000: e0b6 ae3b 4001 863d b848 6abd f86f 2f3c
00000010: 902a 943d 4007 b0bb 0de8 44bd 6121 9abd
00000020: 00c8 773c bdec 90bd a0f2 553d 9fc6 4fbd
00000030: 20a1 843d 903a 0dbd 64af 95bd 80d4 533a
0.005331859 0.06543207 -0.057198256 0.010707848 0.07234681 -0.005371958 -0.048072863 -0.07525898
0.015123367 -0.07076404 0.05223334 -0.05072653 0.06476045 -0.034479678 -0.07308844 0.0008080676

weight f4 [120, 256]
00000000: d88a bfbc c0df b33c b07d 9abc 8076 a93a
00000010: 1459 ec3c 906a 5ebd 16cb 49bd 90bd da3c
00000020: 106c 8d3c 2010 75bc a036 a9bc 688b b73c
00000030: 88ba 7f3d b46a bf3c 70a1 143d 2422 aabc
00000040: 5c25 02bd 5c67 78bd 2839 61bc 7c94 c93c
00000050: c03e eebb b85e 1dbc b64b 36bd d002 75bc
00000060: 3663 28bd ce32 5dbd d0c9 c5bb eaa1 4d3d
00000070: dcf7 d33c d04a d3bc c819 3ebc 023b 4fbd
00000080: f602 283d 0004 5abb 68ec d2bc b815 53bd
00000090: d0c1 edbc 4e51 57bd 9482 e83c 1898 103c
000000a0: 1898 5e3d 14df e23c 8016 993c be64 7abd
000000b0: 40a1 8cbb de48 24bd 785c 0e3c 74ec a9bc
000000c0: c625 34bd 68b3 a33c e635 30bd 10e7 a43b
000000d0: 0087 97ba da59 373d 949c ecbc ae5e 0e3d
000000e0: e008 a0bc 1cac 7a3d 02da 173d 58f9 5a3c
000000f0: 3a20 56bd fc8d a0bc ca5c 6f3d ccbd a4bc
00000100: 305a babb 7cd1 32bd 6653 5c3d 04ba 1b3d
00000110: b0c3 49bd e089 4f3d c89d 05bd 3834 58bc
00000120: b08c f0bc 0cdf 693d dc96 ed3c d40c c53c
00000130: c80f 353d c8e1 423c b478 fe3c 32cc 18bd
00000140: 7c76 bbbc e0bc a6bb 4049 183d 7813 14bd
00000150: 7817 95bc 0c0e 413d e2f9 4bbd 585b 23bd
00000160: 504d 283c 6a0a 07bd b04a 383d 226f 703d
00000170: 801d 2abc 32d3 31bd c671 70bd ccc3 26bd
00000180: 684a 34bc 067b 31bd 9444 ef3c fc77 f7bc
00000190: 1852 22bc 5cc9 f8bc 40ea 1a3c ec43 d9bc
000001a0: 602b 1f3c 9851 1a3d 1ccc a33c da40 5f3d
000001b0: 700f c73b 90a6 d33c 6e81 2d3d 403c 3a3b
000001c0: 78c2 01bd b408 f23c 60ef 5d3c c0a3 bebc
000001d0: aa24 423d c092 313d 26f1 4f3d 2ee3 6d3d
000001e0: dc28 94bc ccd0 78bd 1008 d5bb bed2 60bd
000001f0: 88dd d13c 244d 00bd 68e1 773c d67d 40bd
00000200: e2f0 29bd 904d c1bc f60f 01bd 040c c4bc
00000210: 56c3 013d 602c 7b3c e0bd 34bb 54a6 573d
00000220: 4073 d93b 38ac bebc e093 4dbc 5cf7 30bd
00000230: 444d a73c 8429 02bd ecab ec3c 80a3 143d
00000240: 4cd6 863c e0ce bcbc d053 223d fca0 da3c
00000250: 789a a23c 20f1 08bc 44b0 8fbc 88c3 31bd
00000260: 92a2 0cbd ee61 35bd e02e c3bb 2cd3 c73c
00000270: 6c6d c13c 40f2 b33c 0020 ea3b 8665 17bd
00000280: 645e d3bc 0683 19bd 0853 203d e476 4fbd
00000290: 8c4c cf3c b2d6 383d 2e8d 59bd b4f5 4abd
000002a0: 2803 0abd d41f abbc 84e6 0dbd 44a5 13bd
000002b0: 0089 44bb 6a12 663d 685e 5fbc 9816 533c
000002c0: 2018 7b3c 86fa 1a3d 680f 20bd 7c66 f13c
000002d0: 68c0 213c 2288 263d 7042 3cbd 9800 03bc
000002e0: e4b8 ac3c 4e86 41bd 80c5 0b3a b496 d5bc
000002f0: c014 1d3b 9c06 c23c a625 78bd ee90 15bd
00000300: 04c8 9fbc ecc0 a13c 4071 703c 5850 74bc
00000310: 482f 42bd 384a 313c 0266 4fbd 3228 08bd
00000320: d820 643d 88cd db3c b89e 5d3d fea6 6f3d
00000330: 9ae3 2abd 68c6 d53c 3ae4 62bd 7059 1bbd
00000340: a094 313c 182b 0d3c fcd5 a03c e64e 163d
00000350: 4e52 3e3d 38a2 233d 0806 323d 405a 8f3a
00000360: dab7 163d f831 ecbc 00e6 a43c 9ae2 46bd
00000370: 9867 3c3c 70c1 543c 72d0 69bd c038 12bd
00000380: fe8b 713d f8c8 3dbc 562e 203d 447f 77bd
00000390: 30e6 07bd bcb2 463d 0031 123b ee8c 1abd
000003a0: 78ac 2f3d 4c79 d7bc 1050 1ebc 1ab7 4b3d
000003b0: 8e99 39bd f87e c3bc 2e02 3dbd 1a32 57bd
000003c0: 105a 87bc b82f 2cbd 80c6 5b3a ec49 3bbd
000003d0: e0ed 9dbc c884 e23c c8ef 4f3d 9ce8 483d
000003e0: 642a a7bc 1c24 9ebc acaa 613d c0e6 743c
000003f0: 80ec 5c3d dcd6 94bc 00a3 19ba 24c5 01bd
-0.023381636 0.021957278 -0.01885876 0.0012928993 0.02885107 -0.054300845 -0.049265943 0.026701719
0.017263442 -0.014957458 -0.02065593 0.022405341 0.06243375 0.02336631 0.03628677 -0.020768233
-0.03177391 -0.060645446 -0.013746537 0.024606936 -0.007270664 -0.009605102 -0.044505797 -0.014954284
-0.04111024 -0.05400353 -0.006036021 0.05020324 0.025875024 -0.02579251 -0.011602826 -0.050593384
0.04101845 -0.0033266544 -0.025747493 -0.051534384 -0.029023081 -0.052567773 0.028382577 0.0088253245
0.054344267 0.027694263 0.018687487 -0.06113123 -0.0042916834 -0.040108554 0.008689038 -0.020742632
-0.043981336 0.019983009 -0.04302015 0.0050324276 -0.0011560619 0.044763424 -0.028883256 0.034758262
-0.019535482 0.061199293 0.037073143 0.013365112 -0.052276827 -0.019598953 0.0584381 -0.020110033
-0.0056870207 -0.04365681 0.053790472 0.038019195 -0.049258888 0.050668597 -0.032621175 -0.013196044
-0.02936396 0.05709748 0.0290026 0.024053968 0.044204503 0.011894651 0.031063415 -0.03730411
-0.022883646 -0.0050884336 0.03717923 -0.03615138 -0.018199667 0.047132537 -0.049798854 -0.039882034
0.010272339 -0.032968916 0.044993103 0.058699735 -0.01038301 -0.043414302 -0.058702253 -0.04071407
-0.011004068 -0.043330215 0.029207505 -0.03020858 -0.009907268 -0.030369453 0.009455264 -0.026521645
0.009714931 0.03767547 0.019994788 0.054505207 0.0060748383 0.02583626 0.042359762 0.002841726
-0.0316796 0.029545166 0.013545841 -0.023271441 0.047398247 0.043352842 0.050767086 0.058077984
-0.01808589 -0.060746 -0.0065012053 -0.05488848 0.02561833 -0.031323567 0.015129425 -0.046995007
-0.04148949 -0.023596555 -0.031509362 -0.02393151 0.031680427 0.015330404 -0.0027578995 0.052648857
0.0066360533 -0.02327548 -0.012547463 -0.04320465 0.020422585 -0.031777874 0.028890572 0.03628874
0.016459607 -0.023047864 0.03963071 0.026688091 0.019849047 -0.00835827 -0.017540105 -0.043399364
-0.034334727 -0.044282846 -0.0059565157 0.024392687 0.023611747 0.0219661 0.007144928 -0.036962055
-0.025801845 -0.03747847 0.039141685 -0.050650492 0.025305055 0.045126624 -0.053113155 -0.049550727
-0.033694416 -0.0208892 -0.034643665 -0.03604628 -0.0029988885 0.056169905 -0.013633348 0.012883805
0.015325576 0.037836574 -0.039077193 0.029467814 0.009872533 0.04065717 -0.045961797 -0.007995747
0.021084256 -0.047247224 0.0005331859 -0.026072837 0.0023968667 0.023684792 -0.06058278 -0.03651517
-0.019504555 0.019745313 0.014675438 -0.014911734 -0.047408372 0.010820918 -0.05063439 -0.03324146
0.055695385 0.026831403 0.054106444 0.058508866 -0.041720964 0.026095584 -0.055393435 -0.03792709
0.010838658 0.008616231 0.019633286 0.036696337 0.04646521 0.039949626 0.043462783 0.0010936931
0.03679643 -0.02883242 0.020129204 -0.048555948 0.011499308 0.012985572 -0.057083555 -0.035698652
0.058971398 -0.011583559 0.03910669 -0.060424104 -0.03317851 0.048510298 0.0022307038 -0.037732057
0.04288909 -0.026302956 -0.009662643 0.049735166 -0.045312457 -0.023864254 -0.046144657 -0.052538015
-0.016522437 -0.042037696 0.0008383766 -0.045724794 -0.019278467 0.027651206 0.050765783 0.04904996
-0.020405956 -0.019304328 0.055094406 0.014947593 0.05393648 -0.01816886 -0.0005860776 -0.03168215

bias f4 [120]
00000000: 5868 bbbc 18ac 7cbd 18ce 6c3c c04a 01bd
00000010: d071 e8bc 40a3 823a 5ec1 1ebd fa56 71bd
00000020: 8caf c23c 802d e43b f6a8 7e3d 68cf 77bc
00000030: 0434 18bd 3018 f73b e4c1 c83c 7082 ce3c
00000040: 706e 3ebd bc4c 49bd 68d7 00bd 5c58 0bbd
00000050: faea 203d aeac 2dbd 0cac edbc 1a11 2dbd
00000060: e698 1bbd b0fd e13b 2ac7 0c3d 9abf 113d
00000070: cc3f 7e3d 04d9 4f3d 2024 7fbb 2003 12bb
00000080: 8ef1 08bd 9cbd 423d 10d9 f7bb 5838 593d
00000090: ec9f 0cbd 20b9 7fbc 9262 43bd 2657 13bd
000000a0: 4c80 e13c fee8 2abd 3e3b 3c3d 80a7 0c3d
000000b0: a0b3 1abc dec9 5ebd d816 fa3c 508d 313c
000000c0: 7496 3c3d bec9 4c3d a033 26bc 701e b6bb
000000d0: 6826 4e3c 1eba 173d 00c3 b73b 8086 083c
000000e0: b483 ddbc 7818 9f3c 980a 67bd 1289 3fbd
000000f0: d660 6f3d 04e9 febc 503a 353c 544d 82bc
00000100: 1811 e4bc 26dc 75bd f810 463c 2878 74bd
00000110: 76e5 133d 0a8c 0ebd 84e6 f63c e818 1f3d
00000120: 2c38 05bd 80e4 b6ba 4a90 0abd 0438 463d
00000130: 10a5 41bd cc95 2b3d 70ab 0dbc fe3f 1e3d
00000140: 7083 febc 207e 72bd 1481 e6bc 1c54 5dbd
00000150: f4e7 f3bc d217 5b3d 208a 9d3c 0cf7 cb3c
00000160: 306f edbb 40ee edbc 329b 49bd 08e9 25bc
00000170: f289 18bd b4e2 643d 50ea 1cbc 3c8a c43c
00000180: b6c0 64bd 10e8 c03c 201b b63b ae64 2d3d
00000190: a4c4 cdbc 489d 693d 48d7 b43c 8449 71bd
000001a0: 2e43 3c3d 90ff f6bc 90fb 563d 9a5b 0f3d
000001b0: 20f2 2f3b a803 493c 7cb4 0cbd f402 6e3d
000001c0: a8c8 373c 9eaa 4f3d fed8 76bd da9c 5abd
000001d0: 6043 01bc 3c9d 163d 72c9 6d3d 00da 5b3d
-0.022876903 -0.06168756 0.014453433 -0.031565428 -0.028374583 0.0009966865 -0.038758628 -0.058920838
0.023765348 0.006963432 0.062172852 -0.015125133 -0.03715898 0.007540725 0.024506517 0.025208682
-0.04649204 -0.049145445 -0.031455427 -0.034019813 0.03928659 -0.04240101 -0.029012702 -0.042252637
-0.037987612 0.006896697 0.034369625 0.035583116 0.06207256 0.05074407 -0.0038931444 -0.0022279695
-0.03343349 0.047544107 -0.0075637177 0.05303225 -0.0343322 -0.015608102 -0.047701426 -0.035971783
0.027526997 -0.041726105 0.045954935 0.034339428 -0.00944224 -0.054391734 0.03052847 0.010836914
0.04604192 0.049997084 -0.010144144 -0.0055578277 0.012582399 0.03704273 0.0056079626 0.008332849
-0.02704034 0.019420847 -0.056406587 -0.04676158 0.05844196 -0.03111697 0.011061266 -0.015906014
-0.027840182 -0.060024403 0.012089007 -0.059684902 0.036107503 -0.03480152 0.030139215 0.03884211
-0.032524273 -0.0013953596 -0.03382901 0.048393264 -0.047276556 0.041890904 -0.008646831 0.038635246
-0.031068534 -0.059202313 -0.028137721 -0.05403529 -0.02977369 0.053489514 0.019230902 0.024898075
-0.0072459206 -0.02904427 -0.04922027 -0.01012636 -0.03724093 0.055880263 -0.009577349 0.023991697
-0.055847846 0.023548156 0.005557433 0.042332344 -0.02511818 0.05703476 0.02207531 -0.058908
0.045962505 -0.030151159 0.052486002 0.034999467 0.0026847199 0.012268938 -0.03435181 0.058108285
0.011217274 0.050699823 -0.060265534 -0.05337224 -0.007889599 0.036771044 0.05805344 0.053674698

weight f4 [84, 120]
00000000: 8cb1 d83c 7cc4 c0bc 8053 763a fb5b 89bd
00000010: ac26 243d cdcc 76bd 4833 a53d a0cc 9dbb
00000020: a013 8f3c d890 1e3c 83b5 6cbd 150e 2dbd
00000030: c052 24bc 8280 a43d fcd3 0c3d ec74 113d
00000040: c078 1a3d 9c6e a5bd e0b7 1ebb 582b 253d
00000050: 106a a0bc 38b8 93bd 6010 163b 8c19 243d
00000060: b089 a2bb a4db 613d 83bf 5fbd f780 9ebd
00000070: 70c2 9fbb fe12 6abd 9815 ae3d b8ad ae3d
00000080: 80e1 4c3c 58ac 573d 80ef 463d 1cc7 a03d
00000090: d8ed 023d 1096 b5bd 0405 563d b2be 79bd
000000a0: 4cd2 a9bd fc72 563d b035 363d 14cf a2bc
000000b0: 66d9 febc 185b 723d acb5 acbd 6c5e 81bd
000000c0: cf25 acbd ad8a 10bd ece2 803d 24a0 bebc
000000d0: 3e1e 20bd c060 563c 98a6 81bd e443 24bd
000000e0: 2812 ba3c 24a8 b3bc 703a eb3b 5ab2 b53d
000000f0: 006d b53c 08c7 78bd 8251 f7bc b06d 873d
00000100: f8d7 b83d 0ec4 94bd 8240 9b3d 28c2 9a3c
00000110: 04d3 703d f463 5c3d 104a 83bb 40ed 753b
00000120: d830 913c a39b b8bd 8020 673d cead b63d
00000130: 3775 3fbd ace2 abbd 9cda a93d c05f 6fbb
00000140: 769f 98bd e014 da3b e2a8 943d d287 80bd
00000150: f87a 36bc 802e aeba 1e18 a63d 728a 9abd
00000160: 9e10 a23d c068 b83c 3bcf 44bd 4085 8dbd
00000170: 80bb c63c b553 41bd 39b4 a0bd 3868 0c3d
00000180: 2c5e 193d 7e20 4bbd 3093 17bc 0020 9abd
00000190: a802 813d 6085 473b ece9 b9bc ee34 ae3d
000001a0: dc17 3a3d f046 6ebd 8ff8 b2bd 087f 353c
000001b0: a2b6 ae3d 689f 8c3c bcf1 b7bc c519 63bd
000001c0: 8ff6 40bd eabc 833d 7839 a7bc 9eb6 b23d
000001d0: 2c43 053d 08c7 5d3d b451 763d 8960 a7bd
000001e0: 682b 583c aced 6a3d 6218 973d 1876 7e3d
000001f0: c290 853d 211a b8bd f46c 7d3d ebbf aebd
00000200: 02b0 b6bd bcfc 8d3d 7cda 753d 8c6a 9b3d
00000210: 5551 0cbd 6c41 51bd e6c8 9d3d 6cd1 3c3d
00000220: c259 b4bd e0b3 163d 1045 5fbd 10e1 733d
00000230: bc6b 853d 4ef7 64bd 12b7 a0bd d875 703c
00000240: 829f 073d 7eb0 80bd 7695 8b3d cbf7 55bd
00000250: 8a09 ae3d 6c04 423d 6983 31bd 91d0 87bd
00000260: f8e5 ac3d 9bcb b4bd 516d 06bd 7082 8a3c
00000270: 56b1 b7bd 87b1 0fbd 9c80 a43c 4088 6dbd
00000280: 54ea 273d 1d14 a3bd bbc1 6bbd c41d a9bc
00000290: 22dd 87bd d6c6 843d 7a09 52bd b9d5 10bd
000002a0: 0258 a43d 2014 e8bc 64c1 8fbd b00e 3bbc
000002b0: c4f0 8f3d 894f 2dbd 1a90 9bbd c089 94bc
000002c0: f0d2 193c 8c6d 193d acbd b83d 2027 e63c
000002d0: 20eb afbd c0be 45bb c055 68bc b6b9 ad3d
000002e0: b0d6 033d c046 c3bb 4fdf b8bd 5420 b23d
000002f0: a0fe c6bc b41d 473d 0c63 4c3d 04d4 af3d
00000300: dd91 22bd 40ba 55bc 70f3 943b c3e5 87bd
00000310: 65fd 95bd a6cd 34bd 04d1 2f3d a4aa 893d
00000320: b150 99bd e8af ff3c b199 10bd b8dd b2bc
00000330: 00b5 983d d0ba 2c3d b442 7a3d bc25 403d
00000340: 3175 66bd b6ca 043d 60a1 6fbc fe5c 24bd
00000350: a56a 10bd fc69 523d c046 9abb d87c d4bc
00000360: d28b a13d 4417 9cbd e8d3 873d 8c9f ae3c
00000370: 0897 f33c 3253 af3d 9a9e 9cbd cce3 813c
00000380: 9237 8e3d 2644 5bbd be54 903d 5691 85bd
00000390: 6059 26bc 8c7c 98bd c06d e5ba 9075 f1bb
000003a0: 04fa 58bd 801e 60bb d25b 33bd 00af e2bb
000003b0: 4f96 2abd f8ce 213d 82dd 95bd 98c6 a2bc
000003c0: d5a9 87bd 04cd 8b3d 38d9 a2bd 1447 afbd
000003d0: c8de 18bc 68d2 a63d f0c5 5a3d 26ab b13d
000003e0: 609a 82bc c07a 62bb d27a ab3d 247d 8e3d
000003f0: dda6 07bd 7b81 afbd 7007 373c f0d9 c5bb
0.026451848 -0.023531191 0.0009396598 -0.06706997 0.040075943 -0.060253907 0.08066422 -0.004815653
0.017465413 0.009678088 -0.05779029 -0.042249758 -0.010029495 0.080323234 0.03438185 0.035511896
0.037712812 -0.08077738 -0.0024218485 0.04032454 -0.019581825 -0.07212871 0.0022897944 0.040063426
-0.0049602613 0.055141106 -0.054626 -0.07739442 -0.0048754737 -0.05714702 0.085002124 0.08529228
0.012504935 0.052654594 0.04856825 0.07850477 0.031965107 -0.08866513 0.052250877 -0.060972877
-0.08292064 0.05235575 0.044484794 -0.019874133 -0.031109523 0.059168905 -0.08433089 -0.06316838
-0.08405649 -0.0352885 0.06293282 -0.02326972 -0.03909134 0.01308459 -0.06330603 -0.040103808
0.022713736 -0.021930762 0.007178597 0.088719085 0.022146702 -0.060736686 -0.030190233 0.06612718
0.09025568 -0.07263957 0.07580663 0.018891409 0.05879499 0.05380626 -0.0040066317 0.0037525445
0.017723486 -0.0901406 0.05642748 0.08919869 -0.046742644 -0.083928436 0.082936496 -0.0036525577
-0.0745229 0.0066553205 0.07258774 -0.06275906 -0.0111377165 -0.0013289005 0.08110069 -0.075459376
0.07913326 0.022510886 -0.048049193 -0.06910181 0.024259329 -0.04719897 -0.07846875 0.03427908
0.037443325 -0.049591534 -0.009251401 -0.07525635 0.06299335 0.0030444488 -0.02269455 0.08506189
0.04543291 -0.05817312 -0.08738815 0.01107765 0.08530928 0.017165855 -0.022454135 -0.055444498
-0.047110137 0.06432517 -0.020413145 0.08726238 0.032534763 0.05414489 0.060136512 -0.081727095
0.013193943 0.057355568 0.073776975 0.06212434 0.06521751 -0.08989359 0.061871484 -0.08532699
-0.089202896 0.06932971 0.060022816 0.075886816 -0.03425725 -0.05108778 0.07704334 0.046098158
-0.088061824 0.036792636 -0.054509223 0.05954081 0.06514689 -0.05589991 -0.07847418 0.014676534
0.033111103 -0.06283663 0.06815617 -0.052238267 0.08497913 0.0473675 -0.043338213 -0.06631578
0.084423006 -0.08827897 -0.032819096 0.0169079 -0.08969371 -0.035081413 0.020080857 -0.057991266
0.040994957 -0.07962821 -0.057557803 -0.020644076 -0.066339746 0.064832374 -0.05127857 -0.03536007
0.08024599 -0.028329909 -0.07019308 -0.011417076 0.07028344 -0.04231218 -0.075958446 -0.01813209
0.00938867 0.037457988 0.09020552 0.028094828 -0.085897684 -0.003017351 -0.014180601 0.08482687
0.032187164 -0.005959362 -0.09026968 0.08697572 -0.024291337 0.04861231 0.049899146 0.08585361
-0.039689887 -0.013044894 0.0045456216 -0.066356204 -0.07323722 -0.044141434 0.042923942 0.06722
-0.07486094 0.031211808 -0.03530282 -0.02183424 0.07456398 0.042170346 0.06109877 0.046910986
-0.056264106 0.032419883 -0.014625877 -0.040127747 -0.035257954 0.051370606 -0.004708141 -0.025938436
0.07887997 -0.07621625 0.06632215 0.021316312 0.029735103 0.0856079 -0.07647438 0.015855692
0.06944193 -0.05353179 0.07047413 -0.06521861 -0.010153145 -0.074456304 -0.0017504022 -0.007368751
-0.05297281 -0.0034197867 -0.04378874 -0.0069178343 -0.04164725 0.03950402 -0.0731764 -0.019870088
-0.0662419 0.06826213 -0.079515874 -0.08558479 -0.009330459 0.081456006 0.053411424 0.08675222
-0.015942752 -0.0034558028 0.083730355 0.069574624 -0.033118118 -0.08569618 0.011171207 -0.006037943

bias f4 [84]
00000000: 7a73 13bd 1071 b6bb 64f6 683d d8f5 a23d
00000010: e8e7 b03d bc49 d53c 405f b33d dc4a 563d
00000020: 9ed5 b53d ca6c a63d be7e 833d 2057 973c
00000030: a8d1 843d 1c3c dbbc 4c9b 8b3d 1817 31bc
00000040: 2cd2 a1bc 5c15 6b3d a83c c73c 800b 5ebb
00000050: c8c5 88bd 7e5e 963d f837 953d 169c 9fbd
00000060: 405e 65bb cae1 a23d ab8d 91bd 0423 923d
00000070: 02cf babd 307f 30bc d8de 493c dccd 7a3d
00000080: e4d4 243d 65a5 99bd aeb1 69bd c132 65bd
00000090: c0fe a63d b057 c23c 7892 bbbc fa36 873d
000000a0: e71f 9abd e868 103d 20d9 b1bd 005e 1b39
000000b0: e87c aa3d 08b5 28bd dcf1 273d 8cd7 a23c
000000c0: 1c22 a9bc 581d cdbc c61d 873d 4e47 0cbd
000000d0: 7c51 babc e226 8cbd 58cc 983d fb7f 36bd
000000e0: e28b b63d e09a 7bbb d0e7 a7bb 907c 903d
000000f0: 48d8 cb3c 44b9 a13d 5420 483d 6c73 a8bc
00000100: 872d 22bd 8838 223d 59bd 01bd a26e a13d
00000110: 58c9 943d dc0f eabc 7860 c7bc 103d f4bb
00000120: 757f 61bd b8dc 25bc 7853 2e3d f030 e8bb
00000130: 48c4 1fbc 7cf0 463d e05a 683b 9085 3d3d
00000140: c25c 41bd 42a8 92bd 8014 83bb 28f7 943d
-0.0359988 -0.0055676773 0.0568756 0.07957047 0.086379826 0.026036136 0.08758402 0.052317485
0.08878635 0.081262186 0.064206585 0.018474162 0.06485301 -0.02676206 0.0681673 -0.010808729
-0.019753538 0.057393417 0.024320915 -0.0033881366 -0.06678349 0.07342242 0.07286066 -0.07793443
-0.0034998804 0.07953222 -0.07107099 0.07135585 -0.09121515 -0.010772511 0.0123211965 0.06123148
0.04024209 -0.0750225 -0.057054214 -0.055956606 0.081540585 0.023723453 -0.02289699 0.06602283
-0.07525616 0.035256296 -0.086839914 0.0001481697 0.08324605 -0.04118827 0.04100214 0.019878171
-0.020646147 -0.025038406 0.06597476 -0.03424769 -0.022743933 -0.06843354 0.074608505 -0.044555645
0.08913399 -0.0038391873 -0.0051240698 0.070550084 0.024883404 0.07896665 0.048858956 -0.02056285
-0.0395942 0.039604694 -0.031674717 0.0788243 0.07264966 -0.028572015 -0.024337992 -0.0074535683
-0.055053193 -0.010123424 0.04256007 -0.007085912 -0.009751387 0.048569188 0.0035454556 0.046269953
-0.0472076 -0.07160999 -0.0040002465 0.07273704

weight f4 [10, 84]
00000000: 7ab7 2d3d 04f2 dc3c a85e 73bd c94f d23d
00000010: 2047 333b c874 7ebd 69b5 9cbd 006d d9bd
00000020: f754 cebd f672 3a3d b591 8b3d 5cac cf3c
00000030: f06c c7bb 420e 043d ed0d d03d c3cb cabd
00000040: c097 8cbd c866 51bd f533 aebd 5092 33bc
00000050: 9be1 a43d afa9 893d b4f7 37bd f68c 23bd
00000060: 08e4 1cbc 8383 8fbd 563a 323d dae2 6f3d
00000070: ecb2 f7bc 5912 dbbd 6ed8 303d e03e 0fbb
00000080: bd2f 943d e81e 87bd 99e8 d4bd 5101 aa3d
00000090: 8caa b23c 01e7 b13d 704f d5bd baec 463d
000000a0: dcb2 10bd 4805 9dbd e049 d8bb 3bee a33d
000000b0: 0856 04bd 3022 63bc 18ef 523c 8672 463d
000000c0: 80fe 1cbd 35bf dc3d 4009 66bd ba2d a6bd
000000d0: b066 dfbc 48a5 273c d59b c43d 172b b13d
000000e0: fc4c efbc f3e5 6fbd 1c7c 37bd 98df 56bc
000000f0: bef2 3abd 50ed 2ebc b8f5 0e3c 773e 823d
00000100: e96f debd e0fe 07bb 76f8 bcbd 0b0a dfbd
00000110: 2d17 8a3d 6bb0 cb3d a114 d43d 249f d43c
00000120: 003a ff39 2f78 48bd d071 ffbb ba90 043d
00000130: c211 793d d7f5 4cbd ec4c a53c f09c 11bd
00000140: 20c8 94bd 0ce7 9fbd ad14 b83d 00e8 91bb
00000150: 4aa1 3c3d a026 0c3c c5fa d4bd 32ab 0d3d
00000160: 37c4 b63d 9926 b43d ba42 6b3d 5625 1ebd
00000170: 2a37 443d 48bf 333c 7ecf 563d f46e 47bd
00000180: f682 3f3d aa98 b4bd 6a23 d7bd 5201 91bd
00000190: da3e c9bd cbb1 d43d 929b 353d 9d18 de3d
000001a0: caed 4f3d 4ff7 a23d 7a56 4c3d 0600 49bd
000001b0: 764f 1bbd 0bbb 9b3d d74c c53d 0bff d13d
000001c0: 6413 b13c 9390 7bbd 80b2 58ba 17cc a9bd
000001d0: f070 ffbb de4e 84bd 16f6 3e3d e6d1 d5bd
000001e0: 804a a63a 1832 87bd ea7a 0abd 973f 4fbd
000001f0: 2335 b83d 29ff b8bd 5f08 8cbd 362a 403d
00000200: 2899 82bc 3129 d4bd cdf1 91bd b5ab c5bd
00000210: ebd0 b33d aa92 cfbd 72dc 293d 45ef 46bd
00000220: de24 d2bd cea6 363d 38b2 6a3c 7284 2fbd
00000230: 23ee 9e3d 6eb0 7f3d 362c 9bbd 6da4 70bd
00000240: 20bd 383c fabf 593d 542b b43c c982 cc3d
00000250: 4d6d dabd 4002 bdba f8db 28bd 1998 c43d
00000260: f013 22bd 0709 a63d 990c b93d a134 d73d
00000270: 4ee4 64bd 16fc 633d dc9d e2bc de95 3b3d
00000280: 5237 773d 5442 a03c 7d5b 803d 0a9d 0e3d
00000290: 825a 533d 7e85 553d 84d6 bcbc 8896 63bc
000002a0: a3e8 be3d 5e68 02bd 5225 303d 7a82 3b3d
000002b0: 5e8c 183d 2055 b9bc 9360 873d e601 1a3d
000002c0: 33f6 9b3d 8843 3dbc 3c4e b63c b205 22bd
000002d0: 65c4 d83d e9ab abbd 6006 803b 908a 38bd
000002e0: 67fa c83d c8f4 fdbc cf4a d33d 6062 103b
000002f0: 5df7 dabd 18f3 66bc 4071 df3b dd6e d5bd
00000300: d04b c5bb 5096 ce3b 6640 19bd 80b6 44ba
00000310: 57ae 983d 96d2 53bd 3072 35bc 81d6 853d
00000320: ae97 dbbd 039d d53d 1539 cd3d 6859 5bbc
00000330: 2ef8 4e3d 6a76 573d 963d cebd d39e b73d
00000340: 8668 193d 8db2 ba3d 2de5 8c3d cc4e cc3c
00000350: 4f32 60bd 3c70 9a3c f340 bdbd b4d3 bdbc
00000360: 90fe 84bb 9cf0 95bd 6100 d13d fd23 a23d
00000370: a07a c0bd 9360 843d 01e2 c23d 3f90 b13d
00000380: 60a0 bbbb 3b32 a3bd 5079 15bc b846 3a3c
00000390: 5809 653c 9618 39bd c852 9ebc a89d 5f3c
000003a0: dcca a3bd a7c8 853d 941b e73c 5c6a 83bd
000003b0: e0a1 b5bc d8b1 94bd dc77 f73c 42bc 083d
000003c0: 1cd5 debd eb0e c0bd eaa0 11bd e00c 34bb
000003d0: c075 313c 185c 9abc fa5a 1d3d 00a4 cdbc
000003e0: 4071 b7bb f269 163d 9a83 01bd 5aef 76bd
000003f0: 872b 933d cddf d6bd e0a3 80bd 4446 97bd
0.042411305 0.02697087 -0.059416443 0.10269124 0.0027355626 -0.06212309 -0.07651789 -0.10616493
-0.100747995 0.04551979 0.06814901 0.025350742 -0.0060859844 0.03224016 0.10158906 -0.09902146
-0.068648815 -0.05112341 -0.08506004 -0.010960177 0.08050843 0.06721818 -0.044913962 -0.039929353
-0.009575851 -0.07007506 0.043512665 0.058565952 -0.030236684 -0.10696859 0.043175153 -0.0021857545
0.07235668 -0.06597692 -0.10395927 0.08301032 0.021809839 0.086866386 -0.10415542 0.048565604
-0.035326824 -0.07667023 -0.0066006035 0.08004423 -0.03230861 -0.013863131 0.012874387 0.04844906
-0.038328648 0.10778657 -0.056161165 -0.081141904 -0.027270645 0.010232277 0.09600035 0.08650797
-0.029211514 -0.058568906 -0.044796094 -0.013114832 -0.045641653 -0.010676697 0.008725576 0.063595705
-0.10861189 -0.0020751283 -0.09227078 -0.108905874 0.06742702 0.099457584 0.10355497 0.02595479
0.00048680604 -0.04894274 -0.00779555 0.032364585 0.06080795 -0.05003914 0.02017828 -0.035550058
-0.07264733 -0.078077406 0.089883186 -0.0044527054 0.046052255 0.008554131 -0.10399393 0.034587093
0.08924144 0.087964244 0.057436682 -0.038609825 0.04790417 0.010970898 0.052443974 -0.048689798
0.046755753 -0.08818181 -0.105048016 -0.0708033 -0.09826441 0.10385474 0.044337817 0.10844538
0.050763883 0.079573266 0.049887158 -0.049072288 -0.037917577 0.07604035 0.09633797 0.10253724
0.021615691 -0.061417174 -0.00082663447 -0.0829088 -0.0077954456 -0.06460355 0.046621405 -0.104404256
0.0012686998 -0.066013515 -0.033808626 -0.050597753 0.0899451 -0.09033043 -0.06837534 0.046915255
-0.015942171 -0.10359419 -0.07126198 -0.09651891 0.08780082 -0.10135396 0.04147 -0.04856803
-0.10260938 0.04459267 0.014324717 -0.04285092 0.07760265 0.062424116 -0.07576792 -0.05875056
0.01127556 0.0531616 0.021993317 0.09985883 -0.10665379 -0.0014420226 -0.041225404 0.09599323
-0.039569795 0.081071906 0.09035606 0.10508085 -0.05588179 0.05566033 -0.027663164 0.04579722
0.060355492 0.019562878 0.0626745 0.034817733 0.051599987 0.05212926 -0.023051508 -0.01389087
0.09321716 -0.031837814 0.04300434 0.04577873 0.03724324 -0.022623599 0.06610217 0.037599467
0.07615318 -0.011551745 0.022254102 -0.039556213 0.10584334 -0.08382399 0.00390701 -0.04505402
0.098133855 -0.03100051 0.10317003 0.0022031292 -0.10691712 -0.014096044 0.0068189204 -0.10421536
-0.0060210004 0.0063045397 -0.03741493 -0.0007504001 0.07455128 -0.051714502 -0.011074588 0.06535054
-0.1072229 0.10430338 0.10020653 -0.013388015 0.05052965 0.052603163 -0.1007034 0.0896584
0.037453197 0.09116087 0.06879649 0.024939917 -0.054735478 0.018852346 -0.09240904 -0.023172237
-0.0040586665 -0.07321283 0.102051504 0.079170205 -0.09398389 0.064637326 0.09515763 0.08670091
-0.0057259053 -0.07968565 -0.009123161 0.0113694 0.0139792785 -0.045189463 -0.019326583 0.013648428
-0.07997677 0.06532412 0.028211392 -0.06416771 -0.022171915 -0.072604835 0.03020852 0.03338266
-0.10880491 -0.093778454 -0.03555385 -0.0027473494 0.010831296 -0.018842742 0.03841684 -0.025102615
-0.0055982172 0.03672213 -0.031619646 -0.060286857 0.071860366 -0.10491905 -0.06281257 -0.07386449

bias f4 [10]
00000000: 8db4 a5bd ba93 5cbd 72ac 87bd d18a 54bd
00000010: cd2a 923d c290 2c3d 1d0b b03d 33ca d3bd
00000020: f06b b3bb 40a1 f6bc
-0.08091078 -0.05385182 -0.06624688 -0.0518902 0.0713707 0.04213024 0.0859587 -0.10341301
-0.0054755136 -0.030106187
